models/ddpg_actor_network.pth (torch, 23734 bytes, 6 tensors)

weight f4 [64, 10]
00000000: 94d6 39bd 6da3 bcbe c1c0 13bd f9e2 913d
00000010: b714 d9bd aab7 0fbf 1b9b 08bf dfe2 85bf
00000020: a0ff 5dbc d125 00bf 67ca 363e 524e 383f
00000030: 41e2 debe e9c7 a33d ed72 cc3e 9cec ca3e
00000040: 593d d0bd 1af0 58bd daf1 c83e 4295 04be
00000050: f10d 9dbe cfdd 533f bb46 0dbd 679d ad3d
00000060: 6b3f 873f b45b ed3e 4e66 683f e614 853f
00000070: f8e4 3c3e 306c 9ebe fe46 c83d d505 313e
00000080: ba63 813e f8a2 ac3d 19a3 c9bf 6a10 a1bf
00000090: d4a5 d4bf a9f0 e6bf 0827 18be f58d 19bf
000000a0: 0aa7 973c 5e2a 863e b2a8 943e 5b32 b6ba
000000b0: a18a bcbf 495a 15bf bf22 a3be a1fa 64bf
000000c0: 437f 66bf 1977 3a3f 57da b63d 010c 473e
000000d0: fad6 e53e 291f 45be 2cef c2bf a870 9bbf
000000e0: 2a0e 6abf bb04 d3bf 0087 abbc 304c 28bf
000000f0: 7f49 a53e 91b8 ac3e 7708 42bd abc5 303d
00000100: 5da6 333e 2673 133f 3118 1a3f b5fd 543f
00000110: f511 0bbd e2ed 9b3e 81d9 ac3b 3991 a0bd
00000120: 536a 9e3e 78be b0be 8edc c3bf 6ec7 4f3e
00000130: 153e 88bf cef8 8ebd b257 dfbf 37fa 283f
00000140: 46e2 ecbe c9e9 2b3f 0496 08be 1d5d 533e
00000150: 86f3 ab3e f4cc cd3e a062 4b3f ee6a 333f
00000160: fa8e bd3e 32c1 553e 2493 76be dffb 233c
00000170: 6c1c 7abe 574d 7f3d e3d0 68be abb4 c23d
00000180: 878f 16bf b523 f3be 9ca9 40bc 35c0 763e
00000190: 931f 91be be28 713f 1035 a63d e54e cc3e
000001a0: 16e9 113f 11ca 48be b11a 6ebd 147f 67be
000001b0: 9c04 8a3e 091c 07bf 66bb be3e c188 30be
000001c0: 3b75 9a3e e022 053e f280 7b3e 3e86 32be
000001d0: 104c 1abe e00a a03e 6981 463e 47c0 76be
000001e0: e489 1cbb d4b1 0e3f a213 303e 078d 4fbe
000001f0: 9508 45bf e9a5 0c3d caa0 40be ab5f 36bf
00000200: ebee 513e 7b43 b33d 6863 783e 71ce e5be
00000210: ff51 6dbe 5e80 0e3e 88dc 0a3e c5b9 5c3e
00000220: ec2e bfbe f125 29be b718 c23e 0cb1 f03e
00000230: 1fa0 f2be 15d9 cb3e b7f5 4e3c 33ee 983c
00000240: eb61 043e 3324 9c3e 289e 403f 436b 683f
00000250: fc93 b73e c269 94be 4f78 933e 45e5 063e
00000260: 3f85 0cbd 1ac9 95bc c034 ec3c e592 6fbe
00000270: 9bdf ed3c 3cbf ff3c 2539 10bf c5e2 993d
00000280: e54f 55be 9423 6fbe f62b 533d 8200 333d
00000290: cb0b 41bf 7da0 a2be d776 56bf 9898 32bf
000002a0: cd58 f5be dcfd c93d c7ed 38bf 7953 afbd
000002b0: 1855 85bd 3d6d 1dbe 5c79 1f3f 9a42 47bd
000002c0: e479 123f 780c 543f 3b4c 803e 598c 79be
000002d0: 69a8 1abe 2b00 5e3d c407 1ebe 6dd5 53be
000002e0: ad24 56bf 67e2 9fbe d608 99bf bc32 55bf
000002f0: 83fc 9ebe a9a0 13bd 6eef 223d 00ea 723e
00000300: 9a57 373e 2731 eb3e 92e1 d3bf 3d94 c5bf
00000310: d947 00c0 3d96 04c0 746b f5bd 1c3e 56bf
00000320: fcd3 d33e 1307 c83e eea7 8c3c ad95 2e3d
00000330: b406 013f 182e 3f3e 6b48 483e e692 263f
00000340: ab50 66be 24e1 1e3e 654f 38be 3989 1d3e
00000350: 25aa a3bc fb76 d63e 9049 3fbe 8934 c6bd
00000360: 7bd7 7fbe 4033 f33e 834e 7b3e 5dc0 ad3c
00000370: 6583 5fbe 378d 85be dd7f aebd 1269 04bd
00000380: d599 25bf c742 bdbd 12f3 95be 4b61 9cbf
00000390: 0bb3 57bf 2627 823e 68ce 9cbc baf4 c23c
000003a0: d7be 543e a139 43be 5016 18c0 905f 7abf
000003b0: 10ab 02c0 ebbe d4bf 2a44 debf 9bf3 e53e
000003c0: c4f6 e33c 1909 533f 1c1e 47bc c2d2 e33d
000003d0: 1a87 353f b7c6 f63e c1ca 4d3f e501 793f
000003e0: e1be 1bbd c39c 69be 21e3 d4be 82f2 cb3e
000003f0: 9172 5ebe de25 20bb f298 083f b987 753e
-0.045370653 -0.36843434 -0.036072496 0.0712337 -0.10599654 -0.56139624 -0.5336167 -1.045986
-0.013549715 -0.50057703 0.17850648 0.7199451 -0.43531993 0.07997114 0.3993143 0.39633644
-0.10167951 -0.052963354 0.39247018 -0.12947562 -0.306747 0.8276033 -0.034491282 0.08477288
1.0566229 0.46359026 0.90781105 1.0397003 0.1844672 -0.30941916 0.09779166 0.17287381
0.25271398 0.08429521 -1.5752898 -1.2583134 -1.6613107 -1.8042194 -0.14858639 -0.59982234
0.018512268 0.262042 0.29034954 -0.0013900505 -1.4729806 -0.5834089 -0.31862447 -0.8944493
-0.90037936 0.7283798 0.08928364 0.19438173 0.44890577 -0.19250168 -1.522924 -1.2143755
-0.9142786 -1.6485819 -0.020938396 -0.6574125 0.32282636 0.33734563 -0.047371354 0.04315726
0.17543931 0.5759758 0.60193163 0.83199626 -0.033952672 0.30454928 0.005274952 -0.07840199
0.30940494 -0.34520316 -1.5301683 0.2029092 -1.0643946 -0.069810495 -1.7448637 0.660068
-0.46266383 0.671536 -0.13338476 0.20640989 0.3358423 0.4019543 0.79447365 0.70085037
0.37023145 0.2087448 -0.24079567 0.010008781 -0.24424905 0.062329616 -0.22735934 0.09507116
-0.58812755 -0.4748818 -0.011759188 0.24096759 -0.28344402 0.9420279 0.081155896 0.39903942
0.56996286 -0.19608332 -0.058130924 -0.2260707 0.26956642 -0.52777153 0.3725235 -0.17239667
0.30167565 0.13001585 0.24560907 -0.17434022 -0.15068078 0.31258297 0.19385304 -0.24096785
-0.00238859 0.55740094 0.1719499 -0.20268641 -0.7696622 0.03433791 -0.18811336 -0.7123973
0.20501296 0.08753105 0.2425667 -0.44884065 -0.2317581 0.13916156 0.13560688 0.2155524
-0.37340486 -0.1651838 0.3790948 0.47010076 -0.47387788 0.39814058 0.012631825 0.01866827
0.12927978 0.30496368 0.7524133 0.9078867 0.3585509 -0.28986937 0.28802726 0.13173397
-0.03430676 -0.01828437 0.028833747 -0.2339588 0.029037287 0.031219117 -0.56337196 0.07513956
-0.20831259 -0.23353416 0.051555596 0.043701656 -0.7540862 -0.31763068 -0.83775085 -0.6976409
-0.47919312 0.09862873 -0.7223782 -0.08560843 -0.06510371 -0.15373702 0.62294555 -0.0486475
0.5721724 0.82831526 0.2505816 -0.24369945 -0.15103306 0.05419938 -0.1543265 -0.20686884
-0.8364971 -0.3122742 -1.1955822 -0.8328054 -0.31052026 -0.03604189 0.03977912 0.23722076
0.17904511 0.45935938 -1.6553214 -1.5435864 -2.0043852 -2.0716698 -0.11983386 -0.8368852
0.4137267 0.39067897 0.017169919 0.04262321 0.50400853 0.18669927 0.19558875 0.650679
-0.2249171 0.15515572 -0.17999037 0.15384378 -0.019978592 0.4188765 -0.18680406 -0.09677989
-0.24984543 0.47500038 0.24541669 0.02120989 -0.21827467 -0.260843 -0.08520482 -0.032326765
-0.64687854 -0.092412524 -0.2928701 -1.2217191 -0.8425757 0.25420493 -0.01914139 0.023798335
0.20775925 -0.19064952 -2.3763618 -0.97802067 -2.0416908 -1.6620764 -1.7364552 0.4491242
0.027827628 0.82435757 -0.012153175 0.11124183 0.70909274 0.48198482 0.803875 0.97268516
-0.038023833 -0.22813706 -0.41579536 0.39833456 -0.21723391 -0.0024436633 0.53358376 0.23977555

bias f4 [64]
00000000: 44a2 5e3f 37a5 1abf a1ac 65bf 25c0 0940
00000010: dfea 913f 9572 303f 4945 5fbf 9302 ac3f
00000020: ac53 aebe f87d fb3e 1b93 d2bd c128 84bf
00000030: cc71 8e3f 713d 2a3e 9631 58bf 1beb cdbd
00000040: db5c b03f bb8f 54bf 2a36 3f3f 56a0 c63f
00000050: 9247 1abf 0bc9 7fbe 3364 9b3f e7f2 3f40
00000060: df27 b8bf b52d 75bf 9e9f 4bbe dfac 48bf
00000070: 5da1 babf 78b2 2ebf b305 ac3f 3cca c33d
00000080: d134 c43f 2964 073f 21e1 e43f 333c b0bf
00000090: 516d 72bf 2a24 8cbe 9397 d03e 4ef4 273f
000000a0: 876d 6cbf c2a1 38bf acc5 99bf 5a7f 0cbf
000000b0: 7fe8 193e 2e4d a4be cdc0 39be 7e38 80bf
000000c0: 1549 8b3e 79db c1bf 5947 0940 c2a1 f5bd
000000d0: 6c71 82be 8227 24bf a82c ee3f 9b68 8ebe
000000e0: 5c79 2d3e 8cf7 b73f 9c68 5ebe 4781 42bf
000000f0: 14fc 383d 87e6 5f3f edcc 453f 1e17 22bf
0.8696635 -0.6040835 -0.89716536 2.1523526 1.1399802 0.6892484 -0.87215096 1.3438286
-0.34048212 0.49119544 -0.102819644 -1.0324937 1.1128478 0.16625 -0.8445066 -0.100546084
1.3778337 -0.83031815 0.7469202 1.5517681 -0.6026546 -0.24979036 1.2139953 2.9992006
-1.4387168 -0.9577287 -0.19885108 -0.7838878 -1.4580494 -0.6824107 1.3439239 0.095600575
1.5328618 0.5288721 1.7881204 -1.3768371 -0.94698054 -0.2737134 0.40740642 0.65607154
-0.92354625 -0.7212182 -1.201345 -0.54881823 0.15030096 -0.32090133 -0.18139954 -1.001724
0.27204195 -1.5145103 2.1449797 -0.119937435 -0.2547716 -0.64122784 1.8607378 -0.27814183
0.16940826 1.437242 -0.21719593 -0.7597851 0.045162275 0.8746113 0.77265817 -0.63316524

weight f4 [64, 64]
00000000: a6cc b8be 9a3b 08bf 4a32 a0bf 07d5 083e
00000010: 449d 283e 8aa2 ea3d 6daf 7f3e 2b10 17be
00000020: 252e 0abe 9110 9fbd 0472 4ebf d235 8bbe
00000030: 6afb 89be 411b 17bf 5258 143d 513a 433e
00000040: 23a9 22bc 741f b03d 7836 1ebe 6a65 d73d
00000050: 3cda 8b3e cf88 bf3e 4fc6 01be 0b98 c7be
00000060: a89b 0e3f 3a15 e9bd 3361 1f3e be76 9c3d
00000070: 40fd 1f3e c793 163e 583c 82bd af81 d63c
00000080: 1708 583e e603 8fbc 9aa2 8dbd fcdf 9b3e
00000090: 5fab 62bf 5ca2 c2bf feeb 02be e9bf b53c
000000a0: fb55 94bf cd93 c63d 810b 42bb ce0a 08be
000000b0: e762 db3c 8d2f 35be 4d9c 1cbf 7f4a f43d
000000c0: d649 69be a3ff 703e ecae 19be 4242 edbe
000000d0: 67a1 8abd db41 0abc 24b9 59bf ff11 d3bc
000000e0: a21c 6abd 8aaa 9ebe 2716 093c 8032 8f3d
000000f0: a3ef be3d a295 92bf fc41 aabd 819f 1d3e
00000100: 1386 003d ad12 7bbe bd5f 183e 9e1e 15bd
00000110: 017c 2c3e 61c8 ac3e 7a5d 1abe 4fc8 133e
00000120: f7a4 30bd 9873 2ebd 419a 0abd 888d 5ebe
00000130: f91e 3dbe 6d55 84be 251b 443e 3fa7 dbbd
00000140: f442 103d 920a 943c 5c1c 25bf a1bc ecbb
00000150: 28df f2bd 9280 cdbc 3cb7 25be 78a9 ad3d
00000160: 3ab5 743c dfc2 7a3e 3260 1bbc 762a 79be
00000170: 8f32 eebd 33de a4bd 2f27 a0bd 29ae b93d
00000180: 601d 6e3d 3421 6bbd 9c01 d83c e1dc 793d
00000190: 06c2 aabd b589 2abe 69a3 a0be 3b93 a7bd
000001a0: d964 c7bd 1125 a3be 7d44 143d a874 3b3e
000001b0: 5524 c9bd d9f5 32be 9b69 6ebe f32a 30be
000001c0: 6982 34bf 6631 403e 225e c93d fc77 e4be
000001d0: 0d55 4b3e 081f dbbe f1b9 393d 6e09 0abf
000001e0: ba11 95be 3fd6 5fbd 1f4b a5be c0bb eb3c
000001f0: 203a 05be 951a 6abc 6df7 ddbe 4550 19bd
00000200: 53a5 913d add6 78be 96b5 28be 19a4 34be
00000210: 3bdd 93bd 1e12 883e 1db1 6bbe 9c17 0abf
00000220: a684 af3c 4606 5c3e 5959 3ebf 5ed2 b23d
00000230: a385 07be 33ed 913e 256f 9cbf 1c8a 2abe
00000240: 048b 0b3d 0ca8 8bbd 60f1 963e 5c21 58bb
00000250: 9d5d 52be 39dc b03e 51e3 a83c c851 0fbf
00000260: d28c 223e 225f acbf 09f5 38be bd9c 3f3d
00000270: 219d 51bd d7ad adbe 579d a1bd 9c9d e63d
00000280: bda5 c3be 4716 403e c79f 45be 369d 14be
00000290: ccb2 5abc a651 023e a74e da3d b95d cb3c
000002a0: d477 813e b8f5 ac3d 3f0c 84bc 28a4 d13d
000002b0: 8937 053d 98da aa3b c8f6 413d 2669 093e
000002c0: f3e6 7f3d 0a6a e83d 8057 00bf 82d4 a6bd
000002d0: 81b9 e4be 30e0 433e f9fb edbe e5c1 2c3e
000002e0: fb04 fdbc 91f5 3cbe 2f0f b7be 7d58 90bc
000002f0: 2fc0 8cbe 8711 27be 4b04 90be 79ad 073e
00000300: eb28 a0bd 959d 1f3e 20a2 3c3e 6cd2 78bd
00000310: bd2b 9ebd 73ed 36bf 1791 843d 3a84 ebbd
00000320: df3a 1dbe 6d6e 92be d5b6 3b3e c9cb 3fbe
00000330: b561 c8bd 3b20 163d 0e71 343d a425 bd3d
00000340: 2d2a 17be 6d31 ad3e 883f 16be 3597 14bd
00000350: add8 1d3e d4e9 bcbd 861d 103e 6db5 46bf
00000360: dad6 923e 5423 1fbd 23ff 223e 7d2e 5e3e
00000370: 6fd7 953e afae 6cbd 87d2 cdbd a0be 5ebd
00000380: 92dc 99be c6df b2bc d648 9fbe 3cfe 223e
00000390: d771 c63e bc58 d0bd e7da 0ebe 9f66 91bd
000003a0: 4b8f 373d 9c53 073d f7f4 313d 9eae 5c3e
000003b0: 65f9 8c3d 69a1 0a3e c9e7 713e 0041 583d
000003c0: f7f0 f8bd f886 32be fdbd 29bf 3dfc 863c
000003d0: ca9d 8a3e e315 37bc 0a89 d03b 0295 78ba
000003e0: 6b8c b13d 6487 04bf e016 f6bd 6945 cb3d
000003f0: 3a73 9cbc 61d0 dc3c bcff 043d 27e7 583e
-0.36093634 -0.53215945 -1.2515347 0.13362513 0.16466242 0.11456783 0.24969263 -0.14752261
-0.13494165 -0.07766832 -0.80642724 -0.271895 -0.26949626 -0.5902596 0.03621704 0.19065215
-0.009928021 0.08599749 -0.15450466 0.1051739 0.27314937 0.37409064 -0.12673305 -0.38983187
0.5570626 -0.11381002 0.15564422 0.07639836 0.15623951 0.1470481 -0.06359166 0.026184885
0.21096836 -0.017457914 -0.069157794 0.30444324 -0.8854274 -1.5205798 -0.12785336 0.022186236
-1.1588739 0.096961595 -0.0029608908 -0.13285372 0.026780559 -0.1769392 -0.61175996 0.119282715
-0.22782072 0.23535018 -0.15008134 -0.46339613 -0.06769066 -0.008438553 -0.8504813 -0.025765417
-0.057156213 -0.30989486 0.008367098 0.06992054 0.09323051 -1.1451914 -0.08313367 0.15392877
0.031377863 -0.24518843 0.14880271 -0.036406152 0.16844179 0.33746627 -0.15074721 0.1443188
-0.043126073 -0.042590708 -0.033838514 -0.21733677 -0.18468846 -0.25846425 0.1915098 -0.10725259
0.0352201 0.018071447 -0.644964 -0.0072246348 -0.1185897 -0.025085721 -0.1618318 0.08479589
0.014935786 0.244884 -0.009483384 -0.24332604 -0.11630737 -0.08050194 -0.07819974 0.090664215
0.058133483 -0.05740471 0.026367955 0.061001662 -0.08337788 -0.16654094 -0.31374672 -0.08182379
-0.09736032 -0.31864217 0.036198128 0.1830622 -0.09821383 -0.17476596 -0.23282473 -0.17203884
-0.7051149 0.18768844 0.098324075 -0.4462279 0.19856663 -0.42797112 0.045343343 -0.5392064
-0.29115087 -0.05464768 -0.32283875 0.02877605 -0.13010454 -0.014288564 -0.43352833 -0.037430067
0.07111611 -0.24300642 -0.1647552 -0.17640723 -0.07219931 0.26576322 -0.23016782 -0.53942275
0.021425556 0.21486768 -0.74355084 0.087315306 -0.13234572 0.2850128 -1.2221419 -0.16654247
0.034068123 -0.06819162 0.2948103 -0.0032978868 -0.20543523 0.34543017 0.020616205 -0.55984163
0.15874031 -1.3466532 -0.18062223 0.046780337 -0.05117524 -0.33921692 -0.07891338 0.1126053
-0.38212386 0.18758498 -0.19299231 -0.14513096 -0.013348293 0.12726459 0.10659533 0.024824964
0.25286734 0.08445305 -0.01611912 0.102363884 0.032523666 0.0052140467 0.04735449 0.13419017
0.06247611 0.1134835 -0.50133514 -0.081460014 -0.44672778 0.1912849 -0.46481302 0.1687084
-0.030886164 -0.18453051 -0.35753772 -0.01762032 -0.27490374 -0.1631528 -0.28128275 0.13249768
-0.078203045 0.15587457 0.18421221 -0.06074755 -0.07723186 -0.7145607 0.06472986 -0.114998296
-0.15354489 -0.28599873 0.18331464 -0.18730082 -0.09784261 0.03665183 0.04405313 0.09235695
-0.14762183 0.3382677 -0.14672673 -0.036277015 0.15414687 -0.09224287 0.14073762 -0.77620584
0.28679544 -0.03885205 0.1591764 0.21697421 0.29265925 -0.05778378 -0.100499205 -0.054381013
-0.30051094 -0.02183522 -0.31110257 0.15917295 0.38758728 -0.10173175 -0.13950692 -0.070996515
0.04481439 0.03303872 0.043446507 0.21550986 0.06883506 0.13538136 0.23623575 0.052796364
-0.121553354 -0.17434299 -0.66305524 0.016477698 0.27073509 -0.011174652 0.0063639926 -0.0009482653
0.08669361 -0.5176909 -0.12016082 0.09925348 -0.019097913 0.026954832 0.03247045 0.21181928

bias f4 [64]
00000000: 01e5 1bbe dc2e 083e 970f 87bf cd33 29bf
00000010: 4c89 86bf be7c 213d da2b 2fbd 85a5 ee3e
00000020: ea98 793f 806b 933f 182e aa3e 3ae2 99be
00000030: 73bb f43f c1c5 51bf fafc e1be 1ae9 a93f
00000040: 4e4b 42bf b7a4 f1be d5b2 0dbf 483e 023f
00000050: 3068 34bf b585 08be d85f ee3f fc2e 25bf
00000060: 05ee 16bf dbe0 d3be e9f6 fdbd aeba 24bf
00000070: 475c 10bf c683 803f e568 5c3f 4db6 b43f
00000080: 2091 b23f 1aec b13f e253 a93f dd72 a03f
00000090: 4c29 59bf e3b3 803f 23ca dd3e 1970 393e
000000a0: 6f73 eabd 807b abbe 58d2 59bc 95d4 91bf
000000b0: a265 82bf 7c06 c43f e312 313d 17a8 a33f
000000c0: 20a1 3e3f 2f3e 8c3d b6d3 3f3f 6920 d93e
000000d0: 4757 583f e4f8 5ebf 6b80 8ebf c734 60be
000000e0: f919 4abf 2501 093f 75ea c13f e66d 99bf
000000f0: 998a 593f cc59 66bf 7cee 35bf 0e0b 2fbf
-0.15224077 0.13299125 -1.0551633 -0.66094667 -1.051065 0.039425604 -0.04276643 0.46610656
0.97498953 1.1517181 0.33238292 -0.3005541 1.9119705 -0.81942374 -0.44138318 1.3274262
-0.75896156 -0.4719598 -0.55351 0.50876284 -0.7047148 -0.13332255 1.8622999 -0.6452482
-0.5895694 -0.4138249 -0.1240061 -0.6434735 -0.56390804 1.0040214 0.86097556 1.4118134
1.3950539 1.3900177 1.3228724 1.2535053 -0.8482864 1.0054897 0.4331828 0.18109168
-0.114477985 -0.3349266 -0.013294779 -1.1393 -1.0187266 1.5314479 0.043230902 1.2785672
0.7446461 0.06847798 0.7493242 0.4240754 0.84508175 -0.87098527 -1.113294 -0.21895133
-0.7894588 0.5351737 1.5149676 -1.1986663 0.8497711 -0.8998077 -0.71067023 -0.68376243

weight f4 [2, 64]
00000000: 17a9 d03e 4667 c83e e0bb 37bf 1513 5abe
00000010: 1e0f 53be c21c 9cba 50de 323c 9ed6 1b3e
00000020: b130 183f 6d14 58bc 3d38 a63e 1a3c 0bbf
00000030: 9943 003e fbe3 23bf 0902 17be f2a1 163e
00000040: 6c9b 8ebe c05d 5cbe b997 0bbe f505 3a3f
00000050: 49cd c3bd f513 4dbd 6e33 973e 72a3 36be
00000060: 72ab 42be 3da4 12be 2cd8 e03a fe1b 24bf
00000070: b010 a7be 97df f23c 36dd 0f3f 1948 ba3e
00000080: fea9 0d3f 915c ea3e 4f1f 9b3e 95a0 3e3e
00000090: 0c77 cdbd bd00 183e c1a0 603e 499f 3bbd
000000a0: 6720 26bb 793a edbe b653 b13e 42b1 28be
000000b0: c044 20be 4b93 2d3e 27e2 d03d 3561 083f
000000c0: bb75 763e 9bc6 b93d 256c b7bd d436 143e
000000d0: 0838 a23e ebd3 66be cd48 8ebd f556 e2ba
000000e0: 81c6 63be 9ba9 2d3f 8371 0abc 3f05 1abe
000000f0: 873a de3e 5b36 2ebf 12d7 9cbe 80e2 8bbe
00000100: 848c c13e 17ba 133e a3d8 33bf 6fb9 38be
00000110: 26f2 1abe 0d07 aa3d 5fbe 2c3c 47e5 a93e
00000120: 64e2 233f 19b6 083e 0b5b 1d3f b759 33bf
00000130: bc77 503e e52f 14bf 2bc6 88bd 6302 863e
00000140: bb31 7dbe 2918 bebd a613 69be c6c8 9a3e
00000150: ddbd 4fbe 8d23 2bbd 159a 183e 4145 b3be
00000160: fd71 cfbd e0f9 a5bd 53c8 b43d 8d91 29bf
00000170: 1a69 b2be c5b2 4a3e 1e92 1b3f 7c88 913e
00000180: ac6d ef3e 5084 e23e 39ca e03e 847b 893e
00000190: a64b 35bd 8326 8f3e 3ebc 5d3e 78ba b93d
000001a0: 3498 3c3e 7b7b f8be 5f35 103e e018 8fbe
000001b0: 88b8 33be 3228 793e 0740 84bd 6d9e e83e
000001c0: 1ae4 9e3e e80a 25be 1ffe b43c 195e e93e
000001d0: fd9d 553e 309a b3bd d844 bdbe 35af 89be
000001e0: 8dcd 88be 04cb c13e b1c0 d23d cca7 98bd
000001f0: 6f35 fa3e 0be2 35bf e80f a9be bd38 b4be
0.40754005 0.3914129 -0.7177105 -0.21296342 -0.20611235 -0.0011910426 0.010917261 0.15218589
0.594493 -0.013188464 0.3246478 -0.5438858 0.12525786 -0.64019746 -0.1474687 0.14710215
-0.27852952 -0.21520138 -0.13632096 0.7266534 -0.095606394 -0.05006786 0.29531425 -0.17835787
-0.19010714 -0.14320464 0.0017154268 -0.6410521 -0.3262992 0.029647632 0.56196916 0.3638313
0.5533751 0.45773748 0.30297324 0.18615945 -0.10032472 0.14844032 0.21936323 -0.045806203
-0.0025348903 -0.46333674 0.3463418 -0.16473868 -0.15651226 0.16950719 0.10199385 0.53273326
0.24068348 0.09071084 -0.08956174 0.1447404 0.31683373 -0.22541778 -0.069474794 -0.0017268347
-0.22243692 0.6783692 -0.008449915 -0.15041064 0.43404028 -0.6805169 -0.30632836 -0.27321243
0.37802517 0.14426456 -0.70252436 -0.18039487 -0.15131435 0.08302126 0.010543435 0.33182737
0.6401732 0.13350715 0.61467046 -0.7005877 0.20358175 -0.5788558 -0.066784225 0.26173696
-0.24726002 -0.09281952 -0.22761402 0.30231303 -0.20287271 -0.04178195 0.14902528 -0.35013774
-0.101291634 -0.081043005 0.08827271 -0.6623772 -0.3484581 0.19794758 0.6076983 0.28424442
0.4676336 0.4424157 0.43904284 0.26852047 -0.044261597 0.2795907 0.2165384 0.09068769
0.18417436 -0.48531708 0.1408286 -0.27948666 -0.17550862 0.2433174 -0.06457525 0.4543337
0.31033403 -0.16117442 0.02209383 0.45579603 0.20861049 -0.08769643 -0.36966586 -0.26891485
-0.26719323 0.378502 0.10290659 -0.0745388 0.48868892 -0.7104804 -0.33019948 -0.35199538

bias f4 [2]
00000000: 56af a53f d188 813f
1.2944133 1.0119878
