models/ddpg_actor_network.pth (torch, 372406 bytes, 6 tensors)

weight f4 [256, 100]
000000 c1 6e 11 be 8d c2 59 bd 71 e9 83 bd 3f e2 27 3d
       -0.14202406 -0.053164054 -0.0644101 0.04098725
000010 a3 00 8c bd d5 d7 e3 3c 0f 9f 93 bd 1a 9a 4c bc
       -0.06836059 0.027812878 -0.072080724 -0.012487913
000020 aa 95 18 3d b0 ee 7d bd e7 a5 09 bc 50 62 86 bd
       0.037252106 -0.06199521 -0.008401371 -0.0656172
000030 d7 c9 6c 3d fb fe 16 3c 28 0d 45 3c d1 09 89 bd
       0.057809677 0.0092160655 0.0120270625 -0.066913255
000040 e3 0f cd 3c cf f2 fa bd fa 70 fc 3d d4 da 54 3d
       0.02503199 -0.12253343 0.12326236 0.051966503
000050 93 b3 2e 3c fe 54 07 3e d7 46 61 bd 38 cc 37 be
       0.010662931 0.13216016 -0.0549992 -0.17948997
000060 9a 3f 9f 3d 73 c1 e3 3d 15 85 09 3e 06 1e 70 3e
       0.07775803 0.11120882 0.13429673 0.23448953
000070 88 4e 79 3d 33 75 13 3d a8 d6 f8 3d f5 9c 64 bd
       0.06086591 0.03600044 0.121503174 -0.05581375
000080 c8 e9 f5 bd 87 f7 48 bd 5b c3 b0 3d 95 0e ae 3c
       -0.12007481 -0.049064185 0.08631011 0.021247188
000090 7b 33 7c 3d ca 61 ed 3d 77 51 84 bd a4 96 1a bd
       0.061572533 0.115909174 -0.06460851 -0.03774132
0000a0 d1 00 a8 bc 2c 37 c4 3c 26 8a d5 bc 41 70 ae 3d
       -0.020508202 0.02395209 -0.02606685 0.085175045
0000b0 7c 44 07 bd 31 08 38 bd 2b dc 00 3d d2 14 0b bd
       -0.033024296 -0.044929687 0.03145997 -0.033955403
0000c0 32 83 2d 3d 95 e8 9b bc 9e 3a bc 3d b5 2a c1 bc
       0.042361446 -0.019031802 0.09190868 -0.023579935
0000d0 0b 95 02 3e 09 69 0a 3e d6 b8 aa bd af 3a 96 bd
       0.12752168 0.1351663 -0.08336036 -0.07335412
0000e0 e6 f5 ad 3c 13 cd c2 bd 1c ed 99 3d 8f 66 09 bd
       0.021235418 -0.09511771 0.07515928 -0.033545073
0000f0 0e 35 24 be a5 ad 02 3e 9e d5 24 3e e2 50 c4 3d
       -0.16035864 0.12761553 0.16097113 0.0958574
000100 3b e2 6a bd 22 76 27 be 9d 48 aa bc fe 20 a8 bd
       -0.057344656 -0.16353658 -0.020786578 -0.08209418
000110 02 c3 fd 3d 2b 5c 27 bc d5 2d 96 3d 2e f3 1c 3c
       0.123907104 -0.010214846 0.073329605 0.009579463
000120 d2 a3 8f 3d 4a 32 0d 3e dc e1 27 be 7a 64 2e be
       0.07013668 0.13788715 -0.16394752 -0.17030516
000130 bf 3b cd bd f4 87 16 3d 27 ee d9 3d 11 52 8c bd
       -0.10021161 0.03675075 0.10641127 -0.068515904
000140 cd 35 31 bd 8f 57 2d 3e 47 a5 e7 3c 58 00 9a bd
       -0.0432642 0.16927932 0.028277053 -0.07519597
000150 d3 0b d3 3c f5 e1 18 3d 45 cc ce 3d 3a 40 28 3d
       0.025762474 0.037324864 0.10097555 0.041076876
000160 e2 4c 08 bd 8d 55 8e bb e6 ce cd bd 42 b8 08 3d
       -0.033276446 -0.0043436945 -0.10049228 0.033378847
000170 6d f2 21 bd 9d c9 a6 3d 1b 27 5d 3d 17 b1 b3 3c
       -0.039537836 0.081439234 0.053992372 0.021935029
000180 30 86 ce bd 75 3f e2 bd 49 b7 e7 3d 07 17 b7 3d
       -0.10084188 -0.1104726 0.11314256 0.08939939
000190 be 1f 92 bd 70 f6 65 3d 59 c0 7c 3d c8 7d c0 bd
       -0.071349606 0.056143224 0.061706875 -0.09398991
0001a0 90 71 03 be ee 2a 7e 3d 39 c4 9e 3d 6c b5 ce 3c
       -0.1283629 0.06205266 0.0775227 0.025232993
0001b0 52 de fe bd 7f b7 a8 bc aa 2a 00 be e8 f5 ce bd
       -0.12444748 -0.02059531 -0.12516275 -0.10105497
0001c0 77 0e ce 3d ce ad 9c 3c cd af 3b bd 09 33 10 be
       0.10061353 0.019125845 -0.045821954 -0.14081968
0001d0 7c 24 8c bd 82 49 4c be 15 33 19 3d 67 e1 75 3c
       -0.06842896 -0.19949916 0.03740223 0.015007353
0001e0 31 35 74 3d 9e 76 53 bc 8e cf 12 be 41 50 03 3c
       0.05962104 -0.0129066985 -0.14336988 0.0080147395
0001f0 c4 8b df 3c 2c 61 59 bd 20 79 f8 3d 74 ce 1e 3e
       0.027288325 -0.053071186 0.12132478 0.15508443
000200 67 ef a7 3d d2 ac 00 3d 6e 0e 03 3d c4 c2 5d 3b
       0.08199959 0.031414814 0.031996183 0.0033838013
000210 5d 51 c7 bd 77 44 11 be de 12 6a bc 34 a5 6a 3e
       -0.09732316 -0.14186274 -0.014286725 0.22914582
000220 bf bc 28 3e 4f de ed 3d 4c 91 b4 bd 9d 90 0d bd
       0.16478251 0.116146676 -0.08816776 -0.034561742
000230 d5 ee 42 bd 52 75 02 be 34 e2 35 3e b1 63 09 bd
       -0.04759105 -0.12740067 0.17762071 -0.03354234
000240 50 a5 aa bc 32 d8 03 be b0 2e aa bd bd a9 ae bd
       -0.02083078 -0.1287544 -0.08309686 -0.08528469
000250 35 0c 18 3d 96 fb e7 bd 33 2c 81 3c 15 4e 8c 3c
       0.037121017 -0.11327283 0.015768146 0.017127076
000260 04 28 53 bd 86 15 b2 3d 89 4a fb bd 29 90 0e be
       -0.051551834 0.086955115 -0.12270076 -0.1392218
000270 70 40 08 be f6 f8 5d be 34 60 80 3d 36 f1 0a bd
       -0.13305831 -0.21677002 0.06268349 -0.033921443
000280 81 49 0b 3c 8a d8 39 bc 3a 9e ae 3c e8 15 44 3d
       0.008501411 -0.011343131 0.021315683 0.047872454
000290 8c 3e 21 be 2b ef 5d bd 8b 96 22 be 75 86 23 be
       -0.15746516 -0.054183166 -0.1587774 -0.1596926
0002a0 a7 61 03 3e f4 eb 9d 3d 1d 46 18 3e 83 7d 00 be
       0.1283022 0.0771102 0.14870496 -0.12547879
0002b0 f8 f2 e5 bb 44 80 1b 3e d3 0f 85 bd 49 47 45 be
       -0.0070174895 0.15185648 -0.06497159 -0.19265474
0002c0 8c 6a 57 be 22 81 47 be c0 4f 0e 3d 35 de 1f be
       -0.21036738 -0.19482854 0.034744024 -0.15612109
0002d0 08 c0 6d bc e3 9f 88 3d 32 ea b7 3d 99 44 2b be
       -0.014511116 0.06671121 0.08980216 -0.16725387
0002e0 38 ef 83 bd cb cb d0 3d e2 33 c5 3c 27 db ae 3d
       -0.06442112 0.101951204 0.024072591 0.08537894
0002f0 58 20 21 be 00 ef e2 bc 34 96 20 be 0a 8d 2c bc
       -0.15734994 -0.027701855 -0.15682298 -0.010531673
000300 1e f4 34 3d db e6 a9 bd 04 30 8c 3d 6b dd f1 bd
       0.04417812 -0.08295985 0.06845096 -0.1180981
000310 04 a2 ae bd 1e a7 02 be 9d 4d bb 3d c9 0a b8 bd
       -0.08526996 -0.12759063 0.09145663 -0.08986432
000320 f9 f5 8e bd 67 69 92 bd 5d 7d 31 bd a4 1c 2a 3d
       -0.06980509 -0.0714901 -0.043332446 0.04153122
000330 64 c3 ee bd b6 de 15 be 02 c7 15 be 23 1e 7a be
       -0.116583616 -0.14635739 -0.14626697 -0.24425559
000340 b2 af 54 bc f1 9a 36 be 1f 86 d0 bd 4b 31 c7 bd
       -0.012981342 -0.17832543 -0.101818316 -0.09726199
000350 89 1e d3 3d b8 82 a7 bd bc dd c9 3c 24 00 84 3d
       0.103085585 -0.081792295 0.024641864 0.06445339
000360 db 39 02 3e 22 59 11 3d 50 2e 06 be 2b 2e d9 3d
       0.12717383 0.035485394 -0.13103604 0.10604509
000370 99 8b 68 3d 63 b7 01 3d 79 ea c4 3d eb ec 24 be
       0.056773756 0.03166903 0.096150346 -0.16106002
000380 77 55 ca 3d 2a ae 7d 3d f8 93 57 3e 1a de 87 3e
       0.098795824 0.061933674 0.2105254 0.26536638
000390 10 a2 c7 3c 2a 24 c3 bd e2 73 b5 3d 26 e6 94 bd
       0.02436927 -0.09528382 0.088599935 -0.0727046
0003a0 0b 1e 82 be 87 62 fc bd e5 cf c0 3c 32 ea 6d 3d
       -0.25413546 -0.1232348 0.023536632 0.058084674
0003b0 7d 13 8d 3d 0a f5 e5 3c d3 27 c5 3c 30 a3 38 be
       0.06888483 0.028070945 0.024066841 -0.18031001
0003c0 04 c3 89 bc fe 3c b6 bc 32 1a be 3d 89 43 0f bd
       -0.016816624 -0.02224588 0.0928234 -0.034976516
0003d0 91 73 26 3d 0a 23 5a 3b c6 8b aa bd 21 c3 03 bd
       0.040637556 0.0033285045 -0.08327441 -0.03216851
0003e0 98 4f 04 be 5f 94 8f 3d 09 6b de bd 5e e7 01 3e
       -0.12920988 0.070107214 -0.10860259 0.12685916
0003f0 c5 31 1f 3e 10 d8 99 bc 62 8d 93 3d 53 be 92 3c
       0.1554633 -0.018779784 0.07204701 0.01791302

bias f4 [256]
000000 39 4a c5 3c f7 d4 04 be 4f 70 58 bc 45 c8 c6 be
       0.024083244 -0.12971865 -0.01321037 -0.3882467
000010 8c fa b3 bd f5 5b ca be 13 5c 50 bb 5a 1c 16 be
       -0.087880224 -0.39523283 -0.0031793162 -0.14659253
000020 f5 1d fe bb 90 31 c7 3e 86 32 93 be cb 88 22 be
       -0.007755036 0.38905 -0.28749484 -0.15872495
000030 32 d8 68 be e8 eb 04 be 13 40 6c be 79 d0 d6 bd
       -0.22738722 -0.12980616 -0.23071317 -0.10488982
000040 cb 3b 12 bd 56 d9 00 bf 13 68 e2 be a3 6e 94 be
       -0.035701554 -0.5033163 -0.44220027 -0.2899066
000050 06 12 0b be b3 07 95 bc 89 a6 b7 3c 3f d3 e3 bd
       -0.13581094 -0.018192148 0.022418277 -0.11124276
000060 dd 14 42 3d f7 0b bb 3c 38 c6 be 3b 8b b5 98 bd
       0.047383178 0.022832854 0.0058219694 -0.074565016
000070 59 c3 a2 3e 18 90 7f 3e 45 5b 62 bd 9b bd 24 3e
       0.31789663 0.24957311 -0.055262823 0.16087954
000080 4a ff ca be df bb f6 3c 58 a2 ac be 04 1a a7 be
       -0.39647895 0.03011888 -0.33717608 -0.32637036
000090 64 86 e4 3c be de 5d be af 59 43 3e 81 d8 c7 3e
       0.027896114 -0.21667 0.1907718 0.39032367
0000a0 2e 09 42 be bc 25 3f 3e 87 99 89 3c 1d 41 85 3d
       -0.18948814 0.18666738 0.01679684 0.0650656
0000b0 af 13 c1 be 9c 1c a5 3e 38 1e a9 be 19 9d 2e bd
       -0.3771033 0.3224839 -0.33030868 -0.04263029
0000c0 04 d0 43 be 68 82 67 3c 25 62 09 bd 04 3d 8a be
       -0.1912232 0.014130212 -0.033540864 -0.26999676
0000d0 16 96 bd bc 3b ce 14 be b4 1e ab be 28 0e 78 be
       -0.023142856 -0.14531796 -0.33421862 -0.2422415
0000e0 68 c9 ce bd e5 b1 92 be ff 00 eb 3c de 05 bb 3e
       -0.10097009 -0.28651348 0.028686998 0.36527914
0000f0 2a a2 ae bd 12 ef d8 3e 86 f9 ee bc 45 e0 9c 3e
       -0.08527024 0.42369896 -0.029171716 0.30639854
000100 58 c3 30 be 4a ba 09 3d ba 3d a0 3e fc cd 93 be
       -0.17262018 0.033624925 0.31297094 -0.2886809
000110 f8 59 5b 3e eb aa e3 3e 34 43 01 3e 0f 63 07 be
       0.21421039 0.44466338 0.12623292 -0.13221382
000120 cf 66 2c 3d 4c 1f 98 bd aa b6 4b be db 6d 00 be
       0.042090233 -0.074278444 -0.198939 -0.12541907
000130 ff dc 6e bd 00 ac 9f 3d a7 ca d6 bb 54 69 e1 3d
       -0.058316227 0.07796478 -0.0065549198 0.11006418
000140 63 14 8a 3d 1d 4a a7 3e 00 cc 84 be 79 0f b0 be
       0.0674217 0.3267373 -0.2593689 -0.34386805
000150 79 21 b2 3d 83 c7 4c be 1b 75 e5 be a9 45 0c bd
       0.08697791 -0.19997983 -0.44815907 -0.03424612
000160 b0 25 c1 be ae b9 df bd b4 fd 86 be 08 2e db be
       -0.37724066 -0.109240875 -0.26365435 -0.42808557
000170 e4 46 a8 be 5a 96 84 bd 31 9a b6 bd bf 3a 84 be
       -0.32866585 -0.0647399 -0.089161284 -0.2582607
000180 20 63 f4 bd a0 d5 7a 3d 8f 88 c6 3e c1 43 0d bf
       -0.11932969 0.061238885 0.3877606 -0.5518151
000190 f1 7c 40 3c 9d 80 9d 3e 29 5d a6 bd 3f dc 07 be
       0.011748538 0.30762187 -0.08123238 -0.13267611
0001a0 4c 4a 67 3d c6 c2 aa be 75 70 e4 be b7 b2 82 be
       0.05646734 -0.33351725 -0.44617048 -0.25526974
0001b0 29 37 99 3e a5 69 df 3e c9 55 cc 3d 35 f4 c3 be
       0.29924896 0.43635288 0.099773 -0.38272253
0001c0 c7 fd af 3d 72 7c 43 bd 9c 92 15 3d a2 91 c1 bd
       0.08593326 -0.047726102 0.03651677 -0.094516054
0001d0 70 44 09 3d a8 24 f6 bb ba 22 23 be 41 e4 77 be
       0.033512533 -0.007511694 -0.15931216 -0.24208166
0001e0 96 06 8b bd cc 47 ed be ec ac 07 bf a8 cd cd 3d
       -0.067883655 -0.4634384 -0.5299823 0.100489914
0001f0 76 88 24 be c8 88 2e be c0 7d 17 be 27 fb 46 3e
       -0.1606768 -0.17044365 -0.14794064 0.19431745
000200 c7 30 e1 3c 91 6a 94 be 7b dc 8f bd 0f 34 00 3f
       0.02748908 -0.28987554 -0.07024475 0.50079435
000210 5f c6 98 3e 02 9a 59 be 52 42 0f bc 07 4e a9 bd
       0.29838845 -0.21250156 -0.008743839 -0.08266836
000220 31 28 87 3d 3b 6b f8 bc dc 59 19 be 4f 2f f1 3e
       0.06599463 -0.030324569 -0.14975685 0.47106406
000230 66 06 2d 3e 51 ef c7 bd 21 fa 1c 3c 7a 9e 38 be
       0.16896972 -0.09762443 0.00958112 -0.18029204
000240 27 d6 86 be 73 f8 7c be 51 f7 8f bd 05 96 ed 3e
       -0.2633526 -0.24704151 -0.07029594 0.46403518
000250 db f9 8e bd 23 a9 ff 3d 6d 44 9c be 55 1a 8d bd
       -0.0698125 0.12483432 -0.30520955 -0.06889788
000260 9c d1 40 be a9 08 60 3e 47 f5 99 bd 13 4d b1 be
       -0.1882996 0.21878304 -0.07517486 -0.34629115
000270 79 74 5f 3e 42 0c ce be fe 95 aa bc 0f 46 04 3b
       0.21821775 -0.40243727 -0.020823475 0.002018336
000280 f2 d3 83 be 4d ef 30 be 28 7b 50 be eb 49 1d 3b
       -0.2574764 -0.17278786 -0.2035948 0.0024000357
000290 78 e9 15 3d 3e 0d 74 be eb e5 52 3c 85 08 34 3e
       0.036599606 -0.23833176 0.0128721995 0.17581375
0002a0 52 21 73 3e a9 a0 0d 3c 13 f0 f6 bd 2e d1 02 bd
       0.2374318 0.008644261 -0.12057509 -0.03193777
0002b0 e7 ee 24 be f1 c7 76 3e f8 86 2b be a6 97 85 be
       -0.16106759 0.24099709 -0.16750705 -0.2609226
0002c0 df 3c 66 3e 2e 3e ca 3e 64 ed 8f bd 39 0b a9 bd
       0.22484158 0.39500564 -0.070277005 -0.08254094
0002d0 25 2a 68 bd 6c e4 1f be 03 4f 13 be 9c 0d 62 be
       -0.056680817 -0.1561448 -0.1438561 -0.22075504
0002e0 24 87 08 be d4 56 84 be 1b ac d0 3e d8 a3 2d 3e
       -0.13332802 -0.25847495 0.40756306 0.16957033
0002f0 22 77 eb bd 20 f7 6f be a4 48 1e be d2 99 b1 3d
       -0.11497332 -0.23434114 -0.15457398 0.08671917
000300 06 8d f7 3c 9a e8 77 be 4c df 4a be 0e 29 21 3d
       0.030218612 -0.24209824 -0.19811743 0.039345793
000310 26 28 c5 be 99 0f 62 3e d9 5f 00 3e b3 2d 85 be
       -0.38507193 0.22076263 0.12536563 -0.26011428
000320 2e 4f 76 3e 34 26 d8 bd 70 d0 75 be 28 7f b7 be
       0.24053642 -0.10554162 -0.24005294 -0.358392
000330 f7 40 e7 3d 7d b3 96 3e da d6 30 be 41 ee 35 be
       0.11291688 0.29433814 -0.1726946 -0.17766668
000340 ef 52 90 3e 13 a3 a4 3d c2 a1 4b be 9b a0 3a be
       0.28188273 0.080389164 -0.19885924 -0.18225329
000350 b4 6f 66 be 31 df b5 bd 9a 84 ca 3d 5f bb 8e bd
       -0.22503549 -0.08880461 0.09888573 -0.06969332
000360 a5 82 5c be b7 89 cc be 62 36 90 be 3a 3c 41 3e
       -0.21534212 -0.39948818 -0.2816649 0.18870631
000370 a8 9a c6 3e fe 11 87 3d 11 bc e0 3e 5d a7 8b be
       0.38789868 0.065952286 0.43893483 -0.27276126
000380 de 1a da be 74 aa f9 3d d2 17 b0 3e 7e 3e 06 bf
       -0.42598623 0.121907145 0.34393173 -0.52439106
000390 e0 0a 3f 3e 57 bc 95 be 07 97 67 bc 22 47 8c 3d
       0.18656492 -0.29245254 -0.014135129 0.06849505
0003a0 aa c2 a8 be 4d fd ba be 0c 76 12 bd a6 7a 55 be
       -0.32961017 -0.36521378 -0.03575711 -0.20847568
0003b0 d2 25 02 be 0f 77 9d 3d 75 98 a0 bd 45 51 a2 be
       -0.1270974 0.07688724 -0.07841579 -0.3170263
0003c0 1b 87 97 bd 9b 54 db 3d 00 44 52 bd 04 42 84 be
       -0.07398816 0.107094966 -0.05133438 -0.25831616
0003d0 98 ab 09 bf dd 5a 97 3e c5 b6 2a 3c d4 1b 2b bd
       -0.53777456 0.2956151 0.010419552 -0.041774586
0003e0 c3 60 c5 be 2e 09 30 3b 76 9f 12 3e 48 0e 52 be
       -0.38550386 0.002686094 0.14318642 -0.2051326
0003f0 c8 6b ec 3d b6 47 11 be 03 33 73 bd ba d0 94 3e
       0.11543995 -0.14187512 -0.05937482 0.29065496

weight f4 [256, 256]
000000 32 dc 99 3c 87 fe 55 bd 82 c0 80 bd 76 20 bd 3c
       0.018781755 -0.05224469 -0.06286718 0.023086768
000010 e3 98 91 3c 29 23 bc bc 29 e5 e1 3b b2 d0 a5 bd
       0.017773097 -0.022965984 0.006893773 -0.08096446
000020 8f 67 df bc 54 e3 65 3c bc c5 1f bd 6f 35 b1 bd
       -0.02727106 0.01403125 -0.039006934 -0.0865277
000030 a7 64 f1 bc 2a 41 c9 3c ec 1b 1a bd 11 44 ee ba
       -0.02946694 0.024567205 -0.037624285 -0.0018178244
000040 1f aa ad bd 1c cc 08 bd eb 55 b6 bd 34 53 c9 bc
       -0.08479714 -0.03339778 -0.08903106 -0.024575807
000050 3a 77 86 bd 0b 5b 71 3d 45 38 b1 bc a8 c2 ee bc
       -0.065657094 0.058924716 -0.021633277 -0.029145554
000060 7b 5c cc bc 88 1c 50 3d d6 c6 d1 bc 3f 92 ca 3c
       -0.024946442 0.05080846 -0.025607508 0.024727939
000070 4c cf b8 bd 28 f4 9c bd 58 54 3c 3d d6 9c 09 3d
       -0.09023914 -0.076637566 0.045978874 0.033596836
000080 69 d7 e5 3a b7 15 5a bd 5f df 4f bd 7c 27 04 b9
       0.0017535511 -0.053243365 -0.050750133 -0.0001260321
000090 3b 72 5d 3b ba 81 3f 3b bc f3 52 bd 7d 78 50 3d
       0.003379001 0.002922161 -0.051501974 0.050896157
0000a0 31 91 32 3d 71 da 81 3d 83 5a 60 bd 67 01 28 bd
       0.043595497 0.063404925 -0.05477382 -0.041016962
0000b0 94 bc 67 bd 57 a8 80 3c 51 53 ac bd f6 58 c9 bc
       -0.056576326 0.01570527 -0.08414329 -0.024578553
0000c0 67 32 e3 3b 99 ed a7 bc 18 d1 09 bd 80 ce 8e bd
       0.0069334987 -0.020499038 -0.033646673 -0.069729805
0000d0 68 d3 4d 3c fc 30 19 3a ea 90 66 bd 53 4d af 3b
       0.01256261 0.0005843786 -0.056290545 0.005349794
0000e0 01 55 cb bd be 97 25 bd 08 3c 18 bd 46 c2 2e bd
       -0.099283226 -0.040427916 -0.037166625 -0.042665742
0000f0 19 b1 99 3c c6 56 ec 3c 1d 1d 4b bd d0 c9 78 bd
       0.018761205 0.02884997 -0.04958831 -0.06073934
000100 63 02 1b 3c 97 4a 82 3a c1 b6 84 bd 34 cc c7 bc
       0.009461018 0.0009940442 -0.0648017 -0.024389364
000110 80 e7 fb bc 54 77 7b bd fc 78 78 bc 4d 93 45 bc
       -0.030750036 -0.061393097 -0.015165564 -0.012059045
000120 aa 64 0f bd 53 d5 b8 bd 93 be f5 bc 07 5f 44 bc
       -0.03500811 -0.09025063 -0.0299981 -0.011985547
000130 04 b0 d1 3c a0 bd 48 bd 68 50 ec 3c b6 d0 14 bd
       0.025596626 -0.049008965 0.028846934 -0.036331855
000140 2a 5b 57 bd e0 2e c6 bc aa bc a3 bd 74 8a 99 bd
       -0.052577175 -0.024192274 -0.07994969 -0.07497111
000150 9a 50 ef 3c d5 56 a9 bd fc d1 13 bd e5 e6 75 bd
       0.029213239 -0.08268515 -0.03608893 -0.06003465
000160 e2 83 a0 bd e1 1a 12 3d 2e 84 41 bd b4 51 1c bc
       -0.07837655 0.035670165 -0.047245197 -0.009540964
000170 07 93 2f 3c 0f f0 2a bd 94 5a 5c bd 27 34 70 bd
       0.010716206 -0.041732844 -0.05379732 -0.058643486
000180 94 76 2f bd b1 b6 aa bc 7b 70 d3 3c 74 1d 94 bd
       -0.042837694 -0.020839067 0.02581047 -0.0723218
000190 a9 ff eb 39 d7 d8 19 3d f2 ef d1 3c 38 a8 a2 bd
       0.00045013175 0.03756031 0.02562711 -0.079422414
0001a0 99 cd bb bc df e8 ad 3c 47 90 37 bd 8c 06 3e bd
       -0.022925185 0.021229206 -0.044815328 -0.046392962
0001b0 ae b8 a8 3d 26 8e 0b 3d 51 0e d3 bc 68 02 89 bc
       0.0823835 0.03407111 -0.025763663 -0.01672478
0001c0 a6 ce a2 3c d6 a8 ca 3b 6a 38 65 bd ba 97 99 bd
       0.019873928 0.0061846776 -0.055962004 -0.07499643
0001d0 fb fc 81 3c 7b 89 7c bd 4a 98 6a bd 48 00 06 bd
       0.0158677 -0.06165455 -0.05727414 -0.032715112
0001e0 64 48 5a 3b 50 79 0c 3c 1e 10 66 3c e0 85 30 3d
       0.0033307308 0.008573845 0.014041929 0.043096423
0001f0 33 00 47 3d 72 ce 45 bd f9 6e f4 bc ca de 55 bd
       0.048584174 -0.048292585 -0.029838072 -0.05221442
000200 ea 69 c5 3c 11 6c 1a bd 9a a3 8d bc 56 3d c4 bc
       0.024098355 -0.037700716 -0.017289925 -0.023955029
000210 d2 0b 5f 3b 7c 9d 04 3d 51 8a b7 3c 54 74 29 bd
       0.0034034145 0.03237675 0.022404822 -0.041370705
000220 69 71 c0 3c 5c 0d 4b 3b b3 a9 20 3d 2a 90 e8 bc
       0.023491578 0.0030983305 0.039224338 -0.028389055
000230 23 d1 3e 3c c7 b2 9e 3c 9d 7d 8f 3c 22 eb 84 bd
       0.011646542 0.019372357 0.017515952 -0.064901605
000240 6f 3e 76 bd e0 9e db 3c 94 df 30 bd 02 b9 3b bc
       -0.060118135 0.026809156 -0.04318197 -0.0114576835
000250 6b a6 0f 3b f7 11 96 3c 1f eb b1 bb bf 39 e0 bb
       0.0021919261 0.018319113 -0.00542964 -0.0068428214
000260 b0 96 b5 bd 91 44 f7 39 7a 7f 47 bd bb f9 c0 bc
       -0.08866632 0.00047162597 -0.048705555 -0.02355658
000270 ca a7 8a bd b5 b9 0a 3d 61 e6 86 bd 80 15 29 3d
       -0.067702845 0.03386851 -0.0658691 0.04128027
000280 0b 28 0c 3d 03 d0 0a 3d 74 e1 74 bd d3 c8 21 bd
       0.034217875 0.03388978 -0.05978532 -0.03949816
000290 69 a9 a7 3c d5 30 4b 3d 27 d7 d3 bd 19 c7 1c 3d
       0.020466523 0.049607117 -0.103437714 0.03827581
0002a0 b6 b7 d3 3c f8 9c b7 bc 77 8b ab bd 62 0f 42 bd
       0.025844436 -0.022413716 -0.0837621 -0.04737795
0002b0 b9 82 7e 3c a8 a4 87 bd 78 e0 c6 bc ed a8 93 bd
       0.015534096 -0.066232026 -0.024276957 -0.072099544
0002c0 89 43 0b bd d6 4c 4e 3d ca 5a a7 3c 18 e6 6f bc
       -0.033999953 0.050366245 0.020429034 -0.014642261
0002d0 f5 b3 4a bd 20 cd 52 bb 74 fa 69 bd 8d 3c 3a bc
       -0.049488027 -0.003216572 -0.057123616 -0.0113669755
0002e0 67 8e 46 bd 4b 6b a8 bb d4 75 07 bd 3d 7a 0a bd
       -0.04847565 -0.0051397434 -0.033071354 -0.03380798
0002f0 dc dc 1b bc 29 15 3e 3c 4d fe 76 bd a8 20 86 bd
       -0.009513106 0.011601725 -0.060301114 -0.065491974
000300 15 66 c8 3c 51 eb 1c 3d 6b 63 f6 bc 5d b6 03 3d
       0.024462739 0.038310353 -0.030076703 0.032156337
000310 c8 45 a0 bd 20 29 39 3d 08 d3 e1 bc 7f d9 f1 bc
       -0.0782581 0.045205235 -0.027566448 -0.029522656
000320 35 02 05 3c ef 0c 35 bd 89 c8 f4 3c 9d 19 57 bd
       0.008118202 -0.044201788 0.029880779 -0.05251466
000330 ae 4e 18 bd 40 c9 a3 bc ec 87 11 bc 7b 2a 9c 3c
       -0.03718441 -0.019993424 -0.008882504 0.019063225
000340 2c d2 11 38 d2 61 67 bd 5d c4 fe 3c ac 3c 0f bc
       3.476643e-05 -0.056489773 0.031099493 -0.008742493
000350 d0 8b 05 bc b0 2d 23 3c 70 49 c0 bd bf 5d de bc
       -0.00815101 0.009959623 -0.09389007 -0.027144311
000360 cd ac 2c 3c 1e ca 32 bb 3c 6a df 3c 7b 9c 79 3c
       0.010539246 -0.0027281116 0.027272336 0.015235062
000370 bb cd fc bc ca b3 2d bd 78 38 03 ba df 9f d9 bb
       -0.030859819 -0.04240779 -0.0005005668 -0.0066413726
000380 1e b4 0d bb 74 8a a4 bd 86 8f bf bd 3f 0c df 3b
       -0.002162225 -0.0803422 -0.09353547 0.00680688
000390 87 8d 39 bd c1 e6 60 3c 80 b0 f8 3c 17 64 00 bd
       -0.045300987 0.013726891 0.0303576 -0.031345453
0003a0 d7 16 a7 3b d4 b4 ff 3a 37 9e 83 bd 36 1a a2 3b
       0.0050991583 0.0019508847 -0.064266615 0.0049469722
0003b0 91 4b 9c bd 45 d6 be bc 8f 7d 53 bc 9d 53 64 bd
       -0.07631601 -0.023295531 -0.0129083535 -0.055743802
0003c0 91 8b 54 3b 43 b9 40 bd 7d cb 68 bc b3 0f 14 bd
       0.003243182 -0.04705168 -0.014208672 -0.036147784
0003d0 b2 a5 47 bd 48 80 06 bc 83 20 45 3d 3e 07 9b bd
       -0.048742004 -0.008209296 0.04812671 -0.07569741
0003e0 39 a8 66 39 eb 5a 14 3d 93 e4 b0 bd f3 bf 93 bc
       0.00021997177 0.03621952 -0.08637347 -0.018035864
0003f0 ab a3 3f bd ef 26 24 3c d9 90 80 bd c0 8c 01 3d
       -0.046786945 0.010019048 -0.062776275 0.03162837

bias f4 [256]
000000 27 3f 74 bd f6 a0 bf 3d b8 9b 57 3c 63 b0 c3 3e
       -0.05963054 0.09356873 0.013159685 0.3822051
000010 3b 4b 7c 3d 44 30 a1 be f8 be 88 bc f3 e2 ea bc
       0.061595183 -0.31482136 -0.016692623 -0.028672671
000020 7f a3 91 bc 79 f6 f5 bb 90 a7 ce bd 08 77 52 3d
       -0.017778156 -0.0075061885 -0.10090554 0.05138305
000030 e4 fc 7f be 66 2d b4 3e 33 33 57 bd 5e 40 6d 3c
       -0.24998814 0.35190886 -0.05253906 0.014480678
000040 5a 2c 9d be d6 88 bd be db 2c 8e bb 24 ab 09 be
       -0.306979 -0.3701846 -0.0043388433 -0.13444191
000050 eb cc a5 3c e5 7a b3 be ab 5e 93 bd 98 4a 5d bd
       0.020239314 -0.350547 -0.07195791 -0.054026216
000060 b0 24 3c bd 21 d3 a0 3e 5e 31 be be e8 22 92 3c
       -0.045933425 0.3141108 -0.3714704 0.01783891
000070 d0 66 92 3c 29 7e 93 be eb cf 99 3e f1 dd 72 3e
       0.01787129 -0.2880719 0.3004144 0.23717476
000080 6a 2c 1a bd 93 4d bc bc ca 8e 90 3e fc 82 5f bc
       -0.037640013 -0.022986209 0.2823394 -0.013642069
000090 1e e2 1c 3b 87 47 1b be 35 d9 c9 bc 37 58 95 be
       0.0023938487 -0.15164004 -0.024639705 -0.29168865
0000a0 f8 84 bf bc 7d 8b 39 b9 09 5e 3f 3d 93 5e e4 3e
       -0.023378834 -0.00017694938 0.04672054 0.44603404
0000b0 f7 d2 0f 3d b0 7e fd bc 8b 51 b7 be 74 86 b6 3c
       0.0351133 -0.030944198 -0.358044 0.02228091
0000c0 b0 f1 43 bd bf 45 ba 3e e9 94 72 3e 0a 77 8a 3e
       -0.047837913 0.36381337 0.23689617 0.27043945
0000d0 39 3e e0 3e 98 0e d8 bc 2a dd a1 be 2f 64 97 3e
       0.43797472 -0.026374146 -0.31614047 0.29568622
0000e0 eb 93 87 be ad af 68 bc 31 4b 9b 3e da 98 b4 3e
       -0.2648004 -0.014202041 0.30330804 0.35272866
0000f0 51 95 da 3d 46 01 26 bc b6 6f 0b bd f9 ad 4f 3d
       0.10673011 -0.01013214 -0.034042083 0.050703023
000100 43 03 9c be 7e 9c 87 be 10 6a c0 be 70 04 b8 bc
       -0.30471238 -0.26486582 -0.3758092 -0.022463053
000110 00 01 c4 be ec 7d ac bc e8 2d e7 3c 4f 90 b3 be
       -0.38282013 -0.021056138 0.028220132 -0.35071036
000120 d2 0e 6c bd fb 07 56 bc 97 21 3a bd ee a5 a5 be
       -0.05763132 -0.013063426 -0.04544219 -0.32353157
000130 a3 51 74 bd f2 ad ae 3e 43 27 03 3d a8 da 34 3e
       -0.059648167 0.34117085 0.032019865 0.17661536
000140 10 00 d4 3e 14 fb 78 be 79 a0 f2 bd 63 6e 89 be
       0.41406298 -0.24314529 -0.11847014 -0.2684203
000150 a7 a3 02 bd 11 3b a6 bd b6 ba 32 bc 67 89 df bc
       -0.031894352 -0.08116735 -0.010908773 -0.027287198
000160 85 91 4b 3d e6 1a 3b 3b c7 31 99 3b e1 2c 70 3d
       0.049699325 0.0028549968 0.0046751234 0.05863655
000170 00 0d f4 bd 58 7e 48 3e 3e ab 5e 3c 5e 77 ce 3e
       -0.11916542 0.19579446 0.013590632 0.40325445
000180 2b e5 33 3e 51 d0 c7 3e 00 fe 93 bc af 8c 9f be
       0.1756789 0.3902612 -0.018065453 -0.3116202
000190 35 f5 ab bd 84 3b 1a 3d bf 7d c8 bd 00 de c5 3e
       -0.08396379 0.037654415 -0.09789609 0.38645935
0001a0 52 bc e5 3c e8 8b b8 3e 25 81 92 bd 28 79 86 be
       0.0280439 0.3604424 -0.071535386 -0.2626431
0001b0 e1 65 82 bd 1a 11 b1 3e ba 7a 0a 3b d9 2c 34 bd
       -0.06367088 0.3458336 0.002113028 -0.043988083
0001c0 fd 39 78 3e 8e 06 e8 3e 86 98 84 be 77 3e 8b 3c
       0.24240871 0.453175 -0.25897616 0.016997559
0001d0 65 bc f6 bc c1 2d 39 bd 7a 74 41 bd e6 84 9a be
       -0.03011913 -0.04520965 -0.04723022 -0.30179518
0001e0 c0 c0 85 be a3 89 f9 3e 6b 07 9b 3c e9 89 84 bd
       -0.2612362 0.4873782 0.018924436 -0.06471617
0001f0 15 f7 9d 3d bb 2e 6f bd be 68 dd 3b cd 82 99 bd
       0.07713143 -0.058394175 0.006756871 -0.074956514
000200 d9 77 c5 3e e7 39 b0 3e 46 7f 94 be 8d 87 d4 3e
       0.38568 0.34419176 -0.29003352 0.41509667
000210 3d a4 8d be a3 f1 92 bc a9 d6 86 bc cc d4 b8 be
       -0.27664366 -0.017937487 -0.01645978 -0.3609985
000220 bb d0 bf bd c9 59 35 3d e4 97 52 bd 31 48 d5 bb
       -0.09365984 0.04427508 -0.051414385 -0.00650885
000230 7c 61 95 be 3a f4 bb be 6d 65 9c bd 2e 6d bb be
       -0.29175937 -0.36709768 -0.07636533 -0.36606735
000240 1d d6 8c be 35 0c d3 bd 0f 45 15 bd 2d 52 3f 3d
       -0.27507105 -0.10305063 -0.036442813 0.04670923
000250 41 05 4a bd fc f5 92 bd 2e 0a 52 ba 53 84 a6 be
       -0.049321417 -0.07175824 -0.0008012381 -0.3252283
000260 f7 35 2e 3d 0f 5f be 3c 3b 9e 49 bd cf c4 6f be
       0.042531934 0.023238687 -0.049223166 -0.2341492
000270 3b 43 04 3a a8 10 b1 3e e2 44 56 bb 81 6e b1 3c
       0.00050454185 0.3458302 -0.0032694866 0.021659138
000280 67 52 99 bd d4 8a 4b bd 31 cb ce 3c 76 0a a4 be
       -0.0748642 -0.049692944 0.025243374 -0.3203923
000290 07 14 cb be 8b af e3 bd 69 9a 5a 3c b0 6c 74 be
       -0.39663717 -0.111174665 0.013342478 -0.23869586
0002a0 e7 7d ac 3e ca 87 b4 bc 30 d8 d7 3c 13 8c 2c be
       0.33689806 -0.022037406 0.026348203 -0.16850309
0002b0 25 15 bc 3d 34 1c 9e bd 26 1e e9 bc 8c 3b 8f 3c
       0.091837205 -0.07720223 -0.028456759 0.017484449
0002c0 73 70 b8 be 55 14 97 3e af 6b ea 3e 26 51 f7 bc
       -0.36023292 0.295077 0.4578528 -0.030190062
0002d0 5c 9f 67 3e 34 c4 aa bd 76 e1 26 3c 44 e9 ab be
       0.22619385 -0.08338204 0.01018559 -0.33576405
0002e0 00 e4 44 be 47 1d fa 39 b4 14 95 3e d7 de 46 3e
       -0.192276 0.0004770553 0.29117358 0.19420944
0002f0 b8 53 a6 3e ac 9b b0 3c 8d 4d 15 be 88 b7 2a bd
       0.32485747 0.021558605 -0.14580365 -0.041678935
000300 56 b5 98 bc c5 b6 17 3d a9 52 9b be 0a 02 ab 3d
       -0.018641155 0.037039537 -0.30336502 0.08349998
000310 ca 78 73 be 4f 42 8a 3c d2 a2 9f bd 4c a4 87 be
       -0.23776546 0.016877322 -0.077947274 -0.26492536
000320 32 1e 82 bd b6 d8 99 be ea 8e 88 be 0d 7f a5 bd
       -0.063534155 -0.3004815 -0.26671535 -0.08080874
000330 b1 25 8d be 7a 1f cb be b4 f2 c5 3e 93 3d bd 3b
       -0.2756782 -0.39672452 0.3866173 0.0057751625
000340 da c8 67 bd 1a 12 86 be 58 a6 a8 be 6b 7a 2f 3b
       -0.05658803 -0.26185685 -0.3293941 0.0026775848
000350 6f e7 b2 be 58 43 8d be 9b 31 93 bd f7 0d cb 3e
       -0.34942195 -0.27590442 -0.07187196 0.39659092
000360 91 d4 06 bd 5b 1d b6 ba e9 f5 9e be 16 29 e2 3e
       -0.032917563 -0.0013894247 -0.3104699 0.4417197
000370 c1 f9 96 be cd 40 af be 95 e7 32 3e 2a 8d 42 3d
       -0.29487422 -0.34229127 0.17471154 0.047497906
000380 6e f3 b2 bc 1c 78 a6 be 6e b4 95 be d0 78 b3 3c
       -0.021844592 -0.3251351 -0.2923922 0.021908194
000390 cd 1b 5c bd be fe cb be fc c7 b7 3e ee 32 c8 3e
       -0.05373745 -0.3984279 0.35894763 0.39101356
0003a0 1e 5d 3c 3b 1e 0a a7 3e 60 6d 60 3c 28 36 a7 3b
       0.0028742026 0.32624906 0.013697952 0.0051028915
0003b0 88 8e ae 3e d0 ae 43 bd 91 93 b3 bd 49 8a 82 be
       0.34093118 -0.047774136 -0.087683804 -0.25496128
0003c0 ae ca f3 3c 3b 55 7e 3c 96 16 63 bd 1b f8 a6 3c
       0.029759731 0.01552325 -0.05544146 0.020381978
0003d0 de 6a 46 bd c3 9b d9 be 0b da 38 3e c9 72 39 3e
       -0.04844176 -0.4250165 0.18051927 0.18110193
0003e0 74 d4 96 3e 39 d1 ad be b3 00 d0 3e e0 cb bd bc
       0.29458964 -0.33948687 0.40625533 -0.023168504
0003f0 71 53 9c bc 5f 6a 7a 3c b7 de 16 bc 96 ce 9e be
       -0.019082757 0.01528415 -0.009208373 -0.31016988

weight f4 [2, 256]
000000 a2 92 fa 3c df c8 18 bc 45 51 b6 3c 4b 7c 33 3e
       0.030587498 -0.009325235 0.02225555 0.17527883
000010 f2 cf 4d 3d 95 d0 8e bc e1 9a b1 ba 27 f2 8b bd
       0.05024714 -0.017433444 -0.0013550186 -0.06833296
000020 47 b0 c2 bc d0 88 44 bc 0f 77 83 3d ab 6e 60 b9
       -0.023765696 -0.011995509 0.06419193 -0.00021403532
000030 9b 1e c8 ba da d9 46 3e 25 55 f6 bd 59 1a 92 3c
       -0.001526791 0.19419041 -0.12027959 0.01783483
000040 fb 17 0b bd 43 ae c3 bc 14 71 d7 bb e6 55 e9 3d
       -0.033958416 -0.023886805 -0.0065747593 0.11393337
000050 e2 e2 80 3c 1e 05 47 bd f0 af 5e 3d a4 bb a2 bb
       0.015733186 -0.048588865 0.054367006 -0.004966216
000060 1c 8f c3 bb c2 ef c3 3d 80 85 5b bd cc ff d3 3c
       -0.0059679877 0.095672145 -0.053594112 0.02587881
000070 3d 1c fc 3b 04 3d 14 3c 1f 90 1d 3e af 6c 2b 3e
       0.007693796 0.00904775 0.15387009 0.16740678
000080 c3 e3 72 bd 83 08 a5 bc 48 76 b4 3d fa c1 18 3c
       -0.05929924 -0.02014566 0.08811623 0.009323591
000090 9d 22 cf 39 29 73 64 3d 13 64 de bc e8 47 4f bd
       0.00039507906 0.055773888 -0.027147328 -0.050605685
0000a0 13 bb bd 3c cc 01 f7 bc 14 9d 8e bb 91 b9 33 3e
       0.023160493 -0.030152224 -0.0043522213 0.17551257
0000b0 4c 02 2b 3d 1b 29 a0 bb c2 d6 af bd fc 10 5f 3c
       0.041750237 -0.0048877127 -0.08585884 0.013614889
0000c0 ff 02 db bb c4 ec e4 3d da ad f8 3d 39 c0 05 3c
       -0.006683707 0.11177972 0.121425346 0.008163505
0000d0 43 46 40 3e 66 77 1a 3c 62 64 72 bb db fd d9 3d
       0.18776803 0.009427881 -0.0036986102 0.10644122
0000e0 ee 02 3b bd f4 39 74 3d 0c 74 23 3e 8d ec 56 3e
       -0.04565709 0.05962558 0.15962237 0.20988674
0000f0 e8 24 d7 bd ad ba b7 bb 1b fe 1d 3d d7 64 28 3c
       -0.10505086 -0.0056069703 0.038572412 0.010277948
000100 c8 57 53 bc 63 57 2d be f4 03 66 3c 28 30 32 3c
       -0.012899347 -0.16927867 0.014039028 0.010875739
000110 6e 89 e0 bd dc fe be bc db 88 92 3b 44 2d 82 bd
       -0.10963713 -0.023314886 0.004471881 -0.0635629
000120 cd de 02 bd 71 eb 8b bb 08 2e 82 3d 74 38 b9 bd
       -0.03195076 -0.00427001 0.06356436 -0.09043971
000130 a4 75 30 3c ef 5b f4 3d 50 00 f3 3c 26 91 3c 3d
       0.010770235 0.119315974 0.029663235 0.04603686
000140 5b 10 19 3e 9d 5d 8e bc ea f9 fb 3d 8f 23 7b b9
       0.14947645 -0.017378623 0.12303527 -0.00023950472
000150 01 4d e4 3c e6 a2 25 bc 54 14 01 3e c1 2b 22 3c
       0.02786875 -0.010109639 0.12605411 0.009898127
000160 57 9b 76 3c 71 cb 54 3c 3f 80 9e bb c1 41 bd 3c
       0.015051684 0.012987957 -0.0048370655 0.023102643
000170 44 de f3 3c 4f f0 49 be 44 e1 a2 3c d9 31 0d 3e
       0.02976907 -0.19720577 0.019882806 0.13788547
000180 c6 13 4a 3d ac 73 21 3e 4d b4 76 bd fb d6 fd bc
       0.049335264 0.15766782 -0.060230542 -0.0309863
000190 c3 1c 82 bc d6 69 b0 bc 56 3a 3b bd 77 b3 3c 3e
       -0.015882855 -0.021534842 -0.04570993 0.18427835
0001a0 49 7e 22 3d 57 b6 12 3e 46 e2 87 3c e4 33 80 bd
       0.039671216 0.1432737 0.016587388 -0.06259897
0001b0 6b 51 54 bb 45 a6 dc 3d d6 15 09 bb 0e ea 0a 3d
       -0.0032397162 0.10773901 -0.0020917556 0.03391462
0001c0 e5 fa 22 3d d4 5d 0e 3e 37 de 75 bd f1 de 01 3c
       0.039790053 0.1390298 -0.060026374 0.0079266885
0001d0 07 86 73 bb cd 0e 91 3c 2f a1 04 bc c6 35 39 bd
       -0.0037158744 0.017707253 -0.00809507 -0.045217298
0001e0 0a 3c 5d 3a 05 91 3e 3e 8e 3b f7 bd 7f ef 13 3e
       0.00084394275 0.18610008 -0.12071906 0.1444683
0001f0 b5 30 d3 3c f0 1e 91 bc 00 a2 1b bb 66 39 4e 3d
       0.025780061 -0.017714947 -0.0023747683 0.05034771
000200 5b 7b 25 3e 03 4b 3e 3e b9 a8 21 be cc 33 36 3e
       0.16160338 0.18583302 -0.15787019 0.17793196
000210 89 c3 92 bd 63 72 12 3b 41 0e 4f 3d bd 64 c6 bd
       -0.071662016 0.0022346012 0.050550703 -0.09687183
000220 6f cc c4 3b 46 3d 5f 3c 9f f4 d2 bb 82 3b aa bc
       0.0060058157 0.013625449 -0.0064378525 -0.020780329
000230 08 a6 50 bd 6a 08 1f bd bd d4 9c bc b1 66 21 bd
       -0.05093959 -0.038826384 -0.01914441 -0.039404575
000240 cf bc bd bd 4f 4b 16 bd 0b c6 d4 3c db ea 77 bc
       -0.09264528 -0.036692914 0.02597334 -0.0151316775
000250 95 1a ad 3c 5a 7a c8 bc ea 22 3a ba 29 85 92 3c
       0.02113084 -0.024472404 -0.00071005395 0.017885761
000260 2f 39 c7 ba 58 60 c0 bc 1d 9f 1a 3c 1d c1 03 3d
       -0.0015199537 -0.02348344 0.00943735 0.03216659
000270 85 76 e1 bb b7 d8 31 3e 83 2a 25 bd b8 07 3a 3d
       -0.0068805837 0.17367826 -0.040323745 0.045417517
000280 53 a5 02 3e b1 83 82 bd c2 0d fd bc 34 87 06 bc
       0.12758379 -0.063727744 -0.03089035 -0.008210946
000290 73 b2 24 bc 03 30 79 bd 1c e0 31 3d 11 d6 5d 3c
       -0.010052311 -0.060836803 0.043426618 0.013539807
0002a0 02 71 f6 3d cd ae a1 3c a1 bb c4 bc df 79 c3 bd
       0.12033273 0.019736672 -0.02401525 -0.095447294
0002b0 b0 34 f6 3c 27 f4 80 bc 70 3d 67 bd 08 b5 a2 bc
       0.03005442 -0.01574142 -0.056455076 -0.019861713
0002c0 db 31 4b bd 18 05 19 3e 64 4e 36 3e 84 a6 15 bd
       -0.049608093 0.1494335 0.17803341 -0.036535755
0002d0 11 2f 0f 3e 62 5b 80 bb f2 7d a2 bc 03 55 ae bd
       0.13982798 -0.0039171437 -0.019835446 -0.085123084
0002e0 12 f8 f2 bd 3c 7f d0 bc 0d 1e 1c 3e 02 64 bf 3d
       -0.11863722 -0.025451295 0.15245838 0.09345247
0002f0 48 11 18 3e 52 46 a2 ba 7a 44 1f bd 8a 77 5c 3d
       0.14850342 -0.0012380576 -0.038883664 0.05382494
000300 a9 02 f9 3b 79 3a 19 3b 96 3b a6 bd 7d df 7a bd
       0.007599194 0.00233808 -0.08116834 -0.06124829
000310 b9 a7 e5 bc 9c 35 62 3d 34 0b 6f bc 00 af d1 bc
       -0.028034078 0.055226907 -0.014590073 -0.025596142
000320 8c 27 d5 3b c2 87 8c bc 77 38 da bc 4f a9 87 bb
       0.0065049585 -0.017154578 -0.026638253 -0.004140056
000330 0b 13 89 bd 47 89 0b bd 73 f3 2a 3e 5b 5f 57 bc
       -0.06693085 -0.034066465 0.16694431 -0.013145293
000340 0a a8 64 3c 82 0d 8f bd db fa d1 bb 70 bd 17 bc
       0.013956079 -0.06984998 -0.006408078 -0.009261474
000350 64 40 1f bb b5 ee 94 bb 08 02 e2 bc a3 0d eb 3d
       -0.0024299854 -0.0045450577 -0.02758886 0.114772104
000360 41 eb 1f 3c 58 92 73 bb 1b 3f 82 bd 31 94 db 3d
       0.009760679 -0.0037166085 -0.06359693 0.10721625
000370 db 37 d8 bc c8 b9 c7 bd 23 94 eb 3c 5a db 2d 3d
       -0.026393821 -0.09752232 0.02875716 0.042445518
000380 38 27 d3 bb ef 1b 91 bd 7b 97 4e bd 59 d6 5d 3b
       -0.006443884 -0.07085406 -0.05043743 0.0033849685
000390 f9 d3 b2 bc 91 de 25 bd f1 e6 10 3e 20 2e 31 3e
       -0.021829592 -0.04049546 0.14150597 0.17302752
0003a0 33 9a 26 bb 8b 61 31 3e 9d 72 93 3b 8b 07 22 bd
       -0.00254215 0.17322366 0.004499747 -0.039557975
0003b0 cc c5 c3 3d 63 d5 c2 3c 3a 42 25 3d 2d 76 10 bd
       0.09559211 0.023783391 0.04034636 -0.03526895
0003c0 13 a4 da bc 5a 49 ea bc aa 46 5d bc 3b fe 32 3b
       -0.026689565 -0.02859943 -0.013505617 0.0027312178
0003d0 06 16 41 3d 77 75 6e bd 4d f5 1a 3e 7f be f6 3d
       0.047140144 -0.058217492 0.15132637 0.12048053
0003e0 cc c0 8d 3d d6 14 d4 bd ac 2f 2c 3e 2e be 8e bc
       0.06921539 -0.10355537 0.1681506 -0.01742467
0003f0 d9 88 28 3d 97 36 4a be 4e 16 60 3d d2 f4 78 bd
       0.041146133 -0.19747387 0.05470877 -0.060780354

bias f4 [2]
000000 fe 79 a6 3e d6 2c 95 3e
       0.32514948 0.2913577
