models/ddpg_actor_network.pth (torch, 76470 bytes, 6 tensors)

weight f4 [128, 10]
0.012467737 -0.1377486 -0.19633594 -0.12432554 -0.26285645 0.19172327 -0.23804267 0.27039507
0.043621175 -0.112675525 -0.24939571 0.22229466 -0.20131811 0.27091533 -0.009513748 0.14091927
0.12800649 -0.12338823 0.15218657 -0.10661076 0.051353358 0.06734921 -0.13585906 0.23564236
0.10843211 -0.32224655 -0.103642695 -0.2948822 0.3650255 0.009092207 -0.119575046 -0.12109056
0.23433098 0.01564963 -0.019000346 -0.09389502 -0.21138981 -0.1713808 -0.14160965 0.22378816
0.031158427 0.17305657 -0.14761285 -0.25405958 0.06342963 0.2801992 0.2213117 0.0664279
-0.094899006 -0.06554595 -0.25982442 -0.33674362 0.04638669 0.25455812 0.28584236 -0.23137449
-0.12625267 0.16135217 -0.16521913 -0.27387285 -0.30286577 -0.32627782 0.18361679 0.16819774
0.10937191 0.1551295 -0.09651442 0.17790487 -0.0067532803 -0.20947282 0.07662161 -0.15662016
-0.12585369 0.22907618 0.28884184 -0.23107754 0.07760354 -0.118688166 0.041838247 -0.3115091
-0.23339984 0.028405206 -0.28979796 0.31139347 0.06455757 -0.110397734 0.14160798 -0.221177
0.26842773 0.31842396 -0.103601485 0.20353629 0.21447065 0.32546782 -0.15872535 0.28377956
-0.111204565 0.28507677 -0.09396626 -0.2099976 0.17775685 -0.09829302 0.030473828 0.24085912
0.14621831 0.33945087 -0.3309337 0.067949526 0.02118471 -0.19479904 -0.22009163 -0.0071717193
-0.049785264 -0.028502816 -0.21098863 -0.25555512 0.22164206 -0.09533055 -0.16813925 -0.004771269
-0.0832299 0.1762232 0.21213429 -0.27244234 0.024728768 0.21504252 0.15600158 0.05850724
-0.26701543 0.1812309 -0.15011819 0.15925509 0.17707922 0.2923258 0.07448476 -0.32026985
0.24932258 -0.25926363 -0.098703645 -0.08409865 0.09155041 -0.06514175 0.043978572 0.26330984
-0.13678746 0.19484526 -0.0881977 -0.19961265 0.24567316 0.13930827 0.13397163 -0.06495456
0.24501745 0.23186933 -0.16709603 0.33847213 -0.3281134 -0.17892876 0.057625856 0.30427405
0.19344598 -0.20887138 -0.24061786 0.11156029 0.12093645 -0.18478912 -0.25236213 -0.22760281
-0.12759446 -0.23356336 -0.004234928 -0.005902772 -0.236748 -0.19350158 -0.21687454 -0.036754787
0.23958664 0.026576161 -0.08689118 0.260238 0.28060746 -0.194642 0.26157328 -0.023997482
0.26262313 -0.1522713 0.14111525 0.20763211 0.24928842 0.049548056 0.2804517 -0.07342035
0.014059689 0.03915799 0.18271653 -0.19423577 -0.14427459 -0.07071778 0.26820466 -0.25437498
0.257028 -0.15250593 -0.19633724 -0.28606504 -0.024797518 -0.20903791 -0.01435115 0.029452942
-0.030256713 -0.20850097 -0.11930176 -0.05834334 -0.047244407 0.14846915 -0.3106957 -0.17917845
-0.30109474 -0.17880304 -0.35561916 -0.20349409 0.109421186 0.3507304 -0.19564241 0.22404884
0.14730416 -0.1994638 -0.1507056 0.28315452 0.33401993 0.24970216 -0.15967803 0.19847065
0.08935172 0.012013501 0.21383871 -0.11496657 0.14173608 -0.16461115 -0.22152121 0.3011102
0.10557538 0.0038676318 -0.1893069 0.18344355 -0.13032332 0.33453614 -0.08967325 -0.081906825
0.3566626 -0.13542885 -0.1963071 0.045109693 -0.29192138 -0.17065454 -0.005603028 0.19426379
00000000: 7b45 4c3c f80d 0dbe 4a0c 49be 649e febd
00000010: 1f95 86be 1b53 443e 75c1 73be 3971 8a3e
00000020: 1eac 323d 6dc2 e6bd 9761 7fbe 36a1 633e
00000030: 5626 4ebe 6ab5 8a3e 8ddf 1bbc 244d 103e
00000040: 2214 033e f8b2 fcbd ccd6 1b3e be56 dabd
00000050: e657 523d 62ee 893d a31e 0bbe 3b4c 713e
00000060: a711 de3d 80fd a4be 9f42 d4bd cdfa 96be
00000070: 9fe4 ba3e 7bf7 143c c3e3 f4bd 54fe f7bd
00000080: 76f4 6f3e a733 803c 9da6 9bbc 084c c0bd
00000090: 9276 58be 737e 2fbe 1f02 11be b928 653e
000000a0: f53f ff3c be35 313e d327 17be 1914 82be
000000b0: 65e7 813d 4576 8f3e 899f 623e 5a0b 883d
000000c0: 695a c2bd f43c 86bd b507 85be a969 acbe
000000d0: f8ff 3d3d 7155 823e ee59 923e 6fed 6cbe
000000e0: 6148 01be 8139 253e 342f 29be 1039 8cbe
000000f0: 3911 9bbe e30d a7be 0a06 3c3e 073c 2c3e
00000100: 61fe df3d 45da 1e3e 5aa9 c5bd b22c 363e
00000110: 9f4a ddbb 0b80 56be caeb 9c3d 0961 20be
00000120: cadf 00be f292 6a3e 14e3 933e 979f 6cbe
00000130: 9bee 9e3d c812 f3bd 955e 2b3d 1f7e 9fbe
00000140: 5e00 6fbe 09b2 e83c 6660 94be f76e 9f3e
00000150: c236 843d 3518 e2bd af01 113e 397c 62be
00000160: 5c6f 893e 7708 a33e 042d d4bd d16b 503e
00000170: 329e 5b3e b8a3 a63e e688 22be 8e4b 913e
00000180: 38bf e3bd 95f5 913e 6271 c0bd 9c09 57be
00000190: e405 363e da4d c9bd 40a4 f93c c6a3 763e
000001a0: 41ba 153e 81cc ad3e 2470 a9be 1f29 8b3d
000001b0: 8f8b ad3c 6679 47be b35f 61be be00 ebbb
000001c0: a2eb 4bbd bd7e e9bc 670d 58be 1fd8 82be
000001d0: 23f6 623e aa3c c3bd b22c 2cbe 4e58 9cbb
000001e0: 7074 aabd db73 343e bb39 593e 907d 8bbe
000001f0: fc93 ca3c 1b34 5c3e e1be 1f3e 4aa5 6f3d
00000200: 3fb6 88be 9894 393e 95b8 19be c413 233e
00000210: 4154 353e baab 953e 778b 983d 69fa a3be
00000220: 6b4e 7f3e 34be 84be 2325 cabd ea3b acbd
00000230: c87e bb3d 0a69 85bd e022 343d 8cd0 863e
00000240: 0312 0cbe 8485 473e ffa0 b4bd 4267 4cbe
00000250: bf91 7b3e d4a6 0e3e dc2f 093e e506 85bd
00000260: dbe5 7a3e 276f 6d3e 391b 2bbe 384c ad3e
00000270: 7bfe a7be 1a39 37be 1709 6c3d cfc9 9b3e
00000280: b416 463e 61e2 55be 8764 76be b979 e43d
00000290: 88ad f73d 5c39 3dbe 9c35 81be b610 69be
000002a0: 1fa8 02be 3c2b 6fbe 27c5 8abb 0a6c c1bb
000002b0: 116e 72be 4725 46be 5c14 5ebe 308c 16bd
000002c0: 3356 753e 40b6 d93c 01f4 b1bd ea3d 853e
000002d0: c8ab 8f3e 3c50 47be efec 853e 5e96 c4bc
000002e0: 8a76 863e 02ed 1bbe 8480 103e 839d 543e
000002f0: 7745 7f3e e7f2 4a3d 5d97 8f3e 695d 96bd
00000300: 9c5a 663c 2164 203d 0b1a 3b3e bee5 46be
00000310: b8bc 13be 7cd4 90bd 1f52 893e 703d 82be
00000320: 2d99 833e 842a 1cbe a10c 49be 1e77 92be
00000330: 2a24 cbbc 090e 56be 1621 6bbc 4c47 f13c
00000340: eddc f7bc 4781 55be 7b54 f4bd 6df9 6ebd
00000350: 5a83 41bd 4c08 183e 8213 9fbe 8e7a 37be
00000360: 1729 9abe 2518 37be b713 b6be c160 50be
00000370: 3718 e03d ef92 b33e 7c56 48be 0f6d 653e
00000380: e7d6 163e 3d40 4cbe 9252 1abe a1f9 903e
00000390: a904 ab3e ecb1 7f3e a382 23be e43b 4b3e
000003a0: 09fe b63d 46d4 443c 89f8 5a3e 9873 ebbd
000003b0: 4323 113e d38f 28be 75d6 62be 1e2b 9a3e
000003c0: e837 d83d 1878 7d3b abd9 41be a0d8 3b3e
000003d0: 7a73 05be 5248 ab3e 9ca6 b7bd c4be a7bd
000003e0: 7b9c b63e dcad 0abe ba04 49be f1c4 383d
000003f0: b876 95be 10c0 2ebe 9b99 b7bb 16ed 463e

bias f4 [128]
-0.34415364 -0.077786125 0.23649897 -0.10027858 -0.05722327 0.23917945 -0.058831993 -0.34890202
-0.21850495 0.24872142 -0.06735051 0.09596208 -0.22387765 0.24062432 0.2158365 0.17906058
-0.03653971 -0.05977107 -0.22874668 0.1653927 -0.28202114 -0.061934188 -0.0024806252 0.02780143
-0.24208067 -0.02527834 -0.0020927442 -0.054122 0.15870455 0.0676732 0.07810522 0.12406932
0.12837099 0.104873486 -0.10072753 0.13403594 -0.053978097 -0.2510886 0.29844925 0.123440854
-0.09157635 -0.19212292 0.050589293 0.009728532 -0.1996126 0.20273064 0.15297107 -0.046727113
-0.24237381 -0.1798758 -0.11528775 -0.18875158 0.22119568 -0.25488707 0.24050517 0.18522112
0.27620214 0.054255784 0.24960248 -0.06997381 -0.02447519 -0.22417033 0.15110701 -0.01825616
0.09425433 0.008845983 0.26833227 -0.19811842 0.064952776 -0.29655856 -0.023614949 -0.28318062
0.08871738 0.27166796 -0.087193765 -0.23287082 0.066737175 0.18953605 0.2097497 0.16703048
0.18686593 0.2536988 0.028951729 0.19214477 0.35286853 0.1594905 -0.24496849 -0.0812096
0.21305089 -0.13417399 0.2213477 -0.25323504 0.13450536 0.13607013 0.2808247 -0.14388467
-0.30572993 0.061815266 0.11550474 0.14060241 0.110298015 -0.16741128 0.3087624 0.14900832
-0.2702836 0.28091496 -0.091578364 -0.28252745 -0.21653993 -0.21685244 0.13655116 -0.16653687
-0.16105717 0.2469399 -0.1058982 0.029409658 0.09785275 0.3291309 0.1879031 0.054291874
-0.20524526 0.13856198 0.25106034 -0.025019735 -0.21656224 -0.18619996 -0.32062837 0.20514779
00000000: e834 b0be 554e 9fbd c92c 723e db5e cdbd
00000010: f362 6abd 75eb 743e d1f9 70bd 49a3 b2be
00000020: c3bf 5fbe d4b0 7e3e 10ef 89bd c487 c43d
00000030: 2f40 65be 3966 763e 3e04 5d3e a85b 373e
00000040: aaaa 15bd 82d2 74bd 923c 6abe b45c 293e
00000050: 1365 90be b4ae 7dbd fc91 22bb d3bf e33c
00000060: ffe3 77be 8514 cfbc 6c26 09bb 08af 5dbd
00000070: 7283 223e 3f98 8a3d a1f5 9f3d 0e18 fe3d
00000080: af73 033e e9c7 d63d 3c4a cebd b840 093e
00000090: 2318 5dbd af8e 80be 57ce 983e 8fce fc3d
000000a0: 628c bbbd dfbb 44be b836 4f3d 6c64 1f3c
000000b0: 3f67 4cbe 9f98 4f3e 73a4 1c3e ee64 3fbd
000000c0: d730 78be 5d31 38be fc1b ecbd 1848 41be
000000d0: 1f81 623e 8f80 82be fd46 763e 9baa 3d3e
000000e0: 5e6a 8d3e 503b 5e3d cb97 7f3e 6e4e 8fbd
000000f0: 3280 c8bc e88c 65be ccbb 1a3e f18d 95bc
00000100: 6a08 c13d beee 103c d962 893e 8edf 4abe
00000110: f605 853d 86d6 97be 2374 c1bc 0dfd 90be
00000120: 75b1 b53d 1018 8b3e a592 b2bd b075 6ebe
00000130: 80ad 883d bd15 423e a0c8 563e 0a0a 2b3e
00000140: c859 3f3e cfe4 813e 2d2c ed3c 99c1 443e
00000150: 2fab b43e 7a51 233e 05d9 7abe 3851 a6bd
00000160: 032a 5a3e e864 09be f9a8 623e 06a8 81be
00000170: c6bb 093e f855 0b3e 41c8 8f3e 8156 13be
00000180: a288 9cbe 0132 7d3d c08d ec3d 14fa 0f3e
00000190: ede3 e13d dd6d 2bbe 1b16 9e3e a395 183e
000001a0: 9d62 8abe 16d4 8f3e 708d bbbd 70a7 90be
000001b0: a5bc 5dbe 910e 5ebe 11d4 0b3e a488 2abe
000001c0: 2cec 24be d0dd 7c3e 28e1 d8bd 86ec f03c
000001d0: 0667 c83d d883 a83e ac69 403e 2861 5e3d
000001e0: d02b 52be 31e3 0d3e fb8a 803e 30f6 ccbc
000001f0: 7ec2 5dbe 34ab 3ebe 6729 a4be 4312 523e

weight f4 [128, 128]
0.061407268 0.013201872 0.05780506 -0.03355368 -0.04208162 -0.09339711 -0.082226925 -0.0013717958
0.060238805 -0.09096731 -0.053454082 -0.053358596 -0.053662375 0.033834968 -0.017813599 -0.07235692
-0.08242707 0.0042392896 0.018828904 0.071123786 -0.015422348 0.03635609 -0.06716316 0.014921991
-0.04317815 -0.0063206316 -0.070597045 0.0055059767 -0.056269165 -0.032797344 0.06722254 -0.09411743
-0.0046237297 0.024191173 -0.084634334 0.027934423 0.05765356 0.050103463 0.056734353 0.011603522
-0.08630227 -0.07642254 0.039636932 0.02659548 0.038624194 0.02157367 0.03686161 -0.058468863
0.016316006 0.019048696 -0.09409527 0.039448693 -0.10221919 0.040860794 -0.0547764 -0.068557054
0.06442524 0.058831293 0.039139785 -0.043152157 0.053878386 0.025247158 -0.04000542 -0.014160089
-0.023140345 -0.08867303 -0.026470115 -0.07458229 -0.043959092 0.03782025 -0.049423784 -0.028079908
0.08071092 -0.03785985 -0.0565869 0.024181865 -0.06608236 0.0006081508 -0.09112435 -0.034530498
0.044036396 0.019828599 0.025241412 0.015718479 0.039978936 -0.06851355 -0.09959503 -0.08113754
-0.06779175 0.0037798092 -0.039053034 0.057282303 0.012511194 0.03448714 0.05815704 0.0034596159
0.010480357 -0.091153346 -0.0018553056 0.040789783 0.04830601 -0.05245809 0.07730283 -0.07800795
0.016883122 0.06487897 0.050969508 0.030311756 0.07236393 0.049989786 -0.0020041603 -0.06246714
0.02205569 0.05552874 -0.004036171 0.035604585 -0.08897548 0.0500623 0.023696266 -0.033010595
-0.056782402 -0.04252107 0.064554915 -0.035039548 -0.08853944 0.01777977 0.079112485 -0.086652875
0.01503221 0.04517334 0.08204074 -0.05803416 0.08079172 -0.060199395 -0.011665472 -0.03227639
0.039930403 0.063214295 -0.0081490455 -0.02754153 -0.06466455 -0.017026093 -0.05798409 0.00012675018
-0.080111 -0.096719824 -0.096910164 -0.020594109 0.009787724 -0.049562037 -0.086324394 0.063762195
0.009415228 0.046498466 -0.027742285 0.037039913 0.041390486 0.023208722 -0.026355773 -0.023146354
0.036983497 -0.02034017 -0.08662618 -0.08024625 -0.07356075 0.0020178223 -0.08469186 0.0010881476
-0.06212562 -0.083526105 -0.037430197 -0.04665391 0.013803766 -0.021586854 0.027082026 -0.022837194
-0.09815638 -0.05634952 0.07013939 0.0210009 0.074885376 -0.08585951 -0.0019637817 -0.06100376
0.04449555 0.058117304 -0.00791766 0.06773752 0.0059304535 -0.05458501 -0.053251468 0.007012807
-0.074653395 0.029414458 -0.028138993 0.043675426 0.030704677 -0.07863126 -0.03865813 0.05367739
0.029500635 0.008627401 -0.062240075 -0.08301024 -0.019751482 0.03969747 -0.025998462 -0.04363873
-0.10050625 -0.046574872 -0.015668288 0.051809616 0.0070944726 0.021213055 0.007229112 0.011584842
0.079388924 0.012150347 0.074688 -0.08630104 -0.024004975 0.025862765 -0.0114673665 0.039349787
-0.07007172 0.062737174 -0.08002674 -0.05787453 -0.065153524 -0.028789027 -0.025130773 -0.012776083
-0.06551532 -0.016602874 -0.06811352 0.028542703 -0.0018633836 -0.0022427738 0.02277483 -0.002231828
0.033538956 0.06564826 0.04616501 -0.05008134 0.0044638156 0.007749983 0.032945488 -0.062447153
-0.0445417 -0.008383693 0.0018401957 -0.042962536 -0.021471806 0.08563807 -0.05450152 0.05512647
00000000: 3086 7b3d aa4c 583c 00c5 6c3d 956f 09bd
00000010: c75d 2cbd fc46 bfbd 9766 a8bd d4cd b3ba
00000020: f7bc 763d 124d babd abf2 5abd 8b8e 5abd
00000030: 14cd 5bbd 8996 0a3d d3ed 91bc dd2f 94bd
00000040: 86cf a8bd bde9 8a3b 133f 9a3c 59a9 913d
00000050: 04ae 7cbc 20ea 143d d78c 89bd 5e7b 743c
00000060: 92db 30bd 4d1d cfbb 2f95 90bd 7b6b b43b
00000070: 7f7a 66bd 8256 06bd f9ab 893d a4c0 c0bd
00000080: a882 97bb 912c c63c c454 adbd bbd6 e43c
00000090: 2426 6c3d 4a39 4d3d 4862 683d b31c 3e3c
000000a0: 3fbf b0bd 6c83 9cbd 565a 223d c4de d93c
000000b0: 6734 1e3d 44bb b03c 33fc 163d 0c7d 6fbd
000000c0: 25a9 853c 030c 9c3c 05b5 c0bd f494 213d
000000d0: 4b58 d1bd a65d 273d 385d 60bd a467 8cbd
000000e0: 61f1 833d 15f9 703d 0a51 203d 51c0 30bd
000000f0: 95af 5c3d 21d3 ce3c b9dc 23bd b8ff 67bc
00000100: d290 bdbc 359a b5bd dbd7 d8bc 9abe 98bd
00000110: 730e 34bd 68e9 1a3d 9870 4abd d607 e6bc
00000120: c44b a53d ee12 1bbd aac7 67bd 0c19 c63c
00000130: 3056 87bd 4f6c 1f3a 679f babd da6f 0dbd
00000140: 825f 343d 966f a23c 14c7 ce3c 0ac4 803c
00000150: f4c0 233d d550 8cbd 7bf8 cbbd 702b a6bd
00000160: 67d6 8abd adb6 773b 13f6 1fbd d9a0 6a3d
00000170: c0fb 4c3c 6342 0d3d 1436 6e3d b9ba 623b
00000180: ceb5 2b3c 9bae babd ba2d f3ba 3013 273d
00000190: 86dc 453d 4bde 56bd f250 9e3d a2c2 9fbd
000001a0: 794e 8a3c 44df 843d 67c5 503d 5c50 f83c
000001b0: 8a33 943d 17c2 4c3d 3b58 03bb 8bdd 7fbd
000001c0: 22ae b43c 1b72 633d db41 84bb 1dd6 113d
000001d0: c738 b6bd 200e 4d3d ac1e c23c 1e36 07bd
000001e0: aa94 68bd 932a 2ebd 5e35 843d a185 0fbd
000001f0: 2a54 b5bd e1a6 913c ba05 a23d 1077 b1bd
00000200: a949 763c ae07 393d fa04 a83d 3ab5 6dbd
00000210: 2176 a53d a493 76bd 8920 3fbc 3f34 04bd
00000220: 108e 233d 7f76 813d 9383 05bc c69e e1bc
00000230: d96e 84bd 4e7a 8bbc ba80 6dbd 3ee8 0439
00000240: 3c11 a4bd 0b15 c6bd d678 c6bd fab4 a8bc
00000250: b15c 203c 9001 4bbd d8ca b0bd c195 823d
00000260: 5442 1a3c 2d75 3e3d ca43 e3bc 2ab7 173d
00000270: 1289 293d 3820 be3c 10e8 d7bc 6c9d bdbc
00000280: 027c 173d 6ea0 a6bc 1169 b1bd 2558 a4bd
00000290: 05a7 96bd 713d 043b ed72 adbd 2da0 8e3a
000002a0: 6f77 7ebd bc0f abbd 6850 19bd 2c18 3fbd
000002b0: 3129 623c ead6 b0bc 20db dd3c 1115 bbbc
000002c0: 3606 c9bd c1ce 66bd 3ea5 8f3d 140a ac3c
000002d0: 815d 993d 1cd7 afbd cab2 00bb 14df 79bd
000002e0: f740 363d 690c 6e3d 13b9 01bc f8b9 8a3d
000002f0: 4054 c23b 8894 5fbd 361e 5abd b0cb e53b
00000300: e1e3 98bd 97f6 f03c bf83 e6bc 01e5 323d
00000310: 6088 fb3c 6d09 a1bd fd57 1ebd d3dc 5b3d
00000320: 51ab f13c f159 0d3c 73ef 7ebd 4601 aabd
00000330: dccd a1bc d099 223d bafa d4bc 86be 32bd
00000340: 39d6 cdbd 4bc5 3ebd c85a 80bc 5236 543d
00000350: c078 e83b 00c7 ad3c 30e2 ec3b 59ce 3d3c
00000360: a996 a23d 4012 473c 06f6 983d 9abe b0bd
00000370: 15a6 c4bc 26de d33c 9fe1 3bbc 3e2d 213d
00000380: c381 8fbd 597c 803d 0fe5 a3bd d80d 6dbd
00000390: 366f 85bd f7d6 ebbc 0ddf cdbc c752 51bc
000003a0: e52c 86bd c002 88bc 1a7f 8bbd 63d2 e93c
000003b0: c73c f4ba 80fb 12bb 4892 ba3c dc43 12bb
000003c0: 2560 093d 9872 863d 8617 3d3d 1722 4dbd
000003d0: 3345 923b 92f3 fd3b d9f1 063d 96c8 7fbd
000003e0: 5c71 36bd c25b 09bc b932 f13a 7cf9 2fbd
000003f0: a4e5 afbc 0363 af3d fc3c 5fbd 4bcc 613d

bias f4 [128]
0.019199919 0.06775252 -0.056062296 0.016263535 0.097211584 -0.11120104 0.0029701989 0.058632262
0.0396079 -0.10977923 -0.008430022 -0.03417988 0.023035714 0.14386033 -0.09567602 -0.10643807
-0.037008174 0.040852968 0.06346584 -0.08589213 0.015132847 0.062197447 -0.02728063 0.0054144384
-0.03917585 0.07100057 0.14206022 0.10304387 -0.09199665 0.011661872 0.03938631 -0.03470384
-0.07778098 -0.04713969 -0.07632755 -0.11209366 0.04580921 0.051262386 -0.06260016 -0.022849912
-0.06406027 0.038721833 0.003434689 -0.0023309647 0.0753533 -0.02733557 0.0072906665 -0.07330891
0.08159106 0.042985313 0.0103546 -0.06737012 -0.05657871 0.009214691 0.12572369 -0.11050027
0.08818365 -0.0985578 0.0015755843 -0.0057999394 0.032319475 -0.026584484 0.045773253 0.036871653
0.03758741 -0.054917816 -0.10200909 0.03776799 -0.057475068 -0.04016931 0.011452091 0.0050097806
-0.016784858 0.057096057 0.08303853 -0.08878028 -0.02065744 -0.08825764 0.03614621 0.004749712
0.08373015 0.027506048 -0.002433896 -0.076056525 -0.07964952 0.012385389 0.032155145 -0.13086182
0.0141117135 0.1351397 -0.018405898 0.0266681 0.11492589 0.021065837 -0.087441504 0.062045116
-0.042050466 0.015360526 -0.03846584 0.1143195 0.02399966 -0.096907094 -0.037392106 0.061151337
-0.053097844 -0.029508036 -0.00074092636 0.031521637 -0.05095215 -0.101893306 -0.0026199347 -0.10203283
-0.033275444 0.05367556 0.053871475 -0.10266792 0.038101356 -0.021671195 -0.076917134 0.035257865
-0.003588943 -0.0828273 0.08895367 0.0549222 -0.09542483 -0.074767336 -0.12701 -0.092479534
00000000: 2649 9d3c d5c1 8a3d 94a1 65bd 1b3b 853c
00000010: de16 c73d 5fbd e3bd aba7 423b 6228 703d
00000020: e53b 223d efd3 e0bd 131e 0abc 3400 0cbd
00000030: 65b5 bc3c 1f50 133e caf1 c3bd 34fc d9bd
00000040: e295 17bd 7155 273d 61fa 813d 37e8 afbd
00000050: c3ef 773c c0c2 7e3d a17b dfbc 9a6b b13b
00000060: db76 20bd bf68 913d 3c78 113e aa08 d33d
00000070: bd68 bcbd 7011 3f3c 8a53 213d 9d25 0ebd
00000080: a24b 9fbd 8c15 41bd 9e51 9cbd 5c91 e5bd
00000090: 70a2 3b3d 82f8 513d 8334 80bd bd2f bbbc
000000a0: 0832 83bd c99a 1e3d 8518 613b 19c3 18bb
000000b0: d552 9a3d d8ee dfbc 8be6 ee3b fb22 96bd
000000c0: 3719 a73d 5e11 303d 57a6 293c 58f9 89bd
000000d0: 14bf 67bd 37f9 163c b6bd 003e f74d e2bd
000000e0: a199 b43d acd8 c9bd d683 ce3a 6b0d bebb
000000f0: 6d61 043d b4c7 d9bc bc7c 3b3d bb06 173d
00000100: 42f5 193d 81f1 60bd 24ea d0bd 9cb2 1a3d
00000110: fa6a 6bbd 9388 24bd 8da1 3b3c 1629 a43b
00000120: 6680 89bc 8edd 693d 1b10 aa3d 6fd2 b5bd
00000130: cb39 a9bc 6cc0 b4bd 0c0e 143d 79a3 9b3b
00000140: b67a ab3d 5d54 e13c 0082 1fbb 86c3 9bbd
00000150: 4a1f a3bd 16ec 4a3c 1db5 033d a400 06be
00000160: d134 673c 1062 0a3e f7c7 96bc 0f77 da3c
00000170: 445e eb3d 4392 ac3c 8814 b3bd 0523 7e3d
00000180: 1c3d 2cbd b7aa 7b3c 5b8e 1dbd 5820 ea3d
00000190: ef9a c43c 3a77 c6bd 7728 19bd d379 7a3d
000001a0: 207d 59bd d6ba f1bc ba3a 42ba d51c 013d
000001b0: 34b3 50bd 70ad d0bd 36b3 2bbb 97f6 d0bd
000001c0: d54b 08bd e7da 5b3d 56a8 5c3d 8f43 d2bd
000001d0: 2b10 1c3d ca87 b1bc bb86 9dbd 8d6a 103d
000001e0: 7934 6bbb 5ca1 a9bd 572d b63d 1af6 603d
000001f0: 186e c3bd 9e1f 99bd e90e 02be e965 bdbd

weight f4 [2, 128]
-0.0593815 -0.010477862 0.013006329 -0.021486986 -0.13252445 0.0066684247 -0.027183369 -0.010559563
-0.078401685 -0.040194016 -0.027798759 -0.06336504 -0.046985503 -0.06440793 -0.004713237 -0.028348293
-0.06440058 -0.002952452 -0.08060023 -0.00042567638 -0.046283264 -0.051075455 0.011020223 -0.0015750626
-0.05757232 -0.034190398 -0.104674235 -0.063802876 -0.06877098 -0.006762581 -0.06263216 -0.06572359
-0.022742841 -0.03640248 -0.01784362 0.038819112 -0.14297883 -0.08874915 0.016399395 -0.08551688
-0.04155627 -0.07701359 -0.048506413 -0.071551174 -0.104385905 -0.10023208 0.051148053 -0.031885635
-0.09326112 -0.077601716 -0.0057573896 0.017685264 0.043121036 -0.045232147 -0.0701045 -0.060997784
0.01147958 -0.044905566 -0.037407964 -0.06375721 0.07679244 -0.04396217 -0.0312418 -0.022220062
0.041907135 -0.022143506 0.010225438 -0.07101813 -0.022557097 -0.052895762 -0.053569604 -0.08740594
-0.014474142 -0.032615613 -0.06553339 -0.06674221 -0.10817466 0.067170836 -0.022130193 0.032762088
-0.14123762 -0.07696383 0.013232738 -0.029046183 -0.030338554 -0.1369166 0.017569002 0.018394949
0.027090715 -0.07012545 -0.10890823 -0.07694589 -0.12020675 -0.018197877 -0.033539195 0.0062711285
-0.08971692 -0.00014486843 -0.0030813226 -0.06598951 0.013635851 -0.005536075 0.02679595 -0.0015077896
0.029779932 0.02496456 0.030534664 0.06469225 -0.003665279 0.00055017776 -0.07419357 0.008567515
-0.030122524 -0.0713592 -0.038585797 0.005272889 -0.049748722 -0.08833942 -0.014038626 -0.084856145
0.08836854 0.029147994 -0.046215612 0.085249804 -0.03598557 -0.05545067 -0.0036167244 -0.030115314
-0.03487435 0.052240413 -0.059435815 0.09367149 -0.07227551 -0.016447734 0.0021844057 0.0497899
-0.0049544745 0.0144545995 0.035121296 0.043694768 0.110718526 0.07114951 -0.0022698115 0.07447292
0.03539892 0.08234906 0.03773629 -0.07834791 -0.019791387 -0.061529305 -0.041237265 0.047994655
-0.034693897 -0.010215548 0.063435435 0.05035296 -0.0865937 0.0401567 -0.02856535 0.0042334427
0.024341978 -0.015891736 -0.061026476 -0.023889102 0.011498365 0.06931063 -0.026554767 0.08449019
-0.06834841 0.07634623 0.006820961 0.025899084 -0.038963128 -0.06276705 -0.055283237 -0.0046041543
0.05042359 -0.050180357 -0.033030897 0.07614028 -0.06640395 0.021718893 0.05370797 -0.048227094
-0.032126553 0.017041683 0.031413283 -0.046015833 0.08657467 0.0058100843 -0.018390346 -0.0017782378
-0.009585614 -0.06295742 0.08692619 0.03538989 -0.023637872 -0.048626132 0.08886523 0.06828975
0.07585785 0.0059117777 -0.039907705 -0.017877845 -0.0057601025 -0.036539607 0.04725248 -0.07560673
0.085140735 0.009994669 -0.008216925 -0.027244406 0.042346355 -0.0010752158 0.05268612 0.03077763
-0.02871451 0.034411278 0.019884631 0.059263743 0.0041490956 0.066561975 -0.022167688 -0.008135097
-0.03570748 0.019937469 -0.021881552 0.06519844 0.02546488 0.017503006 -0.028346904 0.09856531
-0.021437211 -0.048032165 0.04500144 -0.056602348 -0.06788354 0.039674208 0.016749863 0.09442986
0.045350704 0.018834598 0.011887655 0.062305644 -0.036437783 -0.023472823 -0.045488838 -0.006175351
-0.067365974 -0.07606066 -0.035802312 -0.04972483 -0.024462057 0.0024593067 0.023097342 -0.0007306284
00000000: 043a 73bd 57ab 2bbc 7f18 553c 7a05 b0bc
00000010: 7db4 07be cd82 da3b a8af debc 0402 2dbc
00000020: 1091 a0bd 7ba2 24bd 39ba e3bc 88c5 81bd
00000030: df73 40bd 4ee8 83bd 7f71 9abb ae3a e8bc
00000040: 74e4 83bd ed7d 41bb bc11 a5bd 512d dfb9
00000050: 8593 3dbd 7f34 51bd 2a8e 343c 5572 ceba
00000060: f4d0 6bbd 3b0b 0cbd 725f d6bd 15ab 82bd
00000070: cdd7 8cbd a498 ddbb 4a45 80bd 179a 86bd
00000080: 324f babc c41a 15bd c92c 92bc ca00 1f3d
00000090: 0b69 12be 1dc2 b5bd 0658 863c 7923 afbd
000000a0: e836 2abd 4db9 9dbd a9ae 46bd 6c89 92bd
000000b0: 47c8 d5bd 7a46 cdbd 9f80 513d 839a 02bd
000000c0: b0ff bebd a6ed 9ebd 7ca8 bcbb b0e0 903c
000000d0: af9f 303d 5845 39bd f392 8fbd d0d8 79bd
000000e0: d914 3c3c e6ee 37bd 1839 19bd 2493 82bd
000000f0: 5b45 9d3d ad11 34bd ceee ffbc d906 b6bc
00000100: d1a6 2b3d 4c66 b5bc 9888 273c f471 91bd
00000110: a9c9 b8bc 3aa9 58bd cd6b 5bbd e301 b3bd
00000120: f424 6dbc f397 05bd 5f36 86bd 24b0 88bd
00000130: ad8a ddbd dd90 893d 614a b5bc 8a31 063d
00000140: 98a0 10be 369f 9dbd 20ce 583c 43f2 edbc
00000150: 8f88 f8bc dd33 0cbe deec 8f3c 01b1 963c
00000160: 59ed dd3c ef9d 8fbd 470b dfbd cf95 9dbd
00000170: f52e f6bd b713 95bc 6560 09bd 0a7e cd3b
00000180: 81bd b7bd d3e7 17b9 04f0 49bb 8225 87bd
00000190: e868 5f3c f767 b5bb 2e83 db3c 06a1 c5ba
000001a0: 0bf5 f33c 7a82 cc3c d523 fa3c 5f7d 843d
000001b0: 2d35 70bb ce39 103a ccf2 97bd c35e 0c3c
000001c0: 83c3 f6bc c624 92bd 240c 1ebd 33c8 ac3b
000001d0: 51c5 4bbd 4ceb b4bd 4402 66bc 0fc9 adbd
000001e0: 91fa b43d c6c7 ee3c 954c 3dbd 7397 ae3d
000001f0: 9b65 13bd 3e20 63bd 9106 6dbb 64b4 f6bc
00000200: 68d8 0ebd 0bfa 553d f872 73bd d7d6 bf3d
00000210: 2f05 94bd 66bd 86bc 3f28 0f3b 7ff0 4b3d
00000220: 2559 a2bb fcd2 6c3c 59db 0f3d 49f9 323d
00000230: 65c0 e23d d6b6 913d 1ec1 14bb 4285 983d
00000240: 75fe 103d a0a6 a83d 5e91 1a3d de74 a0bd
00000250: 8c21 a2bc 2706 7cbd 68e8 28bd 0b96 443d
00000260: 301b 0ebd 1d5f 27bc 70ea 813d e83e 4e3d
00000270: 0a58 b1bd 5a7b 243d e201 eabc b1b8 8a3b
00000280: d468 c73c 632f 82bc e6f6 79bd 14b3 c3bc
00000290: a363 3c3c bbf2 8d3d 6289 d9bc 3109 ad3d
000002a0: 40fa 8bbd 6a5b 9c3d 5e82 df3b 512a d43c
000002b0: cd97 1fbd 038c 80bd ad70 62bd 72de 96bb
000002c0: f788 4e3d eb89 4dbd 684b 07bd 6fef 9b3d
000002d0: cbfe 87bd d2eb b13c e3fc 5b3d c689 45bd
000002e0: 2297 03bd 009b 8b3c 37ab 003d 197b 3cbd
000002f0: 104e b13d 8562 be3b 5aa7 96bc c213 e9ba
00000300: fb0c 1dbc d2ef 80bd 5c06 b23d fdf4 103d
00000310: 36a4 c1bc 322c 47bd f9fe b53d 7fdb 8b3d
00000320: 5c5b 9b3d 96b7 c13b 4376 23bd 8f74 92bc
00000330: 3ebf bcbb 8eaa 15bd d18b 413d b4d7 9abd
00000340: 445e ae3d aec0 233c 48a0 06bc a92f dfbc
00000350: 5f73 2d3d 41ee 8cba 67cd 573d 5e21 fc3c
00000360: b13a ebbc d7f2 0c3d 18e5 a23c 8abe 723d
00000370: 23f5 873b a551 883d 0399 b5bc 1249 05bc
00000380: 0242 12bd e753 a33c f140 b3bc c286 853d
00000390: b99b d03c 7762 8f3c c437 e8bc 9cdc c93d
000003a0: 179d afbc 60bd 44bd 6e53 383d ddd7 67bd
000003b0: 8706 8bbd 6c81 223d 0237 893c 7164 c13d
000003c0: a9c1 393d 044b 9a3c 70c4 423c 3434 7f3d
000003d0: c93f 15bd 144a c0bc 8152 3abd 995a cabb
000003e0: 2cf7 89bd b1c5 9bbd 72a5 12bd 43ac 4bbd
000003f0: a764 c8bc 522c 213b a336 bd3c a487 3fba

bias f4 [2]
-0.034043986 0.08896838
00000000: b571 0bbd 0e35 b63d
