models/ddpg_actor_network.pth (torch, 76470 bytes, 6 tensors)

weight f4 [128, 10]
00000000: 1c08 913e 1649 a23e 13b5 703d d690 d0bd
00000010: c09d ef3d 0ade 143e 86ff 87be afdd 083e
00000020: 3294 39be 63c8 843e 57fb 92be 81e7 adbe
00000030: 1130 a4be 40f4 113d 06a0 a5bd 887a 82be
00000040: c4bc 13be acda 313e bdaf 7cbd f380 953d
00000050: fe28 6bbe ba48 06be 19d8 6f3e 6a4a ccbd
00000060: 0686 d83c 755b 7c3e c42d 123e 1104 25be
00000070: 8f07 9bbe bfb8 093d 93db 9f3d 33f6 3f3e
00000080: 289e fdbd 8511 843e 2763 543e 7c88 6dbc
00000090: f143 e3bd 455d 503e ef48 52be d82f 41bd
000000a0: 4cac 21be 3389 5b3d 86ff 52be f5a2 dcbd
000000b0: 1541 833e 9588 873e a5d9 2e3d 403f 7abd
000000c0: da1c ffbd fbdd 06be b295 143e f9b5 71bd
000000d0: 978c 80be 1a91 8bbd 4d6e 9a3e b076 f8bd
000000e0: cb01 a6bc ea5d 5c3e 530e 0bbc a0f9 3fbe
000000f0: fae4 d53d 6850 e5bd 7641 1f3d c516 12be
00000100: 8e24 4b3e 396b 3e3e cfd3 5b3e ff82 b23e
00000110: 2696 8f3e dd47 e43d cc8f b43e 473c 21be
00000120: 2bf7 afbc 2dc5 b2bd 9d42 5c3e 9bb4 a7bd
00000130: 796c 72be bc5a b03e 14b1 69be a0a6 3bbd
00000140: edbe f1bd 16a7 3fbe 1061 99be bc56 9b3e
00000150: 670c 013e a2af 79be 6aae d1bd 83e7 8a3e
00000160: 7ca7 8a3d d443 2d3e 6232 6e3d 2191 773d
00000170: df48 c2bd 708f c43c e90a 1b3d f679 103e
00000180: 6447 8c3e 30f3 7e3d 357e 54be d450 253d
00000190: 7357 59be 33ea 0b3e a8ba 90be d193 a2be
000001a0: c197 7e3d 3539 2ebe c1d7 4dbe 910c 253d
000001b0: 6f76 89be 7585 29be 65b0 b53c 5ee3 803e
000001c0: 78bc 043e 3468 933d c121 8bbe 4b16 d73c
000001d0: e131 d73d 0c0f c43c b23c 23be 4350 41be
000001e0: 9d80 b33d 69f9 663e b7a9 7ebe 0f73 873d
000001f0: 0430 c83d 99a7 42be 60df a6be 5bd7 423e
00000200: 5108 fb3d 6f3d 04bd d2dd 163e b251 5d3e
00000210: a61e 87be aee7 743d 825d f1bc d5a1 b33d
00000220: 0626 27be e4a8 8fbe 5b6c e3bd 5c43 72be
00000230: 09ab e43d 522a 943e 7412 f6bc c49f 463e
00000240: e886 9f3d e10c 36be 8bc9 253e febc de3d
00000250: 33be a7bc 8559 2dbe 0be3 783c 41f6 363d
00000260: 2273 32be fb77 b2bb 4251 e3bc 83bb 5a3b
00000270: 07a7 863d 3bfb 8c3d 6145 563e eab6 363e
00000280: 6ab8 793e 0c08 dabb 58d9 7f3e 5833 593e
00000290: 2a2f 73bd f882 0abe 6da6 ea3d ccb4 2bbd
000002a0: 4ef9 233e d243 763e d6b6 893e e8c8 56bd
000002b0: 77fe 153c c4ba c7bd a12e 27bd dfcc 06bd
000002c0: 2bb8 763e 4710 0abe bdf8 9c3e c0f0 1dbe
000002d0: 8263 9a3e 84ab 813d 85c7 fd3d 9ce9 24be
000002e0: 1c4e 9f3d df17 b53c 325f 1ebc 3d18 8e3e
000002f0: e196 173e eb12 893e 9983 9abd 0bf8 90be
00000300: c001 5fbd 49ba 893e b53d 1c3e e5de 023e
00000310: 9edc 573e 5c2d 7fbe 7a0a 51be b8a6 953e
00000320: 7094 29bd 8e4d 393e fac9 193e e48b 05be
00000330: 013f 093e d664 a03c 50a1 173e f26f 813e
00000340: eeb5 223b 6040 003e e382 063e 99d8 563e
00000350: 2158 30bc cc43 80be 55dc 6f3e e0ec 843e
00000360: 877f 4f3e a202 78be 4c93 37be 26de 8ebe
00000370: 83c9 db3c c2ef 6bbe eaeb 963d 96b2 ffbd
00000380: d464 a53e d9e7 a13d 752f 003e 96c5 4dbd
00000390: dfb1 4b3e 0971 923e 8974 783e 8b3a a2bd
000003a0: c6a6 913e 9f27 5abe deda 03be a834 543e
000003b0: 2e6b 6bbe 11cb 2abe ca96 9c3b cc64 4d3d
000003c0: 9231 24be 659b 8f3e ac57 52be 590d 8a3d
000003d0: d5e9 b23d 9d3f 1abd ac10 223e d5d4 5f3e
000003e0: e151 45be b240 573e a4a3 043c 0827 d2bd
000003f0: 17d4 843e c7ab 9f3e 7566 d13c e9ee 393e
0.283265 0.31696385 0.058766436 -0.10183875 0.1170001 0.14537826 -0.26562136 0.13365816
-0.18122938 0.25934133 -0.28707382 -0.33965686 -0.32067922 0.035633326 -0.08087163 -0.2548411
-0.14427477 0.17368573 -0.061691035 0.07299986 -0.22964856 -0.1311368 0.23422278 -0.09975131
0.026431095 0.24644263 0.1427527 -0.16114832 -0.30279204 0.033623453 0.07805552 0.18746261
-0.123836815 0.25794616 0.20740949 -0.014497872 -0.11096943 0.2034808 -0.20535634 -0.047164768
-0.15788382 0.05359764 -0.20605287 -0.10773269 0.2563559 0.2647139 0.04268803 -0.061095476
-0.12456675 -0.13170616 0.14510229 -0.059011433 -0.25107262 -0.06814785 0.30162278 -0.12132013
-0.020264527 0.215202 -0.008487302 -0.18747568 0.104440644 -0.11196977 0.038880788 -0.14266498
0.19838163 0.1859559 0.21467517 0.34865567 0.28044242 0.11146519 0.35265958 -0.1574565
-0.021480164 -0.087290145 0.21509786 -0.08188745 -0.23674192 0.34444225 -0.22821456 -0.045813203
-0.11803994 -0.18716082 -0.29956865 0.3033961 0.12602387 -0.24383405 -0.10238345 0.27129754
0.06770226 0.16920406 0.058153518 0.06044114 -0.09486555 0.023994178 0.0378522 0.14109024
0.27398217 0.06224364 -0.20751269 0.040360287 -0.21224765 0.13663559 -0.28267407 -0.317534
0.062156443 -0.1701401 -0.20101835 0.040295187 -0.2684817 -0.16554816 0.022178838 0.25173467
0.1296252 0.071976095 -0.2717419 0.026255747 0.105075605 0.023932956 -0.15941122 -0.18878274
0.087647654 0.2255608 -0.24869429 0.066137426 0.09774783 -0.19009246 -0.32592297 0.19027464
0.122574456 -0.03228515 0.14733055 0.21613196 -0.2639057 0.05979126 -0.029463533 0.087711014
-0.16323099 -0.2805854 -0.111046515 -0.23658508 0.11165435 0.28938538 -0.030038096 0.19396883
0.07789403 -0.1777835 0.16190164 0.10875891 -0.020476436 -0.1692868 0.01519085 0.04466844
-0.17426732 -0.0054464317 -0.027748708 0.0033375926 0.06574827 0.06883856 0.20924903 0.17843214
0.24386755 -0.0066537913 0.24985254 0.21210992 -0.05937115 -0.13526523 0.114575244 -0.04192047
0.16013071 0.24049309 0.26897305 -0.052437693 0.009154907 -0.097524196 -0.040815953 -0.032910224
0.24093692 -0.13482772 0.30658522 -0.1542387 0.30154043 0.06331542 0.12391571 -0.1610474
0.0777857 0.02210611 -0.009666251 0.27752867 0.1480365 0.26772246 -0.075446315 -0.28314242
-0.05444503 0.26899937 0.15257914 0.1278034 0.21080253 -0.24919647 -0.20414153 0.2922876
-0.041401327 0.18095991 0.15018454 -0.13041645 0.1340294 0.019579332 0.1480763 0.2528072
0.0024827677 0.12524557 0.13135867 0.20981063 -0.010763199 -0.25051725 0.23423894 0.2596197
0.20263492 -0.24219754 -0.17927283 -0.2790386 0.026829487 -0.23040679 0.07369216 -0.124852344
0.32303488 0.079055496 0.12518103 -0.05023726 0.19892071 0.28601864 0.24263205 -0.079213224
0.2844755 -0.21304177 -0.1287646 0.20723212 -0.22990105 -0.16679026 0.0047787176 0.050144956
-0.16034535 0.28048244 -0.20541257 0.06740827 0.08736006 -0.037658323 0.15826672 0.21858533
-0.19269516 0.21020773 0.008095656 -0.10261351 0.25943062 0.31185743 0.02556155 0.18157543

bias f4 [128]
00000000: 34f3 8ebe 58c0 013e c501 c43c 7934 93bd
00000010: 8cc3 3a3d 50b0 7e39 1be0 09be f8d8 77bb
00000020: 1175 7ebe 7b9e 073d 9fd6 f1bd 14ae 74be
00000030: 2a3c 4c3e 45cc 41be 765d 643e cdbb 873e
00000040: 9967 75be 1592 523e 89c5 523e 5081 2f3d
00000050: d3d4 a3bc 8834 3abe 023b 883e 6e78 7dbe
00000060: cd35 06bd 6f16 40bd 0e3e 37be ffac 553e
00000070: 6fb8 38be 2675 423e 4050 183e e069 abbc
00000080: 305f 87bd 5013 c93d 8456 333e 6d2d 70be
00000090: 4211 623d 3874 203e 26b0 aa3b 3ba9 57be
000000a0: 0c03 583e 16d3 d5bd 8342 3d3e 19f7 4cbd
000000b0: ea62 e43d d533 16be f2ff 62be d939 573e
000000c0: 355d fc3d ba8f d43d a342 cdbd 3871 afbd
000000d0: 220e 8c3e f33f e3bd 9bcf 82be 8dad 043e
000000e0: b976 7a3d 6a7e b73d 959f a33d 3d83 a03e
000000f0: 6aa3 2ebe b826 2d3e d3bf 953e fa70 0f3e
00000100: b0fd 83be d802 1ebe 4b1d e23c c244 0f3e
00000110: de32 8abe e0a5 a23e 466e 45be 42e6 0dbe
00000120: c68b 91be 26c5 41bc e15f 453e cc5e bc3e
00000130: e9a9 853e dec0 c03d a6ba a7bc ff4c 7dbe
00000140: 9d86 3c3e 9470 a2be dd49 44be c15e 8bbe
00000150: c5b5 733e 508b b9bd d266 203d 263a 84bb
00000160: 3a0e 133e 8712 2fbe cfd2 50be faaa 9e3e
00000170: 19af 01be 3679 81be 3fa2 013e 7a98 0dbc
00000180: 6856 7bbe f7ba d63d ef72 89bc b4d3 643d
00000190: fc3f 9dbd a721 b7bb 729c 01be c3e8 15bd
000001a0: 40af c4bb addf e73d 636f 29be fbea cfbd
000001b0: e787 913d 4d43 ee3d 1256 b83e c966 233d
000001c0: b101 b63c 15f7 793d 60e3 56be 33b0 95be
000001d0: 425f 0ebe d6c9 dd3d 15ec f3bd 4a42 8abe
000001e0: 4d67 9b3a d78a edbc eb4f 1cbe 4628 a0bd
000001f0: 5dd7 8cbd 7a2a 273e a60c adbd 388f dabc
-0.27919924 0.1267103 0.023926625 -0.07187743 0.045596644 0.00024289009 -0.13464396 -0.0037818532
-0.24849345 0.033110123 -0.11808514 -0.2389453 0.19944826 -0.18925579 0.22301278 0.26510468
-0.239653 0.20563538 0.20583166 0.04284793 -0.019998943 -0.18184102 0.2660752 -0.24752972
-0.032766152 -0.046896394 -0.17894766 0.20866774 -0.18039106 0.18990001 0.14874363 -0.020924509
-0.066099524 0.09818137 0.17513472 -0.23454829 0.05519224 0.15669334 0.005208987 -0.2106065
0.21094912 -0.10440652 0.18482403 -0.05004034 0.11151679 -0.1466821 -0.22167948 0.21018161
0.12322465 0.10378976 -0.100224756 -0.08566517 0.27354532 -0.11096182 -0.25549015 0.1295683
0.06114838 0.089596584 0.07989422 0.31350127 -0.17054525 0.16909301 0.29247913 0.14007941
-0.25779486 -0.15430772 0.027601859 0.13991073 -0.26991934 0.31767178 -0.19280347 -0.13857368
-0.2842695 -0.011826789 0.19274856 0.36791074 0.26106194 0.094117865 -0.020474743 -0.24736403
0.18410726 -0.31726515 -0.19168802 -0.2722073 0.23799808 -0.09059775 0.039160557 -0.004035252
0.14360896 -0.17096911 -0.20392917 0.3098982 -0.1266445 -0.2528779 0.12659548 -0.00864231
-0.2454468 0.104848795 -0.016778437 0.05586596 -0.0767822 -0.0055887285 -0.12657335 -0.036598932
-0.0060023367 0.1132196 -0.16546397 -0.10152241 0.071059994 0.1163393 0.36003166 0.039892945
0.022217603 0.06102665 -0.20985174 -0.29235992 -0.13903525 0.10829513 -0.119102634 -0.270037
0.0011856348 -0.028996868 -0.15264861 -0.078201815 -0.06877015 0.16324797 -0.08449678 -0.02667962

weight f4 [128, 128]
00000000: 3d77 8fbc 8d13 dc3b 37e7 703d 87bf 86bc
00000010: 1f93 1d3e b387 113e afe8 4f3d b324 b63d
00000020: 18b0 063e 3ba2 afbc 4ad8 dd3d 87a2 773c
00000030: bfc0 e63c a38f 7c3d 76be 6b3d 953e cebc
00000040: 62e9 273c f030 bf3d 4684 b13d 11e5 093e
00000050: 65f2 053e ca3c f4bc 323b a53d 7ccd be3d
00000060: a4cd cc3d f283 ed3d b906 d53d d094 283e
00000070: 53b2 27bc 80c1 9b3d a1f0 ef3d e745 d03d
00000080: da40 5d3d e95e 9c3d 58b3 1f3e f2ea 5bbc
00000090: 363b 173e 1091 703a 7c25 0c3e 5382 ef3d
000000a0: defc 183d 26fe adba deab 9d3b 4fca 983d
000000b0: 9104 0a3e 577c d83c 62be c03c 0826 993d
000000c0: bedf 5e3c fae1 a53d bc64 0d3e 645f 563d
000000d0: 5e97 ff3d ac8a b63d ef9a f83d c8b0 4e3d
000000e0: 0b50 8cbc d441 953c 36ae c33c 4a93 a73d
000000f0: d6b8 9d3a 1f70 d83d 0a5b d03d a266 f8bc
00000100: 4387 063e e5b6 533d 983c 92bc 89eb bf3d
00000110: 6f3d fc3b aac9 eeb9 fe1c 283c 9cb1 1ebc
00000120: f087 b93c 127b 5dbc cfa5 b53b 47fb a63b
00000130: b1f6 4a3d 19e9 0bbd e2e2 8a3d 19db 233e
00000140: e326 513d e593 493d 68c1 ac3c 00b6 e03d
00000150: a8f9 d33c f3a0 1bbd e4eb 16bd 8943 963d
00000160: bde6 1f3e 4845 40bd 5c2e 173e 0021 363d
00000170: ccea 8e3d 112c a4bb 7991 d33c 80c8 1f3c
00000180: 6bd1 ee3d 7ed0 0d3e 44bd e63d a895 1e3e
00000190: a66e c73d 2472 c03d f848 183e b70d 013e
000001a0: 51e2 183e 5af9 983d 133f 623d d2af 513d
000001b0: 9d38 f23d 59e0 423d b2cb b73d 33cf 033e
000001c0: dee1 9b3d 4645 07ba 28f8 c63d a409 af3d
000001d0: cab0 90bb b738 4c3d c18e c8bc 3c5f f7bc
000001e0: e4e2 f13b 16d5 fd3d 905b 813d c243 f43d
000001f0: 426b b03d 395d 153e 96d9 69ba 76ea 5d3d
00000200: 8902 883d e261 50bc b1fe ef3c 4be2 f23d
00000210: 6e7e a13c 7f2b bcbc a7ae 3a3d b4db 92bc
00000220: f0ba bcbc 3968 c93c fe31 513d e682 c83d
00000230: 6697 b23d be68 473d 2ecb ae3d b8db cb3d
00000240: 6d14 3f3d 5bf7 703d beb3 093e 9394 b13c
00000250: 8d9c a83d 4b69 4f3d afe1 ce3d 407c 763d
00000260: a669 3cbd 4472 0dbd ffa1 dd3d 2fa5 b1bb
00000270: 4154 3fba c77e c6bc 164c f33d f864 39bd
00000280: 12c4 863d 9173 02bd ada4 04bc 2253 a43d
00000290: 4307 ae3d 7120 5ebd 4059 773d 6cbb 3e3d
000002a0: 7a5a 2fbc aeec 9d3d 630d 953d ff24 2d3d
000002b0: f902 4dbd d950 953d e33a 543d c028 7e3d
000002c0: e7b3 dc3d e932 dabc c6ad 2abd cc13 43bc
000002d0: 370a b53c c82e 353d f8ff f93d fdc7 3a3c
000002e0: 3e33 903d d435 b93c 7420 ae3d e923 883d
000002f0: e002 d4bc bc65 90bc e0c4 f13b 84f6 e4bc
00000300: 1f3d 0c3e a506 d63b 50c3 38bd 7571 f23b
00000310: 6501 5c3b 2b83 89bc fedd 283b e0e5 743d
00000320: 5e8c 593d 030a c93c db2a 093d fbc0 51bd
00000330: 78a1 733c 465e e4bc f711 713d 6cd1 11bd
00000340: 7415 8d3b 51d6 453d 6f78 143b cc1a eb3d
00000350: 822e 033e 30f6 cfbc e6dd d13d ad98 55bd
00000360: 12a2 ee3d 3db7 c33d 0e2c da3d fce2 ad3d
00000370: 84f1 903c 2343 ee3c afd0 c23d 3f8e c43d
00000380: 7a6a b43c 227d dabc 0011 1d3d 841f 203b
00000390: adeb 6bbd 7013 dbbc 68a1 973d de71 053c
000003a0: c5fd 763d 3327 c03c 4a35 003d a8c8 06bd
000003b0: d247 29bd 0f43 063e 6d18 d23d 40b5 0ebd
000003c0: 8aed f73d 9fd7 b3bc fbac 503d 8bcf 3d3b
000003d0: 73e9 cc3d 5e09 e73d 45ce 1a3b f68b e63d
000003e0: aa22 9ebc 2e92 e23d 6adb 953d 3191 a4bb
000003f0: e95c 5f3d 8a42 353c debe 2fbc f1ad cc3c
-0.017512912 0.006716198 0.058814254 -0.01644875 0.15388153 0.14211921 0.050759014 0.088937186
0.13153112 -0.021439662 0.108322695 0.015114433 0.02816808 0.06166042 0.057554685 -0.025176326
0.010248514 0.09335506 0.08667807 0.13466288 0.13080747 -0.029814143 0.08067931 0.09316537
0.1000016 0.11597432 0.10401673 0.16463017 -0.010235387 0.076052666 0.11715818 0.10169583
0.054016925 0.0763529 0.15595758 -0.013422715 0.14768681 0.00091768894 0.13686174 0.11694779
0.037350528 -0.0013274595 0.004811748 0.07460462 0.13478304 0.026426477 0.023528282 0.07477957
0.013603149 0.08099742 0.13807958 0.052337065 0.12480043 0.08913168 0.12138926 0.05046156
-0.017128011 0.018219866 0.023886781 0.0818239 0.0012033235 0.105682604 0.10173614 -0.030322377
0.13137536 0.051688094 -0.017851159 0.09371097 0.007697753 -0.0004554515 0.0102608185 -0.0096859
0.022647828 -0.013518112 0.0055434476 0.0050958726 0.04955167 -0.034157846 0.06781556 0.16001548
0.051062476 0.04921331 0.021088317 0.10972214 0.025875881 -0.03799529 -0.036846057 0.073371
0.15615363 -0.04694107 0.14763778 0.044465065 0.06978378 -0.005010136 0.025826203 0.009752393
0.11661037 0.13849065 0.11266568 0.15486777 0.097379014 0.093967706 0.14871585 0.12602888
0.14930083 0.07469435 0.055235934 0.051193066 0.118272044 0.047577236 0.08974399 0.12872009
0.0761144 -0.0005160164 0.09715301 0.08546761 -0.004415606 0.049858775 -0.024482133 -0.030196778
0.007381784 0.123941585 0.06316292 0.11926986 0.08614208 0.14586343 -0.00089206675 0.054178677
0.066411085 -0.01271865 0.029296251 0.11859568 0.019713607 -0.02296996 0.045576718 -0.017927028
-0.023038357 0.02458583 0.051073067 0.09790592 0.08720283 0.048683874 0.08534847 0.099540174
0.04665034 0.058829647 0.13447472 0.021677291 0.08232985 0.050637525 0.101016395 0.060177088
-0.04599919 -0.0345328 0.10821914 -0.0054213027 -0.00072986266 -0.024230374 0.118797466 -0.045262307
0.06580366 -0.031848494 -0.008095902 0.08023669 0.08497479 -0.054230157 0.06038785 0.04656546
-0.010702724 0.07711159 0.07277944 0.04227161 -0.050051663 0.07290811 0.05181397 0.06205058
0.10776501 -0.026635604 -0.04166963 -0.011906575 0.022099597 0.044234067 0.12207025 0.01140022
0.07041024 0.022608675 0.08502284 0.06647474 -0.025880277 -0.017626636 0.0073782057 -0.027949579
0.13695191 0.006531554 -0.04510814 0.007398779 0.0033570167 -0.016786179 0.0025767083 0.05978954
0.05311238 0.024540907 0.033488136 -0.05120943 0.01487004 -0.027876984 0.058855023 -0.03560011
0.004305536 0.04830009 0.0022654792 0.114797205 0.1281071 -0.025385946 0.10247402 -0.052147556
0.11652006 0.09556434 0.10652934 0.084905595 0.017693289 0.029084748 0.095124595 0.09597444
0.022023428 -0.026670996 0.03834629 0.0024432847 -0.057597805 -0.026742667 0.07403833 0.008144824
0.060300607 0.023456192 0.03130082 -0.032906204 -0.04132826 0.13111518 0.10258565 -0.034840822
0.12105854 -0.021953402 0.050946217 0.0028962817 0.100054644 0.112810835 0.0023621481 0.11257164
-0.019303638 0.11063038 0.073172405 -0.005022191 0.054531965 0.011063227 -0.010726659 0.024985285

bias f4 [128]
00000000: 9c24 553d f355 1a3d 711a bebd ed1a 0abd
00000010: 1be9 163e d287 013e 883a 87bb 53bf 06bd
00000020: 3e90 8cbc 2bd2 00be cfcf 49bd c35c bbbc
00000030: 24b2 ee3c 96d1 c3bd bcff 16bd 3f22 12be
00000040: 00ba ea3d 03d9 b7bd a6bb 593d 1285 8fbd
00000050: 5e32 5fbd f48a e1bc 331e d13c 6c03 efbd
00000060: f79d 09bd 90f4 f5bd 8a53 7b3d 8ffb b6bd
00000070: bffc b1bc c5bc 9f3c 7dd7 04be e042 80bd
00000080: 2ece b73d e6cb 133b ddb3 b3bd daff 83bd
00000090: 59f7 a93d 89fe 5cbd 46b5 433c b5b4 993d
000000a0: 167f 6d3d 47a3 9fbd 626b 7a3d d7d8 61bd
000000b0: 9556 40bd 0aa5 eb3d a471 84bd d2b1 8abd
000000c0: 58bf 91bd 399d 073e 789e 273d d414 063c
000000d0: 52e4 a7bd b114 813d c154 61bb 30d7 0dbc
000000e0: 3562 c0bc 093e 123c f9ff 1d3d 9f0a 9a3d
000000f0: 3974 993d 133e 02be c764 28bd 376b 473d
00000100: 0934 a53d ab7a 003d 4762 9f3d 460f cd3c
00000110: 8e77 993d 9c7b fc3d e874 603d 5bcd 48bd
00000120: 249c 9fbd 967b 5bbc 60c7 6abb ba00 89bc
00000130: 7650 503c 7f9b 403d 47a5 2dbd afef 80bc
00000140: 3557 c9bd 64cb b9ba 1287 11be d09e 24bd
00000150: 94af e63d d235 ae3b a7ea b33d 2684 0a3d
00000160: b05f a5bb a45e ae3c a5ce 2abb 766d cfbd
00000170: bd12 ba3d d34b ce3c e92b 1b3e 9d91 0cbd
00000180: 443c c93c 6a9c d5bd 5d8b 70bd 373a d03d
00000190: cc45 04bd effe e93d 65a7 2fbd 35d2 6fbd
000001a0: 13cd abbc 5741 4e3d 103b 133e d46b 1e3e
000001b0: e444 143c 9ad9 07be 0721 983d bb6c a83a
000001c0: 06f6 d6bd 9977 c5bd 25e6 75bd 2b8e 25bd
000001d0: 8bc8 21bd 49ec fa3d 5829 a33c b27a 82bd
000001e0: 5b9f bebd 9b82 3f3d f5bc 5c3d 0cf9 bebd
000001f0: f195 a93d 310b 85bd 540e e13c c1c4 2fbd
0.052036867 0.037679624 -0.09282387 -0.033717085 0.1473736 0.12649468 -0.0041268505 -0.032897305
-0.017158624 -0.12580173 -0.049270447 -0.02287138 0.029137678 -0.0956146 -0.03686498 -0.14270876
0.11461258 -0.089769386 0.05315747 -0.07007803 -0.054491393 -0.027532078 0.025527095 -0.116705745
-0.033597913 -0.12009537 0.061358966 -0.089347 -0.021726964 0.019499192 -0.12972827 -0.062627554
0.089748725 0.0022551953 -0.087745406 -0.06445284 0.08299131 -0.05395368 0.011945074 0.0750517
0.057982527 -0.077948146 0.061137564 -0.055138435 -0.04695757 0.11506088 -0.06466988 -0.06772198
-0.07116574 0.1324357 0.040922612 0.008183677 -0.081978455 0.06302775 -0.0034382793 -0.008657262
-0.023484329 0.008925923 0.038574193 0.07521557 0.07492871 -0.12718992 -0.041111734 0.048686232
0.080665655 0.031366985 0.07782417 0.025031697 0.07493506 0.12328264 0.05479899 -0.049023967
-0.07793453 -0.013396164 -0.0035824403 -0.01672398 0.012714496 0.047023293 -0.04239395 -0.01573929
-0.098310865 -0.0014174995 -0.14211681 -0.040190518 0.112639576 0.0053164745 0.08784991 0.033817433
-0.005046807 0.021285363 -0.002606311 -0.101283 0.09085605 0.02518264 0.15153469 -0.034318555
0.02456487 -0.10430224 -0.058726657 0.101673536 -0.032293126 0.11425578 -0.04288425 -0.05855008
-0.02097181 0.05035528 0.14378 0.1547082 0.009049628 -0.13266602 0.074281745 0.0012849787
-0.10496144 -0.09641952 -0.060033936 -0.040418785 -0.039497893 0.12252099 0.019917175 -0.063710585
-0.093077384 0.046755414 0.05389114 -0.09324846 0.08280552 -0.06496275 0.027472652 -0.04291225

weight f4 [2, 128]
00000000: f414 1a3d b36f 983d a916 1d3d 8f62 9c3d
00000010: 2945 36bd f86d 1d3d 01e2 9ebc ad71 4e3c
00000020: e48a 863d b67c d33c 8019 54bd 5b72 453d
00000030: 4556 20bd 058f 52bc 6deb 1dbd 8f69 8c3d
00000040: 86fd 01bc 3bab 0e3b f86a d0bc 83ec bebc
00000050: 6816 7ebc e404 60bb 2656 2a3d 34a1 bdbc
00000060: d4f9 bb3d 204d 743d 27b5 893d 4512 083d
00000070: 4dda 42bc 6866 d5bc 975a 8a3d 39a1 e7bb
00000080: e8c8 9b3d aaf4 a13d 5015 88bc 9fc2 81bd
00000090: 8bf5 a53d 4d72 343d 6d3b b23d 45ca 5bbc
000000a0: b6dd f4bc 1839 163d 1565 97bd e303 cebc
000000b0: f0b3 8d3d cdde 973c 7f7c 05bd 979d 7fbd
000000c0: 7399 09bd ded9 5e3d c55b 5b3d 0335 513c
000000d0: fbd4 4a3d c0c4 2b3c 1f97 9fbd e69f f03b
000000e0: 438f b93c 8b52 a0bc fd3e 80bd 0d11 a73d
000000f0: 2c86 f3bc c6b1 8a3d 9e64 9f3d 9321 563d
00000100: 72db 9c3d 8c94 c13d 0e0c 38bc ee21 243c
00000110: c6d0 c5bb b02b 8abc d5de a3bd bb8c 9b3c
00000120: 3132 da3a a469 3d3e e8e9 08bc 3911 16bd
00000130: 4ef1 5ebc 8379 3dbd 6db6 3c3e ca68 313c
00000140: 2014 883d 6492 8ebd ef66 a53d 68d7 f43c
00000150: e5de bb3d 37e4 e73c c242 9c3d 9f8f 80bd
00000160: 38b0 b73c 1219 3a3d 9fe0 fb3a c185 993c
00000170: 35e4 8d3d f29d 34bd 678c afbb c2f6 10bd
00000180: 424d 953d 181c e7bc 87e1 7f3c 1330 553c
00000190: 475c 60bc dc5b 6a3b d7eb 89bd b271 663d
000001a0: 09e8 a4bc 1249 84bd 419a 7e3d 1443 913d
000001b0: 9f26 f3bc a1da 3cbc e119 bc3c 42c4 4a3d
000001c0: 3fbd 61bd 250c ae3c d86c cabc f1b5 b0bb
000001d0: 934a e93c dd4c a83c cacc 93bc 4075 1f3d
000001e0: 6bd2 b13d e206 8b3c a85a a33b 9f52 c6bc
000001f0: caef 3d3d 5e70 8bbd 9a9e 82bd 6809 32bd
00000200: 89a6 c7bd d78d d7bd 76ce 1f3c 0e54 a2bd
00000210: 1630 1fbe 40b1 afbd 5bbf 49bc 8b1c 18bd
00000220: 0658 66bd 10ca e6bc 172b 49bd a38b 203d
00000230: 02fb abbd ba02 c3bc 2519 2b3d 24b0 00bd
00000240: 85c7 8fbd b692 283d 2509 59bd 4be2 c3bc
00000250: e76d 1abc 9cb0 0cbd 0573 d6bc 8aa3 1abd
00000260: 11b1 713c 863d b83c e0f0 d53b 9ef4 64bd
00000270: 2e3e 00be 27cf abbd 9107 083c a5bf f53c
00000280: 1046 f3bd 7537 bfbd ac7e 1abd 8fb3 acbc
00000290: 0809 b4bd f981 14bd 36f9 10bd f371 07be
000002a0: ab6b 863c b0f8 943b 23c9 d7bc 0dfa 9c3b
000002b0: 0a58 a0bc c479 cebd 69ab fbbc 94cd 0c3d
000002c0: f411 533d 7f40 f8bd 7e13 c0bd efef 04be
000002d0: 2566 303d 7e4a 04be 854e 52bc 6d70 d1bd
000002e0: de3d 11be 522b 823d 87e4 aa3c 76c1 a3bd
000002f0: c8d9 aebd ba94 edbc 1d4c 633c dc42 5ebd
00000300: 517f 09be 3519 82bd 3caa 0f3c ab5c d0bd
00000310: d3a7 11be b9a1 93bd 0aab 8bbd 1a5b 3ebd
00000320: ec4b cabc e316 9b3d c748 1ebd 3693 bdbd
00000330: 6ed4 b1bc ae07 f4bd 5c7b 8a3a 6a81 d4bc
00000340: 905d d93c 0edb f3bc e0c2 16bb fc06 2cbd
00000350: b1af febd 26e1 b8bd 8b71 8abd e2f4 f83b
00000360: 8ce2 0dbe f1c9 933b 758f ffbc d51e 6039
00000370: 73f6 ecbd fbbf 0cbe 3a52 c8bd cddd 213b
00000380: cec1 4abd 305d ea3c 2b5f 62bd 822c e4bd
00000390: 6de7 193c 85a6 c9bd 8e43 5b3c fee9 6b3c
000003a0: 0317 78bc 3354 61bb b4f1 b8bd d156 22be
000003b0: 2033 dabc 95e1 0abd 60d1 94bd 3d61 12bd
000003c0: fa1d 01bd 50e8 ca3c c4f8 b1bc 050e 1ebc
000003d0: 8ddd 2abd 0b4d adbd ae61 a93a 305f 86bd
000003e0: 8602 c03c 076f 97bd 5db0 f8bd 7f49 8dbc
000003f0: bf98 36bd 8252 8bbc 7a9d b63c dcbb 69bd
0.03761764 0.0744318 0.03835169 0.07635986 -0.04449955 0.038434952 -0.019394876 0.012600345
0.0656946 0.025816303 -0.05178213 0.04820476 -0.039144773 -0.012851481 -0.038554598 0.06856071
-0.00793398 0.0021769542 -0.025441632 -0.023306137 -0.015508272 -0.0034182603 0.041586064 -0.023148157
0.0917851 0.059643865 0.06724005 0.03322055 -0.011892867 -0.026049808 0.0675556 -0.00706878
0.07606679 0.07907994 -0.016611725 -0.06335949 0.08103474 0.04405432 0.08702741 -0.013414924
-0.029890876 0.036675543 -0.07392327 -0.025148338 0.06919086 0.018538857 -0.03258943 -0.06240615
-0.033593606 0.054406993 0.053554315 0.012768987 0.04951952 0.010483921 -0.07792496 0.00734328
0.02265132 -0.01957061 -0.06262014 0.08157549 -0.029727064 0.06772189 0.07782863 0.052278113
0.07659043 0.09452161 -0.011233343 0.010017855 -0.0060368506 -0.016866535 -0.08001486 0.018988004
0.0016647038 0.1849733 -0.008356549 -0.03663752 -0.013607336 -0.04625846 0.18428965 0.010828206
0.066444635 -0.069615155 0.08076274 0.02988787 0.09173373 0.028307064 0.076299205 -0.062773935
0.022422895 0.045434065 0.0019216723 0.018740537 0.06928293 -0.04409594 -0.0053573134 -0.035391577
0.072901264 -0.028211638 0.015617735 0.01301195 -0.013693876 0.003576032 -0.06734436 0.056260772
-0.020130174 -0.064592496 0.062158827 0.07092872 -0.029681502 -0.011526735 0.022961559 0.049503572
-0.05511212 0.021246025 -0.024710104 -0.005392783 0.028477943 0.020544464 -0.018041987 0.038930178
0.08682712 0.016971055 0.0049851723 -0.024209319 0.04637126 -0.06808542 -0.06377907 -0.043466
-0.09748561 -0.10525101 0.009753814 -0.079261884 -0.15545687 -0.0857873 -0.012313689 -0.037136596
-0.05623629 -0.028172523 -0.04911336 0.039195668 -0.08397485 -0.023805011 0.041772027 -0.03141798
-0.07020477 0.04115554 -0.052987237 -0.023911616 -0.009425617 -0.034348115 -0.026177892 -0.03775362
0.014751689 0.022490274 0.0065289587 -0.055897348 -0.1252372 -0.083891205 0.008302585 0.02999861
-0.11878598 -0.093367495 -0.03771846 -0.021081714 -0.08790785 -0.036256764 -0.035393916 -0.13227062
0.016408762 0.0045462474 -0.026341027 0.0047905506 -0.01957323 -0.10081819 -0.030721383 0.034375742
0.051530793 -0.12121677 -0.09378718 -0.12982152 0.043066163 -0.12919042 -0.012836103 -0.10226522
-0.14183757 0.06355919 0.020860923 -0.07995884 -0.08537632 -0.029001582 0.013873127 -0.05426298
-0.13427474 -0.06352464 0.008768614 -0.10173925 -0.14224176 -0.072085805 -0.068197325 -0.0464736
-0.024694405 0.07572725 -0.038643625 -0.09256594 -0.02170774 -0.11915527 0.0010565328 -0.025940616
0.026533872 -0.02976754 -0.0023004338 -0.04199885 -0.12435854 -0.09027319 -0.06759938 0.0075975517
-0.13855952 0.0045101573 -0.031196335 0.0002137379 -0.11570444 -0.1374511 -0.097813085 0.0024698854
-0.049501233 0.028608888 -0.05526654 -0.11141302 0.009393555 -0.09846214 0.0133828055 0.01439905
-0.015142205 -0.0034382462 -0.09030476 -0.1585343 -0.026635706 -0.033906538 -0.072664976 -0.035737265
-0.03152273 0.024768978 -0.021725066 -0.009646897 -0.041715194 -0.084619604 0.0012922788 -0.06561124
0.023438703 -0.07394224 -0.121430136 -0.01724696 -0.044579264 -0.017007116 0.022291888 -0.057063922

bias f4 [2]
00000000: e9dd 363d 791b c2bd
0.044645224 -0.09477896
