models/ddpg_actor_network.pth (torch, 280246 bytes, 6 tensors)

weight f4 [256, 10]
00000000: 3e36 7f3c 8adf 05be 0831 8abe ea34 0e3e
00000010: f4f9 a4bd be35 1fbe 491f c7bd d3ab 863d
00000020: 62a7 7fbe d575 b83d cb06 183e 1e72 53bd
00000030: b72c 7a3e e872 e23d 69a8 393e 085a bcbd
00000040: 1b16 4bbc c165 38bd 7708 f9bd e6a8 8a3e
00000050: 7b0c 393e b8a4 183e dc3c 843d efe7 cf3d
00000060: b8ac cf3c 7072 a5bd a795 88be ffca 4f3e
00000070: bc4b 04be db36 6ebe fd6c 02bd 80bf 94be
00000080: b2b0 e8bc 7dca 8abe 48cf 513e 73b9 8dbe
00000090: df8e 84bc 6a36 8cbe eea5 ef3d 9f4a 2cbd
000000a0: 43a2 51be 2ece 7d3e 3c74 88be eefa 76bc
000000b0: e849 9e3d 3c35 983e e2e4 733e 558a 5abe
000000c0: 6434 89be 6400 173e d6bd 813e 3e74 c93c
000000d0: c21a 0a3e 29ea 4cbe 9edb 663d 413f a33c
000000e0: 0f22 1c3b f309 a83d 9f7b 1abe d97e 27be
000000f0: 275c 2ebe a158 7abe 61e4 45bd a072 183e
00000100: c044 193e 1daf 7abe 34b6 cf3c db62 923e
00000110: 3e5b 0cbe f2e4 8d3e 23fe c53d cd97 84be
00000120: bf4e 773e e39f a53c 7568 8a3e e9f7 29be
00000130: f59a 8b3e 0589 413d 9ace 913e f42d 9dbe
00000140: 64f0 f53d 1ade b1bc a399 013d b63c 1cbe
00000150: 540e 543e 6467 823e b0b8 a73e 0de1 2c3e
00000160: e48a 75bc d611 cd3d af3b a23e 9609 a8bd
00000170: 8bfe 183e 6bc5 b33c a909 033e 1e2f 873e
00000180: b494 12be 05b0 9b3e abc6 303e fa86 3cbd
00000190: 87cf 3a3d 34ac b23d d8c0 efbc 8b15 3c3c
000001a0: c5c4 e3bd 770e 783e 909a 18be 710f 023e
000001b0: 8f49 a13d 26a8 cebd be96 543e bb85 80be
000001c0: 08ee 9dbe b759 8fbd 0714 8cbe 5b29 38be
000001d0: 1ee8 963e 024c 643c af22 afbc 1281 723e
000001e0: d8a4 763c ecc1 d4bb f8dc 743d 61e6 753e
000001f0: 936d 35be 6410 9cbe de48 5f3e 2e54 653e
00000200: 66f6 993e 3d2a 783d 86cc 2d3d 2f3a 283e
00000210: 4d5c 193e 75b7 563d 5270 ccbd b4a3 c7bc
00000220: 845b 0d3e 3f1c 713c 6dd2 003e 2459 74be
00000230: f0a7 8f3e 9033 15be 7646 e63d 2cc2 86be
00000240: bea4 613e 1611 5cbd 5fbb 883d f022 873e
00000250: e641 35be ce78 f03d b2f3 903e e9bc 26be
00000260: 3278 13be 5c85 b33c c9ef 093e de6e 523e
00000270: 3e27 943e bd6e 523e 9876 7cbe e4c0 9cbe
00000280: b2ac 30be b588 04be 43a8 313e 2b98 80be
00000290: 8051 08be aa6a e3bd 4810 95be af9a 423e
000002a0: 0478 933e 85b9 b63d 33cd 21bd fc2b c0bd
000002b0: e718 663e 9e13 833e dc4c e8bd bf24 0c3e
000002c0: 9d3a 913e c290 a8be 5d4e 3fbe 0397 43be
000002d0: 10cc 6ebd 182e b03d 8f00 9a3e 235f 003e
000002e0: 9177 883e 1d59 23be 6d44 183e dfd9 34bd
000002f0: 54eb debd a355 52be d09d 91be 9e83 493d
00000300: 6a39 a23e ea8e f73b 79e2 ebbd e61f 73be
00000310: 9dc5 903e 378e 86be b22c 74be 4a89 a7be
00000320: 5c20 84bd b90f 9a3d 4e25 ab3e fb61 0f3d
00000330: d197 07be 3688 41be 709e 98be d8c1 5b3e
00000340: 6418 d7bd 9928 963e 551b 36be e4f3 813e
00000350: 6ee3 a53d cdd2 4c3d 2791 05be 0dc0 af3d
00000360: 74f7 3dbc 2354 4f3d b506 ad3d a14b 68bc
00000370: 4897 873e 9200 583e 9bb8 09be 1f45 44be
00000380: 3030 cbbc 2f6a 1b3e 97c5 75be ece4 533e
00000390: 346a 4f3b 2905 833e 594d 263d 7db5 e4bd
000003a0: ce18 80be 844c 833e 6a31 013e 2e4e 88be
000003b0: a101 8bbe 9e8e 9cbe c778 983d 3380 44bd
000003c0: 1c8c 35be 7052 54be 9c98 d0bd e8a5 a1bd
000003d0: c8f3 793e 3f5d c0bd 75cf 30be 5d58 663e
000003e0: 69ee 55be 3720 15be ff4b 703e e5f3 2ebe
000003f0: 5cf9 1dbe c9f9 a1be fe4b b9bc e535 113d
0.015576897 -0.13073555 -0.26990533 0.13887373 -0.08055487 -0.15547845 -0.09722764 0.065757416
-0.24966195 0.0900685 0.14846341 -0.051622503 0.2443112 0.11057073 0.1813065 -0.091968596
-0.012395407 -0.045018915 -0.12159818 0.27081984 0.18071167 0.14906585 0.064569205 0.1015166
0.025350913 -0.08078468 -0.26676676 0.2029228 -0.12919515 -0.23263113 -0.03184222 -0.29052353
-0.028404567 -0.2710761 0.20489228 -0.2768055 -0.016181407 -0.27385265 0.117015705 -0.04206335
-0.20472054 0.24785683 -0.2665118 -0.015074475 0.0772894 0.29728115 0.2381778 -0.21341832
-0.26797783 0.14746243 0.25340146 0.024591561 0.1348677 -0.200112 0.056361787 0.019927623
0.0023824011 0.08205023 -0.1508622 -0.16356982 -0.17027341 -0.24447872 -0.048313502 0.14887476
0.14967632 -0.24480863 0.025355436 0.28591046 -0.13706681 0.27713734 0.09667613 -0.25897065
0.24151133 0.020217841 0.2703282 -0.16598476 0.2726666 0.047249813 0.28477937 -0.30699122
0.120087415 -0.021712352 0.03164066 -0.15257534 0.20708591 0.25469506 0.32758093 0.16882725
-0.014986727 0.100131676 0.3168616 -0.08204953 0.1494085 0.021944722 0.12796654 0.26403135
-0.14314538 0.3040773 0.17263286 -0.04602716 0.04560807 0.087242514 -0.02926676 0.011479746
-0.11121515 0.24224268 -0.14902711 0.12701203 0.07875358 -0.100906655 0.20760629 -0.25102028
-0.30845666 -0.069995336 -0.2735903 -0.17984526 0.29473966 0.013934137 -0.021378843 0.23682049
0.01505395 -0.006492844 0.059781045 0.24013664 -0.1771758 -0.30481255 0.2180514 0.22395393
0.300708 0.060587157 0.042431377 0.16428445 0.14976616 0.052421052 -0.09982361 -0.024370052
0.13804442 0.014716207 0.12580271 -0.2386213 0.28057814 -0.14570451 0.11243908 -0.26320016
0.220355 -0.053727232 0.06676363 0.26393843 -0.1770092 0.11741792 0.28310925 -0.16283001
-0.1440132 0.021914177 0.13470377 0.20550105 0.2893619 0.20550056 -0.24654615 -0.30615914
-0.17253378 -0.12942775 0.17349343 -0.25116095 -0.1331234 -0.11104329 -0.29113984 0.1900432
0.28802502 0.08922104 -0.039502334 -0.09383389 0.22470437 0.25600904 -0.11342785 0.13685893
0.2836503 -0.3292294 -0.18682237 -0.19100575 -0.058300078 0.08602542 0.3007855 0.12536292
0.26653722 -0.15951963 0.14869852 -0.04415309 -0.10884729 -0.2054048 -0.28440714 0.049197786
0.31684428 0.0075548785 -0.115178056 -0.23742637 0.28275767 -0.26280376 -0.23845175 -0.3272193
-0.064514846 0.0752253 0.334269 0.03500555 -0.13241507 -0.18899617 -0.29808378 0.21460664
-0.10502699 0.2932785 -0.17783864 0.25381386 0.081000194 0.050005723 -0.13043652 0.08581553
-0.011594642 0.05061735 0.08448545 -0.014178188 0.26482606 0.21093968 -0.13449328 -0.19166993
-0.024803251 0.15177225 -0.24001156 0.20692796 0.0031648995 0.25589874 0.04060111 -0.11167429
-0.25018924 0.25644314 0.12616506 -0.26622146 -0.2714968 -0.30577558 0.074449115 -0.047973823
-0.17729229 -0.20734572 -0.10185358 -0.07892972 0.24409401 -0.09392785 -0.17266639 0.22494645
-0.20891728 -0.1456307 0.2346649 -0.17085226 -0.15427154 -0.31635883 -0.022619244 0.03545179

bias f4 [256]
00000000: 742f b33d 2def 6c3e a9e3 193e c52b 43be
00000010: 1f0b 2e3e 105f 24bd db52 4c3e 74a9 5abe
00000020: 9d1a 86be 29ab 123e ddc9 3fbc 3fde 153c
00000030: ce19 153e c678 83be 2b24 a53d c809 cb3e
00000040: 4cb3 203e 7aed f9bd 5cbd 323e 475d 073e
00000050: 29ef 563e 88d5 a43d 0b29 78be 187f 35be
00000060: 33a0 a23e de8f c13d fc20 58be d4bb df3d
00000070: 3352 a13e bb92 28be 3781 71be b46a 32bc
00000080: cd86 8f3e 0d43 12be 1bcc 9b3e 32bf 973e
00000090: 6eb2 8cbc 23c0 8c3e 6a89 8abe 9596 673e
000000a0: dc4b 74bd aa91 fd3c f5c5 653e 965e 3cbd
000000b0: ec80 6a3e d229 73be 78c7 163e d3f5 8f3e
000000c0: ee14 7fbe 28bc 1a3e 9d5a 9dbe e89b b6bd
000000d0: 49cb 86bb 1af2 09be a81b 29be 2311 7b3e
000000e0: 54df d43d f4d4 823e 9a15 75be c40c 28be
000000f0: 3662 14be 97d9 32be 0160 7f3e bf7b 773e
00000100: 982c 67be 0531 223d bd34 1e3c d4ce 883e
00000110: b5ea d7bc b1b5 9e3e 7cad 8abc b7ff 72bd
00000120: 16a7 4cbd 7fca 99be 83ee 233e 9daa cabb
00000130: eedf 27bd 04ac 713e 3ed3 22be 46c5 5e3e
00000140: bda4 4fbd 293f 793e 9c9c 08be a61c 79be
00000150: 9066 86be 3b1c 54be 3003 0dbc 3cf4 1fbe
00000160: eee1 993e 6264 983e 450e bd3d 54bf 953e
00000170: f185 c03d 7c95 1b3e 2e33 443e 66c7 ccbd
00000180: b627 7fbe 1dd7 a53e 0ae0 0c3e 673b 493d
00000190: 6e7a 38be d429 8ebe c655 a13e 228e 973e
000001a0: 923f 8f3e e708 733e c078 093e 6116 443d
000001b0: 2ab8 d8bd b274 c13d d26c 81be d4fe b4be
000001c0: 1864 75be 2c29 963e 8ac7 803d 56a1 8a3d
000001d0: 7112 79be 3280 8dbd 5ebd fb3c 25c7 543e
000001e0: 0482 b53d 22d2 6c3e 1d14 8ebd 2a42 dfbd
000001f0: 624b 7c3e b469 2cbe b8d6 08be 6a6d 86be
00000200: 7319 8f3e 8c04 9e3e 36bd 62be aa3c fa3a
00000210: 263d 773e b819 13be d483 14be 4c91 8cbe
00000220: 420d a83e 67b6 e23d 1a4f 3ebe 34c9 2b3d
00000230: d49e 463e 84be a0bd b9e4 97be 4ae3 5bbd
00000240: 935d c6bd a77b 9d3d 6c36 a73e a4e3 963d
00000250: babc 873e 119b f43d d096 753e 9426 50bd
00000260: a8e7 603d b2e7 643e b747 7cbe 4551 453e
00000270: 33d0 33bd 4847 1d3e 5d3b 7ebe a947 04be
00000280: 29ad 633c 93b5 c03d ee78 573e 042e 8c3d
00000290: 780e 8ebe e7f3 8ebe 16c1 89be 58ef 533e
000002a0: 86fd 883e 869e 653e ada2 943e 7b9e 983e
000002b0: 724a 8fbd 5a9a 8ebe 2ff1 3e3e d1cc 6f3c
000002c0: 572b 1b3d 3894 84be ef9e eebd 59b5 ab3d
000002d0: 0484 d5ba 8a85 e4bb e54a a4bd d9b5 8a3c
000002e0: 86d8 c8bd ac3d d63c ea26 633e 1a2b afbc
000002f0: c6db 363e aa66 17be 518a 2c3e 2c71 8e3e
00000300: 2881 0b3e 4c4f 0dbd ba9d 67be 5fca 213e
00000310: dce0 e5bd ffb3 50be b162 aebd 9e17 39bd
00000320: 2832 25be 2466 363e e4b2 163e 69bc 5e3e
00000330: 61d9 603d 8906 683e a2d7 953e 18b3 9b3e
00000340: c4a4 91bd 4c0b 523e 62fe a8bb 22f2 3cbe
00000350: 9e0d 8dbc 757e 553e f778 2a3e 77d8 2ebe
00000360: 4a67 fbbd 84e3 263e b5f0 98bc 3c7e b9bd
00000370: 40f7 113e 37ec a33d 3aa5 bfbc c083 ffbd
00000380: 96fa 5d3e 0deb b6bd 7863 803e 5cb6 993e
00000390: 5f8b e43d 0371 873c 6c40 903e 161c d83c
000003a0: 2d17 95be 6f92 0ebe f8dd 333d 3ee7 3e3d
000003b0: 9966 98be 58d7 893e 8420 91be 1b48 4f3d
000003c0: 6258 9cbc 71c4 6d3e 154d 883d d80a 613d
000003d0: e37c dfbd 5bd6 9abe a67e e83d 4fc9 1b3e
000003e0: 2677 2a3e 648e 833e 2fef a1bd 1471 3b3d
000003f0: 8655 1bbe 1fc1 4e3e b6ec 8ebe dc81 923e
0.08749285 0.23138113 0.15028252 -0.19059666 0.1699643 -0.04012972 0.19953482 -0.21353704
-0.2619218 0.14323105 -0.011705843 0.009147226 0.14560625 -0.2567808 0.08063539 0.396559
0.15693396 -0.12203498 0.17455047 0.13219176 0.2098967 0.0804854 -0.24234407 -0.17724264
0.31762847 0.094512686 -0.21106333 0.10924497 0.31508026 -0.16462223 -0.23584448 -0.010889698
0.28032532 -0.1428339 0.30429158 0.29638058 -0.017174926 0.2749034 -0.27057964 0.22616036
-0.059642658 0.030953247 0.22438796 -0.04598864 0.22900742 -0.23746422 0.14724529 0.28117236
-0.24910328 0.15110838 -0.30733195 -0.089164555 -0.004113589 -0.1347126 -0.16514456 0.24518256
0.10394159 0.25553095 -0.23934022 -0.1641112 -0.1449059 -0.17465816 0.24938966 0.24168299
-0.22575605 0.03959753 0.0096561285 0.26720297 -0.026357034 0.30997995 -0.016928427 -0.0593259
-0.049964033 -0.30037305 0.16008954 -0.0061848895 -0.04098504 0.23600775 -0.15900895 0.21754941
-0.050694216 0.243405 -0.13340992 -0.24327335 -0.26250124 -0.20713894 -0.008606717 -0.15620512
0.30055183 0.29764086 0.09231237 0.29247534 0.09400547 0.15193743 0.19160149 -0.0999897
-0.24917492 0.3239068 0.13757339 0.049128916 -0.18015453 -0.27766287 0.31510752 0.29600626
0.27978188 0.23733865 0.13424969 0.047872905 -0.105820015 0.09446086 -0.25278336 -0.35350668
-0.23963964 0.29328287 0.06288059 0.06769054 -0.24323441 -0.06909217 0.030729946 0.20779093
0.08862689 0.23127034 -0.0693743 -0.10901292 0.24638131 -0.16837198 -0.13363159 -0.2625535
0.27949104 0.30862844 -0.2214249 0.0019091566 0.2414442 -0.1436528 -0.14503413 -0.27454603
0.32822615 0.11069947 -0.18584862 0.04193993 0.19396526 -0.07848838 -0.2966669 -0.053683557
-0.096858166 0.076896004 0.32658708 0.07367638 0.26511174 0.11943639 0.23983312 -0.05081804
0.054908425 0.2235401 -0.24636732 0.19269283 -0.043899726 0.15359223 -0.24827333 -0.12917961
0.013896265 0.094096325 0.21042225 0.06844714 -0.27745414 -0.27920458 -0.26905125 0.20696771
0.26755923 0.22423753 0.29030362 0.2980841 -0.06996621 -0.27852136 0.18646692 0.014636234
0.03788313 -0.25894332 -0.11651408 0.08384199 -0.0016289954 -0.006973927 -0.080220975 0.016932415
-0.098069236 0.026152454 0.22182813 -0.021382857 0.17857274 -0.14785257 0.16849639 0.27820718
0.13623488 -0.03449945 -0.22618762 0.15799855 -0.11224529 -0.20381163 -0.08514918 -0.04518854
-0.16132414 0.17812401 0.14716679 0.2175156 0.05489481 0.22658743 0.29266077 0.30410075
-0.07111505 0.20512122 -0.005157278 -0.18451741 -0.017218407 0.20849021 0.16647707 -0.17074762
-0.1227556 0.16297728 -0.018669466 -0.090572804 0.14254475 0.08004039 -0.023394216 -0.12476301
0.21677622 -0.08931551 0.2507589 0.30021942 0.111593954 0.01653338 0.2817415 0.02638058
-0.29119244 -0.13923047 0.043912858 0.04660725 -0.29765776 0.26922107 -0.2834512 0.050605875
-0.019085113 0.23219468 0.06655327 0.054941982 -0.10912492 -0.30241665 0.11352281 0.15213512
0.16647014 0.25694573 -0.07906949 0.045762137 -0.15169343 0.20190857 -0.2791497 0.286147

weight f4 [256, 256]
00000000: 3ec3 473b 3d76 38bd 8a76 3dbd f0fd c0ba
00000010: f685 203d d6da 13bd e1a5 323d f7aa 8fbd
00000020: c054 24bd 96ea 4b3d 6d5d 2d3d 097c 293d
00000030: ee0d 103d 0740 6dbd 4587 f9bc 0588 66bc
00000040: 9171 a2bc 4954 25bd 503e 2e3d c15a ca3b
00000050: da33 863b 971f 04bd 6588 41bc c50c 34bc
00000060: ba01 dd3b cacc 01bd 4662 a13b fa10 993c
00000070: 80e9 b83c 92e2 a03c d84d 2bbc 6060 5fbd
00000080: 70c8 673c fce4 5dbd 50ed 233c 1651 533d
00000090: a19e 813d 1409 823c 56c2 45bc 63a6 ef3b
000000a0: 0e54 da3c 645e 5dbd 37e5 68bd da2b ad3c
000000b0: 8d61 8b3b 4c70 3f3d cf30 3dbc 20fc 88bc
000000c0: 33c6 3d3c e1e2 e0bb 130e 493d c68b d73c
000000d0: 49dd 2a3d dbef 29bd 88cb 27bd e058 2cbd
000000e0: b31d 273d 3d43 36bc 2106 e03c 2cb9 cdbb
000000f0: f301 0cbd 3af8 f4bb bf18 973c 5971 57bd
00000100: 998f 1fbb 096f 6dbd 77cc 1ebd c3eb 7c3b
00000110: 1084 89bd 86b9 90bd d57c 963c d148 413c
00000120: 1e49 7abd 8925 b9bc 935b bdbc 7247 56bd
00000130: a073 47bd efd8 b33b bd9a 403d 1162 713d
00000140: ad46 803c 1914 5c3d 4b25 04bd bb0e 373d
00000150: 5194 b13c cfaf 3c3d 9594 55bd ea48 50bd
00000160: 4055 073d 3d3b 8b3b b9d4 b4bc 27f0 0b3d
00000170: 4778 74bd 9349 fd3c a6ca 4c3d 7b56 063d
00000180: 3cb3 933b 024d 20bd f93f be3c 760a 5c3c
00000190: 6832 113b 4a99 2bbd 08b5 8a3d 27b6 1e3d
000001a0: 351d 5ebd 394c 58bd 4bb5 e2bb 2fa1 a2bc
000001b0: 1422 053d 9197 68bd 85c4 84bd a8ff 35bc
000001c0: 7872 ea3b 72d0 85bb 9194 493d 5c6f 833c
000001d0: 5926 3abd c81e 283d 8cee 1e3a 4abb 49bd
000001e0: 9ad8 e8bb 259a d8bc 75bf 32ba f544 efbb
000001f0: 9f79 b3bc 5903 90bc ea10 fe3c 03d2 08bd
00000200: 521d 263c 7de5 57bd b6a5 69bd 3d29 adbc
00000210: bad5 003d 9a9b 333d 98cd 8abd 9c4d 843c
00000220: 7d3b bd3c 9795 9bbc 5819 bbbc 85ce e33c
00000230: dab8 60bc d1a5 123d 4d68 5dbd 5d54 8abd
00000240: 52ab 633b bc8f 853b 5d33 043c 6971 1cbd
00000250: 15eb 873c d216 cdbc 9ac1 aa3c 8806 2abc
00000260: 5b99 2dbd 792f febc f687 82bd 38f7 e13c
00000270: cff4 6cbd f201 9f3c cd8f 873d 6638 003d
00000280: 1251 da3b 8242 5a3b fb51 f3bc d627 01bd
00000290: 64eb d93c 7afc 94bc e6bd 653d 3af9 83bc
000002a0: a160 5ebc d111 81bd b62e a93b a619 31bd
000002b0: ed64 0b3d b3bf 6e3c 6130 51bd bb0a 0bbd
000002c0: decc 82bd 93bb 863d 03ce 5fbc 5637 3dbd
000002d0: 976d 06bd aa35 fe3c 47d9 113d 4892 5a3c
000002e0: 20e8 6c3d 96b7 68bd 6df5 883b f2be 8fbd
000002f0: 6155 43bc 1356 3f3d c940 093d a659 b4bc
00000300: c574 1fbd f9eb 67bd 2703 7c3c 133d 3e3d
00000310: edb0 be3c 8cb1 623d 5500 b9bc fbbf 3cbd
00000320: 7bf5 41bd 0ddf f13b e7d9 25bc a310 493c
00000330: 0c00 6cbd 49f2 613d fe00 453c a1b4 433c
00000340: b9e3 05bc 67b1 79bd 1301 75bd 5d9a f83c
00000350: d19a fbbc e6f5 e8bc f985 f53b 85f7 593c
00000360: bd57 5fbd d3b7 abbc 731b c53c eb88 92bc
00000370: 57b7 09bd 6b57 913c b86f 07bd 661b 65bd
00000380: 7a6c 7ebc 3230 883d 78da 823c 28c9 e13b
00000390: e68e 5bbd abfa 053d 3840 233d 1c28 453d
000003a0: a872 68bc ff36 323d 9822 2c3d fab5 ea3c
000003b0: 645f a33c 3f04 22bd b08f 913b 170c 1c3d
000003c0: 998a 46b9 2f8c b83c 5463 3bbd 3eed 62bb
000003d0: 0900 3f3d a3f2 43bd 1470 1c3c c47a 2e3d
000003e0: 26e1 3fbd fd7d 393c e4ba b13c c4ef 843c
000003f0: 4f03 263d a342 16bd 2e3b 243c 35d8 0d3c
0.0030481364 -0.045034636 -0.046255626 -0.0014724117 0.039190255 -0.03609737 0.043615226 -0.07015031
-0.040119886 0.049784265 0.042325426 0.041378055 0.035169534 -0.05792239 -0.03046001 -0.0140705155
-0.019829543 -0.040363584 0.042539895 0.0061753695 0.0040955367 -0.03225669 -0.011812304 -0.010989373
0.0067445906 -0.031689443 0.004925045 0.018684853 0.022572279 0.019639287 -0.010455571 -0.05453527
0.014146909 -0.054173455 0.01000531 0.051591 0.06329084 0.01587347 -0.012070259 0.007313536
0.026651409 -0.054045096 -0.05685922 0.021139074 0.0042535723 0.046737954 -0.011547281 -0.016721785
0.011582899 -0.0068629836 0.049085688 0.026311766 0.04171494 -0.04148851 -0.040965587 -0.042076945
0.040799808 -0.011124429 0.027346672 -0.0062781777 -0.034181546 -0.00747588 0.018444417 -0.05259833
-0.0024347065 -0.05796722 -0.03876921 0.0038592673 -0.06714642 -0.07066636 0.018370071 0.011797146
-0.061104886 -0.022600906 -0.023114955 -0.05231423 -0.048694253 0.005488507 0.04702257 0.058931414
0.0156587 0.053730104 -0.032262128 0.044691782 0.021677168 0.0460661 -0.052143652 -0.050850786
0.033040285 0.004249005 -0.02207409 0.034164574 -0.059685018 0.030918872 0.049997948 0.032797318
0.0045074504 -0.03913594 0.023223864 0.013430228 0.0022155289 -0.041894235 0.0677281 0.038747933
-0.054227073 -0.052807067 -0.0069185845 -0.019852249 0.032503203 -0.05678517 -0.064827956 -0.0111083165
0.007154759 -0.0040836865 0.04921395 0.016044311 -0.045446727 0.04104498 0.0006062768 -0.04925088
-0.007105899 -0.02644069 -0.00068186905 -0.0073019215 -0.02190858 -0.017579721 0.031013925 -0.033403408
0.010138826 -0.05270909 -0.0570428 -0.021137828 0.031453826 0.043849565 -0.06777495 0.016150288
0.023099655 -0.018992228 -0.022839233 0.027808437 -0.013715947 0.035802666 -0.054054547 -0.06754372
0.0034739566 0.0040759724 0.008068887 -0.038194094 0.016591588 -0.025035296 0.02084427 -0.010377534
-0.04238258 -0.031028496 -0.06373589 0.027583703 -0.057850655 0.019410107 0.06619225 0.031303786
0.0066624964 0.0033303802 -0.029702177 -0.03153213 0.0266015 -0.018186796 0.056089304 -0.016110051
-0.013572843 -0.06302226 0.005163039 -0.04323735 0.034031797 0.014572072 -0.05107153 -0.03394578
-0.063867316 0.06578746 -0.013659957 -0.04619535 -0.032819357 0.031031448 0.035607602 0.01334054
0.05783856 -0.056815706 0.0041796477 -0.07018842 -0.011922211 0.046712946 0.03350905 -0.022015404
-0.03892972 -0.056621525 0.015381611 0.046444964 0.023277724 0.055345103 -0.022583166 -0.046081524
-0.04735325 0.007381326 -0.010122753 0.012272033 -0.057617232 0.0551627 0.012024162 0.011944921
-0.008171969 -0.0609602 -0.059815478 0.030347044 -0.03071347 -0.028437566 0.0074927774 0.013303642
-0.054527033 -0.020961678 0.02406094 -0.017887553 -0.033622112 0.01774188 -0.033065528 -0.055934332
-0.0155287925 0.066498175 0.015973315 0.006890435 -0.053603075 0.03270976 0.039856166 0.048133954
-0.014187492 0.04350948 0.04202518 0.028651226 0.019942947 -0.03955483 0.0044421777 0.038097467
-0.00018934383 0.022527782 -0.045749024 -0.003462627 0.046630893 -0.04783882 0.009548206 0.042597547
-0.046845578 0.011321542 0.021695562 0.01622761 0.0405305 -0.036684643 0.010023875 0.008657505

bias f4 [256]
00000000: 3a3d d7bc c818 83bd 050a 89bc 00dd 173d
00000010: b43f 8b3c 1ebc a7bc f664 e5bc 25a3 b23c
00000020: f24e d53c dd26 23bd 5031 febb add9 70bd
00000030: 0e77 c3bc 6ca8 053d c470 ce3c d39a cb3c
00000040: d7c6 393d 383f 99bd e373 9f3d e639 653d
00000050: 593f 3dbd c44d 98bd 5b05 2abc 6891 6a3b
00000060: 0a49 85bc 0839 8cba fc44 51bd 8c68 bcbc
00000070: f277 46bc 91ea 94bc 56fb 303d 6ec7 0a3d
00000080: 7a6f 803d ef6f 803c 075e 083d c1e9 b93c
00000090: 9c0f d13c be28 6f3c c833 b8bc db4c 8b3c
000000a0: f1b9 8c38 b9f3 193d fd2b a13b 203c 123c
000000b0: 6175 1d3d c17b 603b 5a90 76bd 78db 82bd
000000c0: 14e1 1c3d 7abb 593d 43ab 1fbc eb36 943c
000000d0: e127 273d ccea 883c fab4 503c 85ac e93c
000000e0: b3b2 92bc 563c f5bc de46 403d aff1 5ebd
000000f0: 6065 7f3d 5e3e 063d c1a7 60bc d597 623d
00000100: ce51 37bd 63d2 563b 3ca3 5ebd dc57 383d
00000110: e443 913d e516 e5bc b101 6f3a d47e 67bd
00000120: 4260 f13c 5dfb b6bc 9e44 203d 8e7a 903c
00000130: 044f 55bd 3211 bcbc 5fce 863c 2f1b 62bc
00000140: 6faf 0ebd fd4a 713c 33d7 853c c028 08bd
00000150: 60ee 213d 50a4 49bd 2ff4 0ebb ea64 483b
00000160: c17c a6bc d27c fc3c 1e61 213d 7a1e 0abc
00000170: c6cc 04bd d0cd 42bc 8959 edbc 0efe 15bd
00000180: ab6f 7f3c 4e93 eb3c 4f5e 213e 9249 ba3c
00000190: f57d aa3c 6a39 223c b93a 273d 1710 38bd
000001a0: aa8f cabc 842e 6c3d 9793 4bbd 59e9 fabc
000001b0: c028 86bc 18d0 fc3c 09a7 3c3d 0f9e 5bbd
000001c0: 57ff a0bc 0d63 28bb 2b07 553c 6bf3 083d
000001d0: b81b 0fbd 3efa fbbc 1d89 d3bc 7d0e 6cba
000001e0: 7ea9 8d3d 74c9 213d 7792 0a3d 3b04 203c
000001f0: ed46 fd3c a022 083d 3d83 7fbd 84f5 b53d
00000200: 1167 39bd 89b9 f6bc 1d62 583d 4f3b 62bd
00000210: 8673 913d 3a78 333d 3e80 35bd 5654 28bd
00000220: 4b15 803b 0bf2 243d f2e3 d83c f368 a6bb
00000230: dc32 863d a268 64bd 1dfb ddbc 823f 12bd
00000240: 377e 33bd 732d b4bc bb16 d23c 784b 083d
00000250: e0c0 45bc c2af ad3c 3172 443d 1642 ec3c
00000260: 193d 053c d7a2 8b3d 67cd c9bc 55c1 3cbc
00000270: 28f1 0d3d 04df efb9 08b6 80bc 019f 903b
00000280: 5462 493d 5919 4ebd 8230 293d 231b af3c
00000290: 6c8c 7bbd 048d 0b3d 0d3f a63c 8b37 873d
000002a0: b39d 95bc efa5 0d3d 1ce6 ea3c ab5d 04bd
000002b0: 9b2d 543d 30dc 363c 88dd 073d ae98 b7bc
000002c0: 1d93 933d 47a6 77bd ea04 80bc 379a 243d
000002d0: 8226 1abd 86b1 5cbd a314 78bd e265 b03d
000002e0: 3549 a03d e2a8 43bd d1d8 be3c a9bc 9ebc
000002f0: 06ba 34bc 6c6c dd3d 8073 0a3d f14a 66bd
00000300: 3ff5 3c3d a804 123d 1524 5cbc 1997 d2bc
00000310: 71fe 43bc d121 563d 430a 323c e92b be3c
00000320: 2003 973c 3e04 8e3d 3a3a 09bd 88cb 1fbd
00000330: d12e 92bd 0c49 42bc 2dbf 923d 8ed6 4abd
00000340: 32ab 52bd 4a3e 72b9 f89f a23d 7e3f cdbb
00000350: e07b 98bb 7b76 87bb 4cd9 8f3b ae79 e93c
00000360: c4ea cd3d a11a a8bc 9fde 4e3c 7e95 283c
00000370: 43e2 58bd 0c43 643d 6861 1f3c 035f 19bd
00000380: 79ca 4b3c 1627 fdbc 78b9 763d 2cb4 8e3c
00000390: 6bca 97bc eed7 9d3c 2980 2d3d 4c7f 21bd
000003a0: ca55 3bbc 3d90 173d 6f49 c4bc 56fd 103c
000003b0: beb4 573c 8827 ce3c 7b54 79bd fc7e 7bbd
000003c0: 4695 e8bc da7d 0cbd 2b48 30bd 92f5 7a3c
000003d0: a4fb 9cbc 8b19 143d 3bdf 7ebb fa13 18bd
000003e0: 95b8 9bbc 3ce6 ca3c f145 5f3d 611f 5dbd
000003f0: ed55 673b f3ec 6bbd 6097 7d3c 8044 733d
-0.026274312 -0.06401211 -0.01672841 0.037075996 0.01699815 -0.020475443 -0.028002243 0.021806309
0.02603862 -0.039831985 -0.0077573434 -0.05880134 -0.02386048 0.032631323 0.025200255 0.0248541
0.045355644 -0.07482761 0.077857755 0.05596342 -0.04620299 -0.074367076 -0.010377253 0.0035792235
-0.01627018 -0.0010698149 -0.05109118 -0.02299907 -0.012113558 -0.018178256 0.043208443 0.033881597
0.062712625 0.015678374 0.033292796 0.02269447 0.025520138 0.014597116 -0.022485629 0.017004421
6.7103545e-05 0.037585948 0.004918574 0.008925468 0.03844202 0.003425345 -0.060196258 -0.063895166
0.03830059 0.053157307 -0.009745422 0.018092593 0.040809516 0.016713522 0.012738461 0.028524647
-0.017907476 -0.029935997 0.046942584 -0.054429706 0.062352538 0.03277432 -0.013711871 0.05532058
-0.04475575 0.003277921 -0.05435489 0.045005664 0.07093027 -0.027965019 0.00091173785 -0.056517437
0.029464845 -0.022336656 0.03912794 0.017636564 -0.05207731 -0.022957418 0.016455827 -0.013800426
-0.034835275 0.014727351 0.016337967 -0.033241987 0.039533973 -0.049228966 -0.0021813025 0.0030577728
-0.02032316 0.030821238 0.03939926 -0.008430118 -0.03242185 -0.01188989 -0.028973358 -0.03661924
0.015590589 0.028756764 0.15758632 0.02274016 0.020812014 0.009901384 0.040827487 -0.04493722
-0.024726707 0.05766155 -0.0497013 -0.030628847 -0.016376853 0.030860946 0.046057735 -0.053617533
-0.019653006 -0.0025693804 0.013002197 0.033435266 -0.034938544 -0.030758973 -0.025822217 -0.00090048445
0.06917094 0.03949876 0.033831086 0.009766634 0.03091761 0.033236146 -0.062381018 0.08884719
-0.045264307 -0.030117767 0.052827943 -0.055232342 0.071021125 0.04381583 -0.044311754 -0.041096054
0.0039087883 0.040269893 0.02647588 -0.005078429 0.065526694 -0.055763848 -0.02709728 -0.035705097
-0.04382154 -0.021994328 0.025645604 0.033275098 -0.012069911 0.021201972 0.047960464 0.028840106
0.008132243 0.068181686 -0.024634076 -0.011520703 0.034653813 -0.00045751792 -0.0157118 0.004413486
0.04916604 -0.050317142 0.041306026 0.021375244 -0.061413214 0.03407003 0.020293737 0.06602391
-0.018263673 0.034582075 0.028674178 -0.03231589 0.051801305 0.011160895 0.033170253 -0.02241167
0.07205794 -0.06046131 -0.015627343 0.040186133 -0.03763438 -0.053880237 -0.060566556 0.086131826
0.07826463 -0.04776848 0.023296745 -0.01937707 -0.01103068 0.108116955 0.033801556 -0.056223813
0.046132322 0.03564897 -0.013436337 -0.025706815 -0.011962519 0.052278344 0.010866704 0.023214297
0.018434107 0.06934403 -0.033502795 -0.039012462 -0.07137836 -0.011858236 0.0716537 -0.04952102
-0.051432796 -0.00023102123 0.07940668 -0.0062636724 -0.004653439 -0.004133997 0.0043899175 0.028500404
0.100545436 -0.02052051 0.012626319 0.010289548 -0.052950155 0.055728003 0.009727813 -0.037444126
0.01243841 -0.030902427 0.06023547 0.017419897 -0.018529138 0.019268002 0.04235855 -0.03942804
-0.011434028 0.03700279 -0.023960797 0.0088494625 0.013165651 0.025165334 -0.060871582 -0.0614004
-0.028391492 -0.03429971 -0.043037575 0.015317338 -0.01916296 0.036157172 -0.003889038 -0.037128426
-0.019008914 0.024767987 0.05451006 -0.053985003 0.0035299018 -0.05759902 0.015477985 0.0593915

weight f4 [2, 256]
00000000: 86c3 00bd a5dd 623d a385 0cbc 6fbc 2a3d
00000010: 2eea 9fbc 99d8 503d 77bb 683d 241c e33c
00000020: a8c5 c2bb 2593 433d c3b3 1cbd 05b9 ea3c
00000030: 58d8 9cbc 7620 1f3d f0ca b2bc f3ec cbbb
00000040: 030a c4bc 3c10 1d3d 8ab9 65bd 6542 6dbd
00000050: 8de1 f03c 1a46 363c a6ae 26bc d32a 263b
00000060: b004 8cbc 6188 023d eee1 ecbb 7e73 a0bc
00000070: 9a77 57bc f9d4 8fbd a8c9 dfbc e0b0 fdbb
00000080: 8d37 a4bd b930 8dbd d8eb 113b 4e06 463d
00000090: a86d 233d 01d6 5e3d 3008 5cbd 623f 1b3d
000000a0: c930 28bd bc1a 20bb 01ed caba 1fe8 e93c
000000b0: a1db a6bd abc2 9abd fec3 3a3c 851b e63c
000000c0: 13ba 6b3d d211 43bd 8e00 033c 75a8 cebb
000000d0: f5ef 80bd 35ad 32bc c469 9e3c c56f acbc
000000e0: b0da bdbc ebec 9c3c 2755 65bd 7d3d a03c
000000f0: 5f9c 24bd 9f43 5c3d 673e 14bd 5b66 2cbd
00000100: 358e 093c c299 203d 3132 e23c 581b 023d
00000110: 1b1d c2bc 15e7 5ebd c00f 703c 7d20 a83c
00000120: b57e fd3b 3949 8bbc ba3e a0bb c539 853b
00000130: ff46 d1bc b58b f33c 4ead 48bd f1ab 5d3d
00000140: a1cc 133c f7cc 6bbd 3327 9f3c 5bf5 903c
00000150: 70dd 9e3c 654f ec3c dd80 4d3d b34f 0bbc
00000160: 99c8 35bd c14a debc 524d 81bd 5189 45bd
00000170: 2d6a f3bc 65e6 01bd 8396 4e3d c8d0 513d
00000180: 4f3b 4abd be68 163c aeab 13be bdf2 fabc
00000190: 1b56 03bd a83a c43b 5a75 21bd 8aa0 853d
000001a0: f716 623d af8c 2cbc 6378 38bb 7b66 e83a
000001b0: 9428 413d b5ae a3bd 559f 5fbd d6b4 69bd
000001c0: 6f18 abbd 9da0 003d ef61 7fbc a762 32bd
000001d0: 8130 323c e25f e6bc ebb3 5c3d 704a 4c3d
000001e0: 38bf 1abd a0a3 52bd f72d c43b 9433 4fbd
000001f0: 50d0 33bd d611 663d f03e 69bd 5105 60bd
00000200: 8486 1bbd 286c 88bd 85ec 3abd bad2 563d
00000210: 5acf 8bbc bf24 4b3d d974 20bc 3889 b53c
00000220: d894 83bd 516d 233c fcc4 243d 4786 043d
00000230: 2964 05bd 6297 51bd 9da3 013d a658 eebc
00000240: 1ea1 bcbc ebe3 593d 327c 9a3c 725a 6abd
00000250: f833 533c 476b 6d3d 27be aabd d359 073c
00000260: 1482 ed3b 60cb 5bbd aa45 063d fe95 ffbc
00000270: 2988 25bd 20d0 cabc 3d03 51bc b6d6 20bc
00000280: c4ec e7ba db38 3dbd c3dc ccbc 3879 7cbd
00000290: c2c0 bd3c a2b8 b5bd f4da 4cbd ba30 56bd
000002a0: 74b6 8dbc 7cab 743c d7ac d13c 598e 1e3d
000002b0: ccc4 4d3d 2e92 12bb 5aeb 74bc a78e 223d
000002c0: 6835 81bd ea5d 2d3d e42f 393c e13a 54bd
000002d0: 00f9 043d 5f5c 223d da23 97bc e8e6 bfbd
000002e0: ba4b 3dbd db07 343d 404f bb3c dcf3 7c3c
000002f0: 3800 8a3d 1c12 1bbd 3383 f33c 1bc9 e83c
00000300: 1372 bbbc 11aa 083c c92d 79bd 57fd ca3b
00000310: 0207 123d bed3 0dbc f534 2e3d 5933 c73b
00000320: d433 0ebd db4b 44bd baa1 50bd edc3 3b3d
00000330: a7c7 353d baf3 223d f7d1 abbc 465f 6b3c
00000340: 867d a23b 7c7c d7bb 8c82 21bd f163 a93c
00000350: beb0 203d ce48 76bd 96b1 0bbd 1f05 47bd
00000360: 14c8 7dbd 6419 2b3d cc75 97bd 095d 27bd
00000370: c29c ef3b 845b b2bc 5734 52bb c202 0abd
00000380: 8a2e cfbd 7143 093d 85e3 9cbd 2259 dbbc
00000390: ba9c 513d 66d3 163d 7403 8b3c dd63 163c
000003a0: ce87 32bd 16e7 0ebd 35d3 4e3d 6159 b03c
000003b0: 7eeb 76bd 4146 a7bd 0376 2a3d cd58 b33a
000003c0: 4373 463d ca43 863c cc43 a5bc a2a3 2cbd
000003d0: 0d74 733b 211e b63b 76c1 fe3c f3a7 aa3c
000003e0: 862f 0bbc 49eb 4a3d 94d1 49bc b8a4 a63b
000003f0: 369a b1bb c735 0dbd b079 0ebd a5cf 28bd
-0.031436466 0.055387158 -0.008576783 0.04168361 -0.019520845 0.050987814 0.056819405 0.02772338
-0.0059439726 0.04774775 -0.03825737 0.028652677 -0.01914613 0.038849317 -0.021825284 -0.006223315
-0.023930555 0.03834556 -0.056085147 -0.057924647 0.029404426 0.011125112 -0.010173475 0.0025355115
-0.017092079 0.031868342 -0.0072290814 -0.019586321 -0.013151074 -0.07023043 -0.027317837 -0.0077420324
-0.08018408 -0.06894059 0.0022265818 0.048345856 0.0398995 0.05440331 -0.053718746 0.037902243
-0.04106215 -0.0024429997 -0.001548201 0.028553067 -0.0814736 -0.07556661 0.011399267 0.028089294
0.0575505 -0.047624417 0.007995738 -0.0063067027 -0.06295768 -0.010905554 0.019337542 -0.02104939
-0.023175567 0.01915594 -0.05598941 0.01956057 -0.04018819 0.053775426 -0.036192324 -0.0420898
0.008395721 0.039209135 0.027611824 0.03176436 -0.02369552 -0.054419596 0.014652193 0.020523304
0.007736052 -0.017002689 -0.00489029 0.0040657246 -0.025546549 0.029729703 -0.0489934 0.054119054
0.009020955 -0.057568517 0.019427871 0.01769512 0.019392699 0.028846452 0.05017172 -0.0085028885
-0.044380758 -0.027135255 -0.06313576 -0.04822666 -0.029713714 -0.031713862 0.050436508 0.0512245
-0.049372967 0.009180246 -0.1442096 -0.030633325 -0.03206454 0.0059884377 -0.039418556 0.06524761
0.055197682 -0.010531588 -0.0028147928 0.0017730737 0.04715784 -0.07992307 -0.05459531 -0.057057224
-0.0835427 0.031403173 -0.015587314 -0.043551113 0.010875822 -0.028121892 0.05388252 0.049875677
-0.037780017 -0.051425576 0.0059869247 -0.050586298 -0.043899834 0.056169353 -0.056944788 -0.05469257
-0.03797008 -0.06661254 -0.04563572 0.05244706 -0.017066646 0.04959559 -0.009793484 0.022160158
-0.06424874 0.0099747935 0.04022692 0.03235462 -0.032566223 -0.05116976 0.031650174 -0.029095005
-0.023026045 0.053195875 0.018858049 -0.05721516 0.012890808 0.057963636 -0.0833705 0.008261162
0.0072481725 -0.05366075 0.03278128 -0.031199452 -0.040413056 -0.024757445 -0.01275712 -0.009816816
-0.0017694463 -0.0461968 -0.025007611 -0.06163904 0.023163203 -0.088731065 -0.050013497 -0.052292563
-0.017298914 0.014933463 0.025595112 0.038709972 0.05023651 -0.0022364962 -0.01494869 0.039686825
-0.063090146 0.04232589 0.011302922 -0.051813964 0.032464027 0.039638873 -0.018449713 -0.09370214
-0.046214797 0.043952804 0.022864938 0.015439 0.06738323 -0.037859067 0.029725647 0.028416207
-0.022881543 0.008341328 -0.06083468 0.0061947512 0.035651214 -0.00865644 0.042530973 0.006079119
-0.034717396 -0.047923904 -0.050935484 0.045841146 0.044379856 0.039783217 -0.020974142 0.014365977
0.004958811 -0.006576119 -0.03943114 0.020677539 0.039231054 -0.060128026 -0.034104906 -0.04858887
-0.061958387 0.04177226 -0.07395515 -0.04086021 0.007312388 -0.021772154 -0.0032074654 -0.033694036
-0.101162985 0.033511583 -0.076605834 -0.0267759 0.051174857 0.0368227 0.01696942 0.009179083
-0.043586545 -0.03488835 0.05049439 0.021526994 -0.060283177 -0.08167697 0.04161645 0.0013683081
0.048449766 0.016389746 -0.02017393 -0.04214824 0.003714803 0.005557791 0.031098109 0.020832038
-0.008495217 0.04954079 -0.012318034 0.005085554 -0.0054199947 -0.034475114 -0.03478402 -0.04121365

bias f4 [2]
00000000: e297 c3bb c8f1 84bd
-0.0059690336 -0.064914286
