models/dqn2_q_network.pth (torch, 80078 bytes, 6 tensors)

weight f4 [128, 10]
00000000: 355f 433b 8e12 67be 88fc 43be a79b a13d
00000010: 73b5 48be e23c 6bbe fa27 cd3c 00d3 893e
00000020: 964e 94bb 41c2 14be d1d0 88bd 7153 913e
00000030: 7278 04bd 4aa5 163e 106e 9a3d e285 963e
00000040: 99b4 d0bd a702 2c3e 6cb1 8cbe 5413 80be
00000050: b4c2 3bbe ec15 013e 216b babb 676d e8bc
00000060: 7311 a73d dcc9 38be 026b 493c 21fd 713e
00000070: 8240 8f3c 63eb 443e 61d5 1abd f729 6ebd
00000080: b643 7b3e 98f2 85bd eb79 a43b fb60 923d
00000090: 4155 9c3e 278d 1dbe dddb 393e 7da7 593e
000000a0: 3485 ce3d 4a14 8b3d 49a1 20be 2d25 eebd
000000b0: d04e e43d d779 b03d ec51 8fbe 4e76 863e
000000c0: 8eaa 803e c09b 4abe 40d9 3dbe 5799 883d
000000d0: 1103 c03c e22c 97be 1d32 81be eb8d 47bd
000000e0: adee 7ebe 341b 52be 05e3 ce3d af02 3a3e
000000f0: 0ffa a03d 790e 263e 44b4 83be 6317 163e
00000100: 8b23 a3be 398c 673d 96b2 343e f072 8cbd
00000110: 4ad0 0bbe 00c9 563e b380 dcbd c163 553e
00000120: cf70 8ebe 64da 8a3e 24cd a8bd 6dbf 94bd
00000130: 65f2 4a3e f465 d6bd e99f 22bc dbba a4bd
00000140: 209e 813e cb86 febd 5911 e0bd de62 4c3e
00000150: 27a5 b4bb e3c6 dbbd 25bb 9ebd 7ae8 913e
00000160: 1b8c dc3c 3523 24be 133b 0abe 35e0 01be
00000170: 840a f1bd 9fc0 83be b717 f1bc 34f5 acbe
00000180: 19dd 98bd 3968 3dbe 53ee 8b3e 4c82 c53d
00000190: 7b2f d5bd 9d8d 82be 1c23 98bd f433 a83e
000001a0: b2e4 7f3e afe0 eb3d 6b85 afbd a5dd 03be
000001b0: dc67 543e 79db 8fbe c85a 0d3e 84bf 29be
000001c0: 0127 00bd 9304 5f3e 2117 10bd ad52 26be
000001d0: 7678 91be fbc1 5b3e 7d8d 973b 8016 033e
000001e0: f336 303e 9bad ec3c b741 363e def1 89bc
000001f0: 47ab 493d 8427 abbe 4acf 32bd 7a4c 85be
00000200: 5bb6 f93d 8358 6c3e 60c4 babc cef9 9c3d
00000210: bb0e 8cbe e399 41be 7be3 47ba 3381 4fbe
00000220: 38fe 1cbe 7c4a 343e 3221 9cbe 7a17 81be
00000230: 7439 86bd 4a54 4d3e 4999 3b3c 5a1c 13be
00000240: 18a7 c4bd a0d4 cfbd 7832 043e a8a4 87bd
00000250: 1823 79be a58e 83be e084 093e bbc2 43be
00000260: 79df 8abe 7b4d 8dbd 0f42 2a3d 7275 1dbd
00000270: 22dc aabd 5b33 dc3c 9b86 603e 85f7 b13d
00000280: eda4 44be 43e2 2fbc 0eed 29bd 1cd2 84be
00000290: 875a 4c3e 9164 af3d c2b8 b7bd dc7a bbbd
000002a0: f85d e2bd 02e3 4b3e 40b7 a2be 8544 54be
000002b0: 7c95 9dbe e15c 843e 73ed 08bc 3f00 663e
000002c0: 9d4d 8bbd 4042 34be 5078 87be 65d9 bc3d
000002d0: 9dc6 8b3e 29a7 063e af28 90be 60ef 96bd
000002e0: f0cc 853e e154 1f3e c6bc 4fbe a508 953d
000002f0: 8f74 b4be 5d55 95be 29cd 893e b25a 8cbe
00000300: c43c 313e 7fbd 4ebe ee9f 963e 655e 83bc
00000310: 12f2 99be 9c51 f93d d49d 9abe daf7 983e
00000320: 2524 37be acae 90be db51 8c3e 71d2 9c3c
00000330: 1241 f8bd d48d bcbd fc5a 523e b0d8 b7bd
00000340: f2f3 683d 801a a6bd 4c8a 68be 3906 7d3e
00000350: 97af 563e 316a 5dbe bf84 983d 949f 653e
00000360: 318c 2f3d a25a 1fbe 33df 05bd 00b9 52bd
00000370: 6c24 78be 8c5d 89bd 36f3 87be 9097 d43d
00000380: d2b9 373e d3d6 3cbe 63f6 de3d 3b5f 033e
00000390: 474b fc3c 736c 81be 6840 9dbd 64f7 39be
000003a0: 5818 86bd f42e 28bd f3df 2bbe 0456 983e
000003b0: 59fa 393e d196 98be ef98 383e 5911 1bbe
000003c0: ec4f 283e 60ec 6abe 6096 5cbb 4510 15be
000003d0: c966 09be f5d3 f7bd ff24 2abe a557 343e
000003e0: 79c4 60be f612 1f3e a422 dc3d 70dd 3f3e
000003f0: a5b2 33be 4030 783e 4f51 0fbe 2111 7c3e
0.0029811386 -0.22565672 -0.19139302 0.078910165 -0.19600467 -0.22972444 0.025043476 0.26918793
-0.0045259697 -0.14527227 -0.066804536 0.28383973 -0.032341428 0.1471149 0.07540524 0.2939902
-0.10190696 0.16797887 -0.27479112 -0.25014746 -0.18335992 0.12606019 -0.0056890403 -0.02837248
0.08157625 -0.18045753 0.012293579 0.23631717 0.017486814 0.19230418 -0.03780115 -0.05814549
0.24537548 -0.06540412 0.0050194166 0.07147404 0.30533794 -0.15385877 0.18150277 0.21255298
0.10084 0.06790979 -0.15686525 -0.116281845 0.11147845 0.08616989 -0.2799219 0.26262134
0.25130123 -0.19785976 -0.18539906 0.06669872 0.023438962 -0.2952643 -0.25233546 -0.048719328
-0.24895735 -0.2051819 0.10101894 0.18165086 0.07860195 0.16216458 -0.2572347 0.14657359
-0.31863055 0.05653021 0.1764625 -0.0685786 -0.13653675 0.20975113 -0.10766735 0.20838834
-0.2782044 0.27119744 -0.082422525 -0.07263074 0.19819029 -0.10468665 -0.009925821 -0.08043452
0.25315952 -0.124280535 -0.10940809 0.1995959 -0.0055128518 -0.10731294 -0.07750539 0.28497678
0.026922276 -0.16029055 -0.13499098 -0.12683184 -0.11769584 -0.25732896 -0.029430253 -0.33780825
-0.07464046 -0.18496789 0.27330264 0.09643993 -0.10409447 -0.25498667 -0.074285716 0.32852137
0.24989584 0.11517464 -0.08570369 -0.1287752 0.20742744 -0.28097132 0.13804162 -0.16576964
-0.031287197 0.21779089 -0.035178307 -0.16242476 -0.28412217 0.21460716 0.004625021 0.12801552
0.17208461 0.028891375 0.17798506 -0.016838964 0.04923561 -0.33428586 -0.043654718 -0.2603491
0.12192985 0.2308064 -0.022798717 0.07664834 -0.27354988 -0.1890636 -0.0007625145 -0.2026413
-0.15331352 0.17606539 -0.30494076 -0.25213224 -0.06553927 0.20051685 0.01145012 -0.14366284
-0.09602183 -0.10147977 0.12909877 -0.066232026 -0.24329793 -0.25694767 0.13429594 -0.19117253
-0.2712362 -0.06899544 0.041566905 -0.038442083 -0.08342768 0.026879957 0.21926348 0.08689789
-0.19203539 -0.010735097 -0.04148584 -0.2594155 0.19956408 0.085641034 -0.08970787 -0.09154293
-0.11053079 0.19910815 -0.31780434 -0.20729263 -0.3077811 0.2585211 -0.008357394 0.22461031
-0.06801913 -0.17603397 -0.2645898 0.09221152 0.27299967 0.13149704 -0.2815604 -0.07369876
0.26132917 0.15559722 -0.20286855 0.072770394 -0.35245177 -0.2916669 0.26914337 -0.27412945
0.17308336 -0.20189475 0.29418892 -0.016036222 -0.30067497 0.12173769 -0.30198538 0.29876596
-0.17884882 -0.28258264 0.274062 0.019143315 -0.12121786 -0.09206739 0.2054252 -0.08976877
0.05687327 -0.08110523 -0.22709006 0.24709405 0.2096542 -0.2162254 0.07447194 0.22424155
0.042858306 -0.15561917 -0.032683562 -0.05144596 -0.24232644 -0.06707296 -0.26552743 0.10380471
0.17941979 -0.18441324 0.10886838 0.12829296 0.030797614 -0.25278053 -0.076783 -0.18160778
-0.06547612 -0.041060403 -0.16784649 0.29753125 0.18161906 -0.29802564 0.1802709 -0.15143336
0.16436738 -0.22941732 -0.0033658966 -0.14556988 -0.13418116 -0.121009745 -0.16615675 0.17611559
-0.21949948 0.15534577 0.10748795 0.18736815 -0.17548616 0.24237156 -0.1399586 0.24615909

bias f4 [128]
00000000: 6203 593e 0133 36be 7700 7cbe 18d7 e73d
00000010: 2c03 753d 3ca6 363e 36b5 d93b d8ac c5bd
00000020: 53bb 693e 9e46 b4bc 171e 503e e0aa dabc
00000030: 2f9a 5cbe 6541 4c3c 51be 45be 0826 273e
00000040: 0309 68bd 2951 afbc 34a5 aebe 2bdc 8e3e
00000050: c62b 563e 927b d4bd 1938 acbe 20c5 29bd
00000060: aeff 073e 6c12 b9bd 9442 763e 9908 e33d
00000070: cabd 1f3e c847 3f3e c399 85be a3eb 743e
00000080: 8882 e2bc fc50 95bd 9d02 d0bd e5cb 8dbb
00000090: c705 5bbe 04b5 eebd b221 75be 882e 3d3d
000000a0: 93f3 44be a3f0 94be 41c8 8f3e 4d66 57bd
000000b0: f952 17be fc14 9fbe f33d 8d3e 9f57 a7be
000000c0: e638 903d 7477 483e e6e6 9fbe f27b 143e
000000d0: b75a 883e b249 88bd bc36 8a3d 2f23 ddbd
000000e0: cc12 703e 36b7 953e 6730 cfbd 3a27 a73e
000000f0: 03bc b33d f4b8 69be 9dc1 0ebe b81d 5a3e
00000100: b7a7 96be 4349 0bbe 0463 833e 6360 13be
00000110: fc0e bebd 7c47 933e bbe0 953e d12a 20be
00000120: 9171 9d3e 1984 953e 19e3 da3c 4102 033e
00000130: 9e12 2ebd aaff fd3c add4 54bd 6e8b 66be
00000140: 5e30 4c3e c7d8 893e 7c06 1b3d e991 0d3e
00000150: cdff 2b3e 6126 a6be dfdc 523e 48fc 5e3e
00000160: 4269 79be 5adc e53d b1c0 a1be 5839 6e3e
00000170: 1519 a6bd d19f 573e f1a0 e33d c226 863e
00000180: 6eb0 3b3e 0053 b93e 2c31 b9bd dfbd 54bd
00000190: 5a95 75bc a15c 94be 01c1 b9bc 1159 fcbd
000001a0: 12b1 10be fb10 b03e c0b9 03be a9e7 aebd
000001b0: 232a 5c3e 0ec3 0ebe 9533 50be cbb2 603e
000001c0: 35a6 93be 7b36 73bd 7964 3abe 19e5 2cbe
000001d0: 63f7 693d 0c43 f5bc dfbe 80be b478 32be
000001e0: f382 49bc 11ea 413e 41a6 95bd 10d8 a23d
000001f0: 6fd4 483e 83fa b0bb ccad 9e3e 2a27 c9bd
0.21192697 -0.17792894 -0.24609552 0.11320323 0.059817478 0.17836851 0.0066439165 -0.09652108
0.22825365 -0.02200633 0.20323978 -0.026692808 -0.21543191 0.012466763 -0.19310881 0.16323102
-0.05664922 -0.021401005 -0.34110415 0.2790235 0.20915136 -0.10375132 -0.3363655 -0.04144776
0.13281128 -0.09036717 0.24048835 0.11085624 0.15599743 0.18679726 -0.26093873 0.23918013
-0.027650133 -0.07290837 -0.101567484 -0.0043272846 -0.21388923 -0.1165562 -0.23938635 0.046186954
-0.19233541 -0.2908984 0.2808247 -0.052587796 -0.14777745 -0.31070697 0.27586326 -0.32684037
0.070421025 0.19576818 -0.3123085 0.14500406 0.2663171 -0.06654681 0.06748721 -0.10797726
0.2344467 0.2924134 -0.10116654 0.32647115 0.08776095 -0.2282446 -0.13941045 0.213004
-0.2942483 -0.13602166 0.2566148 -0.14392237 -0.09280202 0.28765476 0.29273018 -0.15641333
0.30750707 0.29202345 0.026719617 0.12793829 -0.042498223 0.0310057 -0.051960636 -0.22514126
0.19940326 0.269232 0.03784798 0.13825192 0.16796799 -0.32451156 0.20592068 0.21775925
-0.24356559 0.11223669 -0.31592324 0.23264062 -0.08110253 0.21057059 0.111146815 0.26201445
0.18329021 0.36196136 -0.09042582 -0.051938888 -0.0149892215 -0.2897692 -0.02267504 -0.123216756
-0.14130047 0.34387955 -0.12863827 -0.085402794 0.21500449 -0.13941595 -0.20332177 0.21943204
-0.28837743 -0.05937813 -0.1820239 -0.16884269 0.057120692 -0.029939197 -0.25145623 -0.17428857
-0.012299287 0.18936945 -0.07307101 0.07951367 0.19612287 -0.005400957 0.30991971 -0.09821923

weight f4 [128, 128]
00000000: 9b7c 8c3d 3671 c5bd d203 ccbc 15a7 61bd
00000010: 334d 323d 9903 dd3c 29d3 07bd 87bd a7bd
00000020: 320e 88bd 9b4a 8fbc 7105 743c 0649 b8bc
00000030: 6a0a 00bd 4574 82bd f7bc b8bd f132 2ebd
00000040: f397 24bd 8318 a33c 1e07 093c 4404 ca3c
00000050: 2592 e53c 5294 b7bc 5ae0 5d3c 3b09 b73d
00000060: fb45 b8bd 0b9b b4bc 76ac 4fba 9cd3 fcbc
00000070: 36f7 84bc dcfc 513d a146 0b3c d686 f9bc
00000080: 6ca9 19bc 65b0 0d3c 656e 5f3d 36c9 873d
00000090: bdf4 01bd 8601 6cbd 0364 a23d 1f6a 663b
000000a0: 3fe0 633d a27a f33c 3405 95bd d02b ebbd
000000b0: 7b6a 503b a6d2 1bbd c59a d23d f99f 3cbc
000000c0: f5d0 b7bc f2ab 503d 524d 96bd a5a5 923d
000000d0: 31ed ce3b 68c0 d9bc 96af 0f3d dd92 a23c
000000e0: 9461 d8bc fda8 973c ff85 9d3d 6086 83bd
000000f0: 20ab 9b3d 13f1 233d af1b cb3c 4caf 843d
00000100: bf1e a43c f5ad 38bd 0222 55bd 5f0f 6cbd
00000110: 44a2 2fbc 88ca 703b 0264 53bc ff87 75bd
00000120: 0c52 8e3d b28c 97bd e1f8 8abd ba42 913d
00000130: 1992 48bd 9228 ab3c 4ec4 943d 8aae 95bd
00000140: ab1d a13d 7511 883d c353 6cbc f84d 733d
00000150: c615 13bc 3661 a1bc d5ff 80bd f559 80bd
00000160: 0395 063d e510 d2bc b77b 223d aa77 74bd
00000170: ad37 b53b a9a1 923d d8b3 b93c 88c1 393c
00000180: b44f f8bc 0362 a73d 5328 23bd 3614 13bd
00000190: 56fb aa3c 284d c1bb 4335 783d caac da3c
000001a0: 446d f0bc 5518 373b d872 4f3d 0aa4 0f3d
000001b0: d25e 36bc ddc9 b1bd dc80 903d 925d 85bd
000001c0: 40ec 903b 9537 c93b 2915 823d 75c4 7abd
000001d0: dc60 01bd ee3c 183d 8b92 88bd c6be a3bd
000001e0: eaff 70bc d7de cbbc 9180 7fbd 5b01 b43d
000001f0: d6c7 b2bb 4f01 27bd c24c 643d 44f9 bb3d
00000200: 6ca9 54bc 5784 683d a8cf 3fbd 5b7e 503d
00000210: d14f 95bd 9aea 34bc f9c9 1abd 1127 e0bc
00000220: 56f5 09bd 0cad 9d3d 3aec 04bd 8095 82bd
00000230: a2f8 17bd 6f8d 1cbd e153 91bd 1c7a 67bd
00000240: ef7c 80bd ae10 983d 2dc1 a3bc 8fd7 0ebd
00000250: 35b6 6cbd ad02 2e3d 97a6 3f3c 086a 7b3d
00000260: 00f2 883c 27f9 ca3c 5548 873d 9b1d 94bd
00000270: eb7b 3ebd 8f27 363d 7da3 e2bb e749 34bc
00000280: 9622 8bbc ea02 1a3d 029e 9abd 4806 d93c
00000290: 3df7 58bd 1d4d 85bc 09a3 9e3d abe9 c03c
000002a0: 485e 6d3c eb7e 7bbb 2a39 a23c dd41 06bd
000002b0: a5e9 223d 77f4 823c 72ea 4c3c d448 1cbc
000002c0: 2aee 043d 9497 403d 2c4b 583d 3299 0b3c
000002d0: 5605 f6bb ceda 5c3d 4d1b 2c3d 3d9f babd
000002e0: 93a0 6c3d 5111 95bc addf 71bd b6bc d7bc
000002f0: 4b18 9cbd f02a f6bc 7d59 e9bc 2aef 5e3c
00000300: ed84 81bd b700 ba3d e58b 173c 87d2 aaba
00000310: 7c71 503d c21d 4a3d 2b49 9a3d c554 b8bc
00000320: 3d7f 133d 2ddc 8abd d236 9d3d c49d 843d
00000330: f61d 1cbd 76f7 1fbd 8cfa 8bbc e975 09bc
00000340: 02c0 a83c 8be3 bfbd e7f6 403b 77e6 a9bd
00000350: 15b4 2cbd 62e5 04bd 6930 2f3d 8d51 c83c
00000360: d569 fcbb 5f2f 843c 055e 43bd 1285 883d
00000370: 2624 3ebd de60 57bd 7827 b63d 4c9b 803d
00000380: 82c3 04ba e716 893d 5ae0 b33c 4cf0 433d
00000390: a032 79bd ec42 8d3d 87fc 5f3d 3883 ab3d
000003a0: 6738 a5bd a819 793d 1719 af3d 8882 a8bd
000003b0: 1414 89bd d61f 81bc 1416 80bd a9f4 9fbd
000003c0: 2f83 f7bc 3dea 8bbd e1f5 bfbc b4d5 3fbd
000003d0: 278c 6fbd 603d a4bd a640 b33d eed0 af3d
000003e0: c3f6 913d 06dc 773c f750 88bd 33d3 21bd
000003f0: a060 013d bd18 6abd ada2 4e3d 7683 8bbd
0.06859704 -0.09640734 -0.024904165 -0.055090982 0.043530654 0.026979255 -0.033160362 -0.08190446
-0.066433325 -0.01749163 0.014893875 -0.022495758 -0.03125993 -0.06369833 -0.09020417 -0.04252905
-0.040183973 0.019909149 0.008363513 0.024660237 0.028023789 -0.022409592 0.013542259 0.089373074
-0.08997723 -0.022046586 -0.0007922122 -0.030862622 -0.01623116 0.051266536 0.008500726 -0.030459803
-0.009378772 0.008648013 0.05454864 0.06630175 -0.03172754 -0.05761864 0.07929232 0.0035158468
0.05563378 0.029721562 -0.07276383 -0.11482966 0.0031801749 -0.038042687 0.10283426 -0.01151275
-0.022438506 0.05094523 -0.073389664 0.071605004 0.0063148965 -0.026581004 0.03507956 0.01984542
-0.026413716 0.018513197 0.07691573 -0.06422114 0.07600999 0.04002483 0.024793474 0.06478748
0.020034192 -0.045087773 -0.052034386 -0.057631847 -0.0107198395 0.0036741812 -0.012902262 -0.05994415
0.06949243 -0.073998824 -0.06785751 0.07092805 -0.048967455 0.020893369 0.07264005 -0.07308681
0.07866987 0.06643955 -0.014424267 0.05940053 -0.008977359 -0.019699674 -0.06298796 -0.06267158
0.032856952 -0.025642822 0.039668765 -0.059684433 0.0055303187 0.071597405 0.022668764 0.011337645
-0.030311443 0.08172991 -0.039833378 -0.035907947 0.0208718 -0.0058990903 0.06059767 0.02669372
-0.029348977 0.0027938087 0.050646633 0.03506855 -0.011131005 -0.086810805 0.07055828 -0.06511988
0.0044226944 0.006140659 0.06351692 -0.061222512 -0.031586513 0.037167482 -0.06668576 -0.079953715
-0.014709452 -0.024886532 -0.06237847 0.08789321 -0.005455951 -0.040772732 0.055737264 0.09178403
-0.012979846 0.056766834 -0.046828896 0.050901752 -0.072906144 -0.0110422615 -0.037790272 -0.027362378
-0.033681236 0.07699022 -0.032451846 -0.06376171 -0.03710235 -0.03822082 -0.07096077 -0.056512937
-0.06273829 0.074250564 -0.019989574 -0.03487354 -0.057790954 0.04248302 0.011697433 0.061380416
0.016716957 0.024777008 0.06605593 -0.07232209 -0.046504896 0.04447132 -0.006916462 -0.011003948
-0.016984265 0.037600435 -0.07549669 0.026492253 -0.05297016 -0.016272122 0.0774594 0.023548922
0.01448781 -0.003837521 0.019802649 -0.032777656 0.039773602 0.01598571 0.012507068 -0.009538848
0.032453693 0.047019556 0.052806064 0.008520411 -0.0075079603 0.053919606 0.042018224 -0.091124035
0.057770323 -0.018196734 -0.059051204 -0.026335102 -0.07621821 -0.030049771 -0.028485054 0.013606826
-0.06324182 0.090821676 0.009249662 -0.0013032713 0.050889477 0.049344786 0.07533487 -0.022501359
0.036010016 -0.067802764 0.07676472 0.06475404 -0.03811451 -0.039054357 -0.017087243 -0.008389928
0.020599369 -0.09369572 0.002944404 -0.08295911 -0.042163927 -0.03244532 0.042770777 0.024452949
-0.007703046 0.01613587 -0.047697086 0.06666006 -0.046421193 -0.052582614 0.08894247 0.062796205
-0.00050645333 0.066938214 0.021957565 0.047836587 -0.060839295 0.0689753 0.05468419 0.08374637
-0.080673985 0.060815483 0.085497074 -0.08228022 -0.06693283 -0.01576225 -0.06254211 -0.07810337
-0.03021392 -0.06831787 -0.023432674 -0.046834663 -0.05848327 -0.08019519 0.08752565 0.08584772
0.07127144 0.015128141 -0.06656068 -0.039508056 0.03158629 -0.0571525 0.05044811 -0.068121836

bias f4 [128]
00000000: 4ee2 03bd e482 5ebd 26bd 00bc a4f4 25bd
00000010: bb5c 7d3b 83a2 aebd b6c6 be3b 79e5 21bd
00000020: dc84 cdbc 7c4f 43bb 809f df3c de98 63bb
00000030: d250 2bbd c870 d93b cd80 4dbd 671a fbbb
00000040: 54a1 53bd 125b ca3c 5bd3 8abd 8edc 493d
00000050: 40b4 6ebd ce83 a4bd 182a 543c be66 003d
00000060: ffe3 753d 2b42 fe3c ace8 19bd c015 94bd
00000070: 0b62 333c 9fbd fc3c faf7 60bd 0cfb 1dbd
00000080: 2ac0 633c e35d fbbc 22ba fe3c 0062 b33b
00000090: 5b99 f8bc 9a43 2d3d 22fc 34bd 8876 4bbd
000000a0: 35da b93a 12dd 44bd becf 8e3d 2fb1 2f3c
000000b0: 5325 c33d 99e1 4e3d 1a82 09bd 328b b0bd
000000c0: 1f46 8a3d 1d89 70bd 2a8e 033d 3fe6 09bc
000000d0: a3fb 223d d905 b1bd 0d2e 95bd 554b 5dbc
000000e0: ada6 7cbd 9819 2a3d 060d 9e3c e622 15bc
000000f0: 7c19 4dbd f729 443d d846 25bd 4b68 29bd
00000100: ed0c cb3c 90ae ebbc ba61 463d 3d05 75bd
00000110: 0913 47bc b6d3 6bbd 949b 9abd 1339 86bc
00000120: 992c a4bd 0f39 c6bd 3ce5 fbbc 93f5 9dbd
00000130: a17a 3f3d 1afd abbd 055f 56bb d7fe f83c
00000140: d916 bfbb 4284 dabb 7416 ba3c 3f22 2fbc
00000150: c9aa 32bd 5812 ad3c c2df 003d 5e3a 6f3d
00000160: 35ba 3f3d 6f9e dabd f45e 87bd f01c 62bb
00000170: fe0e 22bd 202b 99bd dbd6 76bd e3c9 9cbd
00000180: 92b1 773b c780 893d c9d5 4b3d ae4c 823d
00000190: b56e d5bc 0921 853d 5516 3abd 8615 a63c
000001a0: 0306 513c 18ff b3bc 0a6b d1bc 8828 903d
000001b0: bad4 bfbd a3ae 9dbd 54ec 9ebd e43e 013c
000001c0: 3e38 eabc c4d3 e0bd bff4 1cbd 5fe8 6f3d
000001d0: 3700 1b3e 90ff 933d 941b 26bd fb30 c0bc
000001e0: 5936 a13d 4cc9 28bb c0bb 1b3d ce54 4b3d
000001f0: 833f 51bb 1a43 87bd aee5 683d 8262 763d
-0.032198243 -0.054324046 -0.0078575965 -0.04051651 0.0038660008 -0.085270904 0.005822028 -0.039525483
-0.025087766 -0.0029802015 0.027297735 -0.0034728567 -0.041825123 0.006635759 -0.050171662 -0.0076630595
-0.051667526 0.024701629 -0.06778594 0.049282603 -0.05827737 -0.08032952 0.012949489 0.031347983
0.060031887 0.03103741 -0.03757541 -0.07230711 0.010948668 0.030852137 -0.05492399 -0.038569495
0.013900796 -0.030684417 0.031094614 0.005474329 -0.030346563 0.042300798 -0.044185765 -0.049673587
0.0014179411 -0.04806239 0.069732174 0.010723396 0.095286034 0.050508115 -0.03357134 -0.086202994
0.06751656 -0.05872451 0.032118 -0.008416711 0.03979076 -0.086436935 -0.07284174 -0.01350673
-0.061682392 0.041528314 0.01929332 -0.009102559 -0.050073132 0.047891583 -0.040350765 -0.041359227
0.024786437 -0.028769761 0.048433043 -0.05981945 -0.012150534 -0.05757495 -0.075492054 -0.016384637
-0.08016319 -0.09678852 -0.030748956 -0.07712855 0.046747807 -0.08397885 -0.0032710445 0.030394955
-0.005831581 -0.0066685984 0.022715785 -0.010689317 -0.043619905 0.021126911 0.031463392 0.058405273
0.04680844 -0.1067475 -0.06609908 -0.0034502111 -0.03956508 -0.074789286 -0.060263496 -0.07655694
0.003779505 0.067140155 0.04976443 0.06362282 -0.026053766 0.065004416 -0.045431454 0.020273935
0.012757781 -0.021972224 -0.025563736 0.07038981 -0.09366746 -0.07699325 -0.0775992 0.007888529
-0.028591271 -0.10977891 -0.038319346 0.058571216 0.151368 0.07226479 -0.040553644 -0.023460856
0.07871694 -0.0025754748 0.03802085 0.049641423 -0.0031928725 -0.066045955 0.056859665 0.060152538

weight f4 [9, 128]
00000000: ff37 22bb 04f1 bfbc 7834 d83c a49b a13d
00000010: 4432 75bd d975 a0bd f81f bcbc 646d 803d
00000020: 1ed1 7bbd 3493 80bd 3b79 453d 386b 043c
00000030: b8bd 34bd 7857 803d d909 773d 116b 81bc
00000040: 2c20 29bd 901a 91bd d6bc 163d 5769 4ebd
00000050: a5cc 563d 2226 58bd b578 1cbd d821 9cbc
00000060: 0444 413d 628d 4dbc 06b0 493d 8f3c 67bd
00000070: cdd8 66bd 2ce5 8b3d c7f6 bf3d 7b57 333d
00000080: b100 a1bc ad8a aabc 12f5 a3bd 87d1 363d
00000090: ef59 dc3b f9e2 5abc 6977 92bd f187 a83d
000000a0: 7685 8fbd b0af b53c 2c67 323d 1aa9 833d
000000b0: 9aee fbbc 0f1b 1e3d faa5 a2bd 5333 013c
000000c0: 120b adbd aeeb ec3c fc91 2cbd ba99 e23b
000000d0: fa34 7b3a 8345 f13c 337c 1dbc fa40 a1bd
000000e0: 7577 083d 25b8 5ebd 8139 283d 39e7 7b3c
000000f0: c98e 3dbd 5743 a7bc 833d 39bc bbb8 713d
00000100: 6b01 0abd a69f 6cba 0382 c63c 5003 1d3b
00000110: d281 d73c 3f7c b9bd 0333 8a3d b99c 5f3d
00000120: dead ed3b 795e 74bd a6f2 2fbc b4d3 ecbc
00000130: 6532 883d a120 a33d b283 a2bc 79ed 7abd
00000140: 7acc e3bc 2942 88bd f41a 9b3b d965 87bd
00000150: 7b1e 873d 48ef 68bd 0e2c 73bd 81d3 d33c
00000160: 80e0 91bd 9590 29bd 57c0 353c 1166 5b3d
00000170: ed3e 43bd 5843 ba3c 9fb3 01bd 9203 533d
00000180: 2cc3 723b b5ad bbbc 5201 2ebd 5702 a53d
00000190: 4e22 3c3c afc5 c8bc af3d b5bd fffc b9bb
000001a0: 7de8 05bd 35d6 a7bc 0652 b13d c70c 9dbd
000001b0: 6f4d 0cbd 5fd1 1ebd ea2b 41bd 8cdc 2cbd
000001c0: 2f90 e6bc bfa9 a73d 2aa4 89bd 3df2 9cbd
000001d0: 74fc e4bd aef8 9fbd b318 a9bc 8622 923b
000001e0: 7f1f a4bd b90b 6cbd 94cc cdbc 27b7 733c
000001f0: 16cb 3b3d 7b1d 753d e3d9 003d 3103 4cbd
00000200: bb48 92bd 007c 9c3d 3198 1cbd 65af 013c
00000210: 6d50 80bc fa9d e3bc 54b9 b0bd 7383 3ebd
00000220: d1bd 5cbd ca52 aebd 5c47 b63c 5037 a0bd
00000230: 3fbe 893b 6124 99bd 8d08 a8bd ace9 c2bc
00000240: df30 283d 4cdf 9f3d 1a48 1f3d 31bb 993c
00000250: 721b ff3a f655 0e3d 25a6 9d3c 06b6 88bd
00000260: 7633 a63d f4f5 663c e5ea bebc f497 90bd
00000270: f887 003c cee7 903d 7bd5 7e3c dc8e 2a3d
00000280: 11fa 1c3d bd57 073d 6cb4 2e3d 638c 8dbd
00000290: 21a5 803d e130 f0bc 225e 49bd 30dc 883d
000002a0: 253f 94bd 00e8 1bbd cc0b 91bc 4b48 4e3d
000002b0: 55af 463d 3c33 0c3d 32b3 26bd b216 10bc
000002c0: 55f1 49bd 47a9 323d d606 8e3d 2b4f 80bd
000002d0: e356 043d 8b68 943d 066c 593d 589d 8ebd
000002e0: 8883 43bc f2c8 f5bc 3f27 41bd eeb5 893d
000002f0: 36cb 6c3c d247 9abd a518 a23c 5660 02ba
00000300: a3e1 1f3d 00ec 03bc b532 993c 925b 6abd
00000310: 93b5 a0bc 568c 5ebb c19d 96bd 7943 bdba
00000320: 99de 063d aa57 743d 45ef 873d ce28 7dbd
00000330: f263 b2bc 2090 a1ba 88d0 49bd 67dc 363d
00000340: 7de6 8e3d 2cc5 143a 7c7c aebd 5fff 78bd
00000350: 2d1b 24bd b405 28bd fa97 81bc 1822 ad3c
00000360: 4d1c 4abc 5e7c 0fbd fd14 703d db66 683d
00000370: 53e5 653d 0fcb 2d3d 8217 7d3d 19d1 513d
00000380: dbdb 993b 9f3d dabd 38e8 62bd 5e65 80bd
00000390: 242d b5bd cbd7 1f3d 4e7e 1ebd ccf8 3d3d
000003a0: b97e 583c c08a 91bd 2ba9 0cbd 598f 833d
000003b0: ecaf e2bc 48e2 6b3d 2bad 50bd cc15 a5bd
000003c0: c1b4 e13c dda6 9abd 9cf0 0cbb b1cb a43d
000003d0: 687f aebd 4ee4 acbd 5652 d4bc 5f23 ba3b
000003e0: b160 023d 6b78 2a3d 404a 13bd cddf 843d
000003f0: 9213 66bd ffae fbbc 6d0f 7a3d d04a 3dbd
-0.0024752615 -0.023430355 0.026392207 0.07891014 -0.05986239 -0.07834978 -0.022964463 0.062708646
-0.061478727 -0.06278077 0.048211318 0.008082204 -0.044126242 0.06266683 0.060312126 -0.015798124
-0.041290447 -0.070851445 0.03680118 -0.05039343 0.052441258 -0.05277074 -0.038201053 -0.019059107
0.047184005 -0.012545915 0.049240135 -0.056454238 -0.0563591 0.068308204 0.09373241 0.0437846
-0.01965365 -0.020818079 -0.08005728 0.044633415 0.006724588 -0.013359779 -0.07151682 0.08229054
-0.070078775 0.0221785 0.043555424 0.06428738 -0.030753423 0.038600024 -0.07941814 0.007885772
-0.08449377 0.028920975 -0.04213141 0.0069152983 0.0009582784 0.029452091 -0.009612131 -0.078737214
0.033317048 -0.054374833 0.041070465 0.015374952 -0.04627875 -0.020417852 -0.011306169 0.059014063
-0.03369276 -0.0009026475 0.024231916 0.0023958273 0.02630702 -0.09056901 0.06748011 0.05459282
0.0072533926 -0.05966041 -0.010739004 -0.028909542 0.06650237 0.07965208 -0.019838188 -0.061261628
-0.027807463 -0.06653244 0.0047334377 -0.06611223 0.065976106 -0.05686882 -0.059368186 0.025857689
-0.07122898 -0.04139765 0.011093221 0.053564135 -0.047667433 0.02273719 -0.03166544 0.051517077
0.00370426 -0.022909978 -0.042481728 0.08057087 0.011482788 -0.024508325 -0.08849656 -0.0056759114
-0.03269242 -0.020487884 0.08658223 -0.07668453 -0.034253534 -0.03877389 -0.04716102 -0.042202517
-0.028144924 0.081866734 -0.06720765 -0.07663391 -0.11180964 -0.07811104 -0.02064166 0.004459682
-0.0801382 -0.057628367 -0.025121965 0.01487521 0.045847975 0.059842568 0.031457793 -0.04980773
-0.071427785 0.076408386 -0.03823108 0.0079153525 -0.01566335 -0.02778529 -0.086290985 -0.04651208
-0.05389196 -0.085118845 0.022250824 -0.0782305 0.0042035873 -0.07477642 -0.08204756 -0.023793064
0.041062232 0.078062624 0.03888712 0.018766018 0.0019463135 0.034749947 0.019244263 -0.06675343
0.08115284 0.014096726 -0.023305366 -0.07060233 0.0078449175 0.07075463 0.015553827 0.041640148
0.03832442 0.033042658 0.042652532 -0.06911542 0.06281496 -0.029320182 -0.049162038 0.066826224
-0.07238606 -0.03806305 -0.01770582 0.050361913 0.048507053 0.03422855 -0.040698238 -0.0087944735
-0.049302418 0.043618467 0.069348976 -0.062651 0.032309424 0.072465025 0.053081535 -0.06963605
-0.011933215 -0.030003045 -0.04715657 0.067241535 0.014452746 -0.0753323 0.019787142 -0.00049734616
0.039033543 -0.008051872 0.018700937 -0.057216235 -0.019617831 -0.0033958158 -0.07354308 -0.0014439664
0.03292713 0.059653915 0.06637434 -0.061806493 -0.021776173 -0.0012326278 -0.049271137 0.044643786
0.06977556 0.0005675133 -0.08519837 -0.060790416 -0.04006498 -0.041021064 -0.015819538 0.021134421
-0.012335849 -0.035030715 0.058613766 0.056738716 0.056126904 0.04242998 0.061789997 0.0512248
0.0046953983 -0.106562845 -0.055397242 -0.06269334 -0.088465005 0.039024156 -0.038694672 0.04637985
0.013213807 -0.071065426 -0.03434102 0.06423826 -0.027671777 0.057588845 -0.050946396 -0.08060798
0.02755201 -0.07551358 -0.002150572 0.080466636 -0.085203946 -0.08441983 -0.025918167 0.005680486
0.031830493 0.041618746 -0.035959482 0.06487999 -0.056171007 -0.030723093 0.061049867 -0.046213925

bias f4 [9]
00000000: 9e9b bc3c 51f5 fdbd ac7d 40bd da95 2b3d
00000010: 00af 82bd 5482 b9bd 18d0 433d 027b a0bd
00000020: 457b ba3c
0.023023423 -0.12400306 -0.04699485 0.041890956 -0.06381035 -0.09058061 0.047805876 -0.07835962
0.022763858
