models/dqn2_q_network.pth (torch, 80014 bytes, 6 tensors)

weight f4 [128, 10]
00000000: 5468 f6bd 1d6b c23d e7b9 773e cc38 873e
00000010: da15 cdbd 9237 5b3e 8941 283e 2c2f 52be
00000020: 2fd7 c0bd ba18 a4be 2581 33be da7a 8abe
00000030: 2e74 263d 5aef 6d3e 6861 683d 2735 06be
00000040: 0b45 a5bc 51bc 8fbe ad08 34be 94e4 23bd
00000050: 1f44 17be 73da 333e ec06 1bbe 435a 2dbe
00000060: bd3b 48be 4a12 8cbe 08c8 89be e623 e93c
00000070: a65e ebbd 0758 d2bd aa0c a33e d077 093e
00000080: f161 99bb 606b 8fbe e67f 9f3d 9cca 35be
00000090: 63ee 01bd e22d 20be 8c8e 6fbe 5196 82bb
000000a0: e08c 78be 3806 34be 8fdf 703e dcc5 debd
000000b0: fb09 b93c 040e 6ebd 31bf ca3c 50c9 9b3c
000000c0: a335 843d 7eab 983c 58b5 87be 5570 e9bd
000000d0: 3020 9e3d 0ccb df3d b13e b4bd 137e 4bbc
000000e0: 7e15 88bc 42b0 143e 676a 273d df01 3d3e
000000f0: 4e91 72be 899c bf3d f029 df3d 4e3c 03be
00000100: 5323 5bbd 4d82 803e 8c2c f23d a933 4c3e
00000110: 6a93 a0bd 2fc0 cd3d ddcf bbb9 4861 a8bc
00000120: 1c9d 9bbc f837 11be e689 573d 4bca 3abe
00000130: c403 79bd 7ea8 8a3e a71c 80bd a7ad 84bc
00000140: 2c84 c23d 4c3c 28be 6085 983c 5e5a 533e
00000150: a7db 66be b511 3f3e 8be0 3c3d c5ea 4a3e
00000160: aac5 f3bc f0ed 163e 680a 753e 4a07 3e3d
00000170: e34d 4ebe 7fb6 373e 2c42 d7bd 3375 bbbc
00000180: 106e ca3e 0345 3abe bfb6 003e 8779 1f3e
00000190: 1bd2 ccbd a270 c1bb cb6f 3c3e c392 63be
000001a0: 0091 40bd 8ca4 34be 958e e13d 27cc 9dbe
000001b0: 733b ce3d 7c3c 11be 94cf 6fbe bc0a 89be
000001c0: e7de 3bbe 3d8b c9bd 7f06 223e 6a84 c83d
000001d0: a42e 7abb d7d2 403e d959 40be 43db 723e
000001e0: 76de b63d d32b fd3d 3bf0 893b 0cf7 84be
000001f0: ebf8 4f3e 751a a0be d2c1 3e3e 5c42 853e
00000200: b388 65bd 2d86 943c e0db 54be 0171 023e
00000210: 9a86 b4bc 4b6f 19be 19ee 83be a266 883e
00000220: 5c91 67be 8b28 183e 9e7a 57be fe1d 8b3e
00000230: aebe 5e3e 4260 173e 4f6f 60be 365a e43d
00000240: a839 44bd c054 90be c0a8 aebe b089 69be
00000250: 652d 9b3d 5a52 303e 4098 3cbe 12b6 6fbe
00000260: 211b 093b de5f 6b3e 8163 0e3d a2c9 673d
00000270: 1755 8cbe 3732 953e 9407 f2bd e0e1 673d
00000280: a4df aebd aec9 323e 166f 563e 67ba ea3d
00000290: 9cda 23be ab22 c53d 64e6 1ebe 4381 3b3e
000002a0: c272 283d 2308 b9be 3754 803d b8a1 9fbe
000002b0: e998 8cbe bb66 0fbe e688 a83e 5fcf bb3d
000002c0: 6cf6 b1bd 90c0 453b c11f 1f3e 93db 913e
000002d0: 4511 14be eb03 eabd 5b9d 94be d4c0 7b3e
000002e0: 67f7 da3b da56 69be 889c 39be bad3 90be
000002f0: 6e0c 903e 8577 223e ed4e 88be 74a6 54be
00000300: 97a4 203e b34f 8fbd 6565 34be 9ffd 443d
00000310: bf21 dcbd 2f56 013e 1361 5a3e aa5c 36bd
00000320: 5918 78bd 63cf 813e de1f 123e 8017 8f3e
00000330: 41e5 893e 78b1 cdbd f93a 9f3e b785 c5bd
00000340: 13a5 51be 7c11 8abe 9160 823e 7906 243e
00000350: af2e 28be 003f 8ebe 19f0 183e 40cd 023e
00000360: 12d1 aa3d 3a21 88bd 8f7a 30bd 0b6a 6cbe
00000370: 6e9f 9b3d a4cb 78be 309a 3c3e da47 0e3e
00000380: a8e7 b0bd cce9 683a 9a43 8abd 2d27 79bd
00000390: 5bac de3d b880 683d ed98 a43b 5dfb 3c3e
000003a0: c399 69bd 8321 de3c fa4f 6d3c 828e 903e
000003b0: ca95 05be 2349 123e da34 673e 7c85 173d
000003c0: 372c 963d ac09 543e 44ae 02be 9c0e 85bd
000003d0: 33fb 65be 7d9a f7ba 2fcf 293e 7bba 443e
000003e0: ffa4 a4bd f2b9 4e3e c6cb 033e 7958 0a3e
000003f0: d1cb 01bd 3b9b 28be 9f0e d5bd 2a05 83be
-0.12031618 0.094930865 0.2419201 0.2641052 -0.100139335 0.21407917 0.1643125 -0.20525807
-0.09416043 -0.32050115 -0.17529733 -0.27046853 0.04063814 0.23235837 0.05673352 -0.13106214
-0.020174524 -0.28073362 -0.17581435 -0.04001291 -0.1477208 0.175638 -0.15139359 -0.16928963
-0.19554038 -0.27357703 -0.26910424 0.0284595 -0.11492662 -0.10270696 0.318456 0.13424611
-0.004680865 -0.28011608 0.077880666 -0.1775307 -0.031721484 -0.15642503 -0.23394221 -0.0039852043
-0.2427249 -0.17580497 0.23522781 -0.108775824 0.022587767 -0.058118835 0.02474937 0.019016892
0.06455543 0.018636461 -0.26505542 -0.11398379 0.07720983 0.109274 -0.0880102 -0.012420195
-0.01661181 0.14520362 0.040872958 0.18457745 -0.23688242 0.093560286 0.10896671 -0.12815973
-0.053500485 0.25099412 0.11824903 0.19941582 -0.07840617 0.10046422 -0.0003582229 -0.0205542
-0.018995814 -0.14181507 0.052621745 -0.18241231 -0.060794607 0.27081674 -0.06255465 -0.016196085
0.09497866 -0.16429251 0.018618286 0.20639941 -0.22544728 0.18659098 0.04611258 0.1981612
-0.02975734 0.14739203 0.23929751 0.04639367 -0.20146899 0.1794071 -0.10510668 -0.022883033
0.39537096 -0.18190388 0.12569712 0.15573703 -0.10001012 -0.0059033195 0.1840202 -0.22223954
-0.047013283 -0.17640895 0.110135235 -0.30819818 0.10069933 -0.14183229 -0.23419029 -0.26766002
-0.18346749 -0.09841011 0.1582279 0.09790881 -0.0038174773 0.18830429 -0.18784274 0.23716454
0.0892915 0.123618744 0.004209546 -0.25969732 0.20309798 -0.31270185 0.18628624 0.2602719
-0.05603857 0.018130386 -0.20787 0.1273842 -0.02203684 -0.14983861 -0.25767592 0.26640803
-0.22614044 0.14859216 -0.21042868 0.2717132 0.21752426 0.14782813 -0.21917461 0.11150019
-0.047906548 -0.2818966 -0.3411312 -0.2280643 0.07577018 0.17218915 -0.18417454 -0.23409298
0.002092071 0.22985789 0.034762863 0.056588776 -0.27408668 0.29139873 -0.11817852 0.056611896
-0.0853875 0.17459747 0.20940813 0.11461335 -0.16001362 0.09625753 -0.15517575 0.18311028
0.041125067 -0.3613902 0.06266063 -0.3117807 -0.2746041 -0.14004032 0.32916945 0.09170412
-0.08689579 0.003017459 0.15539457 0.28487834 -0.14459713 -0.114265285 -0.29026303 0.24585277
0.0066823247 -0.22787037 -0.18126118 -0.28286535 0.28134483 0.15865906 -0.26622716 -0.20766622
0.15687786 -0.06997623 -0.17616804 0.048093434 -0.10748624 0.12630533 0.21326093 -0.044521965
-0.060570095 0.25353536 0.14269969 0.27947617 0.2693272 -0.10043615 0.3109968 -0.09644645
-0.20473127 -0.26966465 0.254643 0.16018094 -0.16424058 -0.2778244 0.1493534 0.12773609
0.08340658 -0.066469625 -0.04308563 -0.23087327 0.07598768 -0.24296433 0.18418193 0.13894597
-0.08637935 0.0008884936 -0.06751175 -0.060828377 0.10872718 0.05676338 0.005023113 0.18455262
-0.057031404 0.027115589 0.0144844 0.28233725 -0.13045421 0.14285712 0.22578755 0.036992535
0.07332652 0.20706815 -0.1276179 -0.06496927 -0.22459106 -0.0018890646 0.1658294 0.19211762
-0.08039283 0.2018812 0.12870702 0.13510312 -0.031688515 -0.16465466 -0.104031794 -0.25589877

bias f4 [128]
00000000: 8cf3 44bc a7af 753e b3bf 85bc 46ce 1ebe
00000010: 5be1 1a3e d684 50be 9302 5b3e 9fff 713e
00000020: 5dee 693e 4d1f 10bd 4cde 933e 67ec 26be
00000030: abff 903e 4391 8abe 2c99 13ba b1f1 6d3e
00000040: b317 1fbe 41d4 8c3b ee76 253e 48f8 e8bc
00000050: 5c05 a3be b33a 98be f059 56bd 39c5 753e
00000060: 83f8 f5bc 7f05 32be 553a 87be 727d 843e
00000070: 6976 53be c9dd 123d 51b6 44bc 8a63 313e
00000080: 1b9e 963d 9852 193e b675 a93e bc30 afbe
00000090: b60b 8bbd e415 d6bd 0a06 983e ac40 98be
000000a0: 1541 b53d 6345 8bbe 7ac1 a8bd 3fce 1dbe
000000b0: 4756 9fbe 6aca 82be b900 43be 50c8 ee3b
000000c0: 8422 143e 3a00 88be cb17 4d3d 3ac9 9f3e
000000d0: 4613 84be 19d8 93be 4a7b 173e 8c83 9bbd
000000e0: b9e3 013d 7410 453c dd9a a7be 1733 3e3e
000000f0: 1c31 5cbe c544 5bbe 3433 473a 08ed 113e
00000100: 923d 3b3c 7a4c 9f3d c103 dc3d 93f3 68be
00000110: f9c5 57be 3e29 2d3e dcad a0be 910c 583e
00000120: b84e 133e 9fe4 f0bc f9db 3bbe 6048 14be
00000130: 9a94 b4be 2493 99be f849 773e f5f7 0cbe
00000140: 95c7 f13c bfef 373e ce8f 3bbe 00c0 0c3e
00000150: f0f6 153e b5ed 463d 6117 a6bc 141e da3d
00000160: d033 5a3e 084f c73d 942a 923e f991 2d3e
00000170: c304 24bd f045 69be 3e7b ac3e 644e 89be
00000180: c16c 98bd 8333 983d 4929 d6be ed9e 41be
00000190: ca56 9a3d 6c72 673e ccec e83d da92 60be
000001a0: 777d 8dbd 23b2 363e 0231 3dbe 4959 483e
000001b0: 7a8c 123e 7604 73be 438f 3fbe 4067 323e
000001c0: ae89 8bbe 9068 643d 037c 893e d3bd b2be
000001d0: 4f78 f6bc a978 043e 1203 3dbe 27b6 a1bd
000001e0: ee7a f13c a4a1 5a3d d97e 133e 7388 9abe
000001f0: 1af0 633e 3b41 773e dd5e 953e 9606 e63c
-0.012020957 0.23992787 -0.01632676 -0.15508375 0.15125029 -0.20363173 0.213877 0.23632668
0.22844835 -0.0351861 0.28880537 -0.16301118 0.2832006 -0.2706395 -0.00056304294 0.23236729
-0.15536384 0.0042977636 0.1615865 -0.028438702 -0.31840026 -0.29732284 -0.052331865 0.24001016
-0.030025726 -0.17384909 -0.2641169 0.25876957 -0.20650639 0.035856042 -0.012006358 0.17323127
0.07354375 0.14972913 0.3309762 -0.3421687 -0.06789343 -0.10453394 0.29692107 -0.2973684
0.08850304 -0.27201375 -0.08240028 -0.15410708 -0.31120512 -0.25545055 -0.19043244 0.0072870627
0.14466292 -0.26562673 0.05007152 0.3120821 -0.25795954 -0.28875807 0.14793125 -0.0759345
0.031711314 0.0120278485 -0.3273534 0.18574177 -0.21503109 -0.21412952 0.00075988774 0.14250576
0.011428254 0.077782586 0.107429035 -0.22749166 -0.21071614 0.16910264 -0.31382644 0.21098544
0.14385498 -0.02940589 -0.18345632 -0.14480734 -0.35269624 -0.29995072 0.2414931 -0.13766463
0.029514113 0.1796255 -0.18316576 0.13745117 0.1464498 0.04856654 -0.02027482 0.10650268
0.21308827 0.09731871 0.2854811 0.16950215 -0.040043604 -0.22780585 0.33687776 -0.2681762
-0.07442618 0.074317 -0.41828373 -0.18908282 0.07536085 0.22602242 0.113732904 -0.2193102
-0.06908696 0.17841391 -0.18475726 0.1956531 0.143114 -0.2373217 -0.18706994 0.17422199
-0.2725348 0.05576378 0.26852426 -0.3491045 -0.030086664 0.12936653 -0.18458202 -0.07896071
0.029477563 0.05337681 0.14403857 -0.30182227 0.2225956 0.24145977 0.29173937 0.028079312

weight f4 [128, 128]
00000000: 3c7d e9bc 12c7 5c3d 893c 07bd 1cc1 97bd
00000010: 259c c13c 84ae 19bd 1372 b3bd fff9 9abd
00000020: 13d8 a8bd 225a babd 9ed6 133d 756b 923b
00000030: 2f2a 76bc 835f 03bd 98ce db3c c7eb 5ebd
00000040: cc61 c5bc 8f95 183d 6e76 333d 5ab1 fdb9
00000050: 1483 bcbd 80d5 35bd b99a d43c 28a9 203d
00000060: 2f28 1dbd f595 4ebd abb7 883d 830b 8f3d
00000070: 926c dabd 3aae 75bc b3c4 b6bd 5d1e 79bd
00000080: 8e53 92bc f962 c6bc 48f6 f6bc 963e 6cbd
00000090: bf72 a3bc e8be 813b 6a89 283d 0cb0 6a3d
000000a0: 4935 c13c 920c b3bd 0650 94bd 4da7 a63d
000000b0: e4e1 e73c f6af f63a 6c11 033d 32a3 873c
000000c0: 284d 143c ee1b b1bd 101a 82bd 15ac 203d
000000d0: 67fc e63a 284f 863d 9cb9 323c 427c a1bd
000000e0: 64bc 423c 592d 28bb 04fb cebd a0f4 04bb
000000f0: ea9a 0b3d 5811 5d3d d65d 7bbd 4eab 2b3d
00000100: ab30 3f3d 26c6 07bd 8042 94bd 991c 56bc
00000110: 23d2 f13c bc18 563d e4aa cf3c e7d9 6fbd
00000120: 53c0 82bd 1c2a 22bd 3709 873d a7f6 d73b
00000130: 0e83 5dbd 1810 a13d 3e84 20bd 0430 b0bc
00000140: a640 a13d 9041 aabd 8bdc a63c 2244 743d
00000150: 3874 88bd d0c6 83bd 03e3 5dbd 7416 873d
00000160: 2ea5 7cbd 476c c7bd ef72 c9ba 8dc5 3b3d
00000170: e781 c2bc 8d41 823d 4eca 793d 96cd 773c
00000180: d29d 583d c559 9cbd fd05 07bd 1fd8 7fbd
00000190: a616 9f3d 968e 2a3d 6257 59bd becd c7bc
000001a0: 3487 a73d 46a0 0abc e28f 113d 2bc8 45bc
000001b0: 4fb2 19bd 1e66 9abd db7d 043d 5cb8 9cbd
000001c0: ae2a ccbb fb0a 82bc 0740 cabb 1f98 643d
000001d0: 6638 753c 7874 a2bd 6333 593d d8e6 cabb
000001e0: a697 48bc 4721 253d 71ed c63c 704b 023d
000001f0: d804 f63c cb05 7a3d 287f 24bd 89e4 90bd
00000200: 6791 e9bb a679 dfbc e6aa 933d ec6b 75bc
00000210: 11ca 143d 91f5 a43d eb5c 8a3b aff2 913d
00000220: 76ac 0cbd 06ae 83bd 7c58 e3bc f8a3 7d3c
00000230: 2964 91bd 1d43 7c3d 49cd 43bd 7e2e 8cbd
00000240: 7766 cd3c d169 04bd b502 40bb e4ee 5fbc
00000250: 886d 93bd d01c d7bd 08ff a63d b3b5 3fba
00000260: e616 49bb d2c4 623d 2be5 513d 8dee 363d
00000270: 857b 61bb b654 5e3d d143 0a3d d9db 13bd
00000280: ef75 b63c 72ff 06bd 75df b13d 1617 0cbd
00000290: dd19 a93d 6437 093d a2df 3dbc 385d 913d
000002a0: b295 0fbd 3abd 973c 9837 53bd e5c3 a93c
000002b0: aa24 98bc b006 853c 57b7 89bd 1d74 d33c
000002c0: 4326 64bd 5efb 8dbc 0381 40bd 3f01 2fbb
000002d0: e103 0e3d 2caa 53bd 7182 2e3d 4d58 79bd
000002e0: 9433 89bd be41 84bc 8449 8dbd 37ab 8c3d
000002f0: e3fc f13a fac4 10bd 940e 783d c58a 5fbd
00000300: 2923 183e 006d 9bbb 2871 aabd 43be d13c
00000310: f1b4 0abd f4ba 5ab9 2314 61bc b9f9 11be
00000320: 445c 16bd eeb0 9b3d 37ed 503d 450d 4abd
00000330: 4834 8e3d 522b 49bd cf8d 85bd 5409 883d
00000340: 0d43 79bd bbb9 e73c ebf0 84bc 71f6 a83c
00000350: c37b cfbd ef72 20bd 4f5c 223c 99d9 3bbd
00000360: a81e bfbb e42d 38bd 3c59 a13c 3150 12bd
00000370: 1031 1e3d 1ec3 ec3c 6c44 9bbc 377b 203d
00000380: bc2a babc 6361 903d 4896 a5bc d748 29bd
00000390: 0ee8 12bd fb73 6db9 a9ae 60bd 0d0c 27bc
000003a0: e9bb 063c 8d07 53bb 0aec 8b3d 7741 a53d
000003b0: 8cbd 503d 48c6 d43b ccf8 8b3d e360 d63c
000003c0: 705f b4bd 77fc 8d3d d4aa 6e3d 3ec5 953d
000003d0: 5333 493d 0c5a 87bd 793d 59bc 51c9 84bd
000003e0: c395 82bd 44e0 78bd 68a2 a73c 3061 9b3d
000003f0: 2276 823d c387 bd3c 9a6b ac3d 88aa 353d
-0.0285021 0.053900786 -0.033016715 -0.074098796 0.023634026 -0.037519947 -0.08761992 -0.07567214
-0.08244338 -0.09099223 0.036093347 0.0044683763 -0.015024706 -0.03207351 0.02683191 -0.054424074
-0.024094485 0.037252005 0.043814115 -0.00048388058 -0.09204689 -0.044393063 0.025952684 0.03922382
-0.0383684 -0.05043598 0.06675657 0.069846176 -0.106652394 -0.014995152 -0.08924236 -0.060819972
-0.017862108 -0.024217116 -0.030146733 -0.057676874 -0.019952176 0.0039595254 0.041146673 0.057296798
0.023584979 -0.08742632 -0.07241826 0.08137379 0.028305955 0.0018820751 0.031999037 0.01655731
0.009051599 -0.08647905 -0.06352627 0.03922661 0.0017622829 0.065580666 0.010908511 -0.078850284
0.011885736 -0.0025661795 -0.10106471 -0.002028741 0.034083284 0.05397162 -0.061368786 0.041911416
0.046677273 -0.033147953 -0.07239246 -0.013068342 0.029519146 0.052269682 0.025350042 -0.058557417
-0.06384339 -0.03959094 0.065935545 0.0065906825 -0.05408006 0.07864398 -0.039188616 -0.02150727
0.07873659 -0.08313286 0.020368835 0.05963529 -0.06662792 -0.06434405 -0.054171573 0.065960795
-0.061680965 -0.09737449 -0.0015369336 0.045842696 -0.023743583 0.06360159 0.06098395 0.015124699
0.052884884 -0.0763431 -0.032964695 -0.06246197 0.07767992 0.041639887 -0.05306185 -0.024390098
0.08180085 -0.008461064 0.035537608 -0.01207165 -0.037523564 -0.075390086 0.032346588 -0.07652351
-0.0062306738 -0.015874377 -0.0061721834 0.055809136 0.01496706 -0.07932371 0.05302752 -0.0061920695
-0.012243187 0.04031494 0.024283143 0.031810224 0.030031607 0.06104068 -0.04016033 -0.070748396
-0.007127929 -0.027279686 0.07210331 -0.014979344 0.036325518 0.080546506 0.0042225025 0.07126366
-0.03434416 -0.06429677 -0.027752154 0.015480988 -0.07099182 0.06158744 -0.047803197 -0.06844805
0.025073273 -0.032327477 -0.0029298489 -0.013667796 -0.07198626 -0.105035424 0.08154112 -0.0007313147
-0.0030683815 0.055363484 0.051243942 0.044661094 -0.0034405899 0.054280005 0.03375608 -0.036098335
0.022273032 -0.032958455 0.08685199 -0.034201704 0.08256886 0.03350009 -0.011588963 0.07097858
-0.03505487 0.018522847 -0.05156669 0.020723293 -0.01857217 0.01623854 -0.067244224 0.025812203
-0.05570055 -0.017331775 -0.046998035 -0.0026703624 0.034671668 -0.05167596 0.042604867 -0.060875226
-0.06699291 -0.01614463 -0.068987876 0.06868594 0.0018462207 -0.0353441 0.060560778 -0.0545757
0.14857163 -0.0047432184 -0.08322364 0.02560342 -0.033863965 -0.00020859746 -0.013737711 -0.14255418
-0.036709085 0.07602106 0.051007476 -0.04932906 0.069435656 -0.04911358 -0.065211885 0.06642404
-0.06085496 0.028286805 -0.01622816 0.020625325 -0.101310275 -0.03917211 0.009909703 -0.045861814
-0.005832512 -0.04496564 0.01969587 -0.035721008 0.03862101 0.028901633 -0.018953525 0.039180007
-0.022725455 0.07049825 -0.020213261 -0.04132923 -0.035865836 -0.00022645287 -0.05485407 -0.010195744
0.008223512 -0.0032200546 0.0683213 0.08069127 0.050962016 0.0064933635 0.068345636 0.026169246
-0.08807266 0.069329195 0.058268383 0.073130116 0.049121212 -0.06608972 -0.013259285 -0.064837106
-0.06376221 -0.06076075 0.020463184 0.075868964 0.06370188 0.023136025 0.08418961 0.044352084

bias f4 [128]
00000000: 7b45 933d 7e33 ab3b bd70 35bd 93d8 f63c
00000010: 20b3 60bd f96b a03d 868a 99bd d1c2 303d
00000020: ed75 31bd b254 aa3c b213 dd3b d7e7 4bbd
00000030: b1eb 8ebd 00a8 863d eae7 5cbd 7541 973d
00000040: 2090 59bd c27d abbc f221 cabd f197 3abd
00000050: 14b0 0cbe f387 b2bd d980 cabd 20bc 94bc
00000060: 4ed8 c7bd fad4 133d 6e00 343b b1ef 073c
00000070: f775 41bd 2760 b3bd eaf5 883c 8732 a3bd
00000080: fdeb b6bd 459b 7ebd 91ab a03b 892b 503d
00000090: 20f6 8a3c fde9 a83d 4c79 94bd a6f9 093c
000000a0: a3c6 b5bd 7952 b0bd c593 d13c be7a 86bd
000000b0: 1df0 cc3d d83f 773d e786 423d 47de 893d
000000c0: cf11 e03d b6b4 5e3d bd2c 403d 4ea6 06bd
000000d0: 464f 113e 6c1c 003e 07bd 00bb b45d 32bd
000000e0: 4d36 253d f4bc 943b 9eb7 563d 25a5 3a3b
000000f0: 0a1e 3cbd 43a3 79bd 0e08 bb3d 32be 293d
00000100: 4f78 5f3d fe53 c0bc c131 f03c b8a6 f43c
00000110: 50cb 733d 5ed6 0bbe 5a50 debd 6cad 55bd
00000120: f2c8 df3d a164 95bd d668 fdbc 13dc abbc
00000130: bd75 a9bc 27dd 39bd 2bea 86bd 1a21 3e3d
00000140: 10b9 d9bd c855 5c3d d356 dbbc 0ecd a7bd
00000150: 5033 fe3c d338 9abd 654d 953d 06a2 8e3d
00000160: e75e 463d e3d1 3fbd 3661 d1bd b756 b73c
00000170: 376c 38bd 2bac c63c 68f4 59bd 2cba 86bb
00000180: ffdb f33c eb29 25bc 49a8 5abd 29ea c03a
00000190: 6d56 91bd 7d39 d8bd 6605 72bd 1dce bbbd
000001a0: ecb9 143e 1e0f 593d f20f acbd 5444 a9bd
000001b0: 37b0 3c3c f587 cebd d501 2a3d d8c4 8a3d
000001c0: c8fb 703b 5445 d3bc 7026 003a a761 93bd
000001d0: ef61 dc3d f9ed bbbd c383 a6bd f55f 04bd
000001e0: 34f1 c43c c615 5e3d ec95 5ebc b782 9ebd
000001f0: 5b81 973d ad52 213d 2302 d43d 015c debd
0.07190987 0.005224644 -0.04429697 0.030132568 -0.054858327 0.07833094 -0.074971244 0.04315454
-0.043325353 0.020792339 0.0067467326 -0.049781647 -0.06978548 0.06575012 -0.053932108 0.07385532
-0.053115964 -0.02093399 -0.09869756 -0.04555506 -0.13739043 -0.087173365 -0.09887857 -0.018156111
-0.09758054 0.036091782 0.0027466076 0.008296893 -0.04723164 -0.08758574 0.016718823 -0.07968622
-0.0893173 -0.062159795 0.004903265 0.05082277 0.016963065 0.08247755 -0.07249698 0.008421337
-0.088757776 -0.086094804 0.025583157 -0.0656638 0.100067355 0.06036362 0.047491934 0.06731849
0.10940897 0.054371558 0.046917666 -0.032873444 0.14190397 0.12510842 -0.001964392 -0.043546394
0.04033499 0.0045391265 0.052421205 0.0028479781 -0.045927085 -0.060946714 0.09132396 0.04144115
0.054558095 -0.02347755 0.0293206 0.029864654 0.059520066 -0.13655993 -0.108551696 -0.05216734
0.10926999 -0.07294584 -0.030933779 -0.020978963 -0.020686025 -0.045376923 -0.06587633 0.046418287
-0.10631001 0.053792745 -0.0267748 -0.08193408 0.031030327 -0.075303696 0.072901525 0.06964497
0.04843035 -0.046831023 -0.1022362 0.022380216 -0.045025077 0.024252018 -0.0532116 -0.004111549
0.029767988 -0.010080795 -0.053383145 0.0014718223 -0.070965625 -0.1055784 -0.05908718 -0.09170172
0.14524049 0.052992932 -0.08401479 -0.08264986 0.011516622 -0.100845255 0.041505653 0.06775826
0.0036771167 -0.025789894 0.000488854 -0.0719636 0.10760867 -0.09176249 -0.081306 -0.032318074
0.024040796 0.054219984 -0.013585549 -0.07739776 0.073977195 0.039385486 0.1035197 -0.10857392

weight f4 [9, 128]
00000000: 4790 66bc a97f 043d 30fb 86bd 7c50 773d
00000010: 9d0b 573c 91d6 42bd 5f7f fbbc 6c9b d8bc
00000020: ba65 7a3d c202 81bc 2665 803d ec8b 34bd
00000030: dd69 683d 3c4f babd 3cc3 523c 38f9 28bb
00000040: 9136 32bc 3a54 883d 0c00 03bd 01c1 c03c
00000050: a06f 9c3d ed36 bcbb d9b5 d6ba a4e6 553d
00000060: 2c8c 933d b8c5 103c 0e6b dc3c 6cbd 30bc
00000070: ffa2 053d b280 633d 1912 a53d 481e 793d
00000080: 255b ddbc 5905 06bd a8e9 7dbd 6116 69bd
00000090: 7d6b f4bc 495e 6dbd 3df7 a1bc ae1c f3bc
000000a0: 7e8d 5e3d a868 363d 30f2 86bd 2b3d 553d
000000b0: 0916 b33b a5af d53b cc3a 9cbd 16ff a03d
000000c0: e966 31bb 8f84 81bd 14cf 083d 106f 67bd
000000d0: 110e 5d3c 27c3 c23c 12ea 553d ce6a 9f3c
000000e0: 8b64 c43b 86c5 2a3d 7568 23bd f743 c8bb
000000f0: a62a 8a3c 671c 2a3d b259 60bd 0ede f1bc
00000100: 9c29 8abd 6680 08bd 6606 88bb 4f30 e13c
00000110: 7f86 54bd 579c 9e3d f870 02b9 a6de 2d3d
00000120: d1d4 91bd aacb 12bc 5dff 5b3c 1401 263d
00000130: f052 8f3c 9859 413d bd4e 8dbc 176f 173d
00000140: 6609 7dbd 5250 a3bd 36be 3dbd 8ff8 0fbd
00000150: ba68 a43c 953f 70bd a893 7e3c 2fde 2e3d
00000160: 312b 21bc 8a2e 09bb 84ed 1abc a22b 59bd
00000170: 7278 78ba 26b1 c93d c1ba 023d e57a 19bd
00000180: bc39 8f3d 2afc 89bd 19ce ad3c d8c2 883c
00000190: 7fac 6cbd f1b2 3a3d bea7 b23c f135 aabd
000001a0: 1ae4 053d 3605 343d 0368 2c3d 9349 73bc
000001b0: 37eb 4e3c 34b5 833c c707 e23b 127f 42bc
000001c0: 21e9 4dbd 8e0d b1bd f171 0f3d 9cc0 40bd
000001d0: ec71 47bd 4d9a 05bd 098a 163d d8fb 34bd
000001e0: d45f 89bd 1c44 283c 6cf7 95bb 675c 6f3c
000001f0: b4fa 75bd 5a50 07bc 825d 04bd 1588 2c3d
00000200: 7a64 fdbb cb7b 9bbd 39be d8bb 6e86 66bc
00000210: 63f8 593d 86ef 32bb 6063 473c 883c 8b3d
00000220: be3b 9e3c 5dc6 edbc 89f6 973d b5ff b73d
00000230: c569 65bc afb4 71bd f464 2c3d 3599 23bd
00000240: 7e32 643d 3bbd 72bd 6f70 d2bb 066d b63d
00000250: 9f46 a03d a8b6 3abd 4856 b6bd 1b67 a63c
00000260: 6b06 923c fc37 513d 50c6 3dbc 52f7 81bd
00000270: b573 07bd d0e0 523d 32ca 8abd ab6b 06bd
00000280: a73f 933b 0d99 b13d 86ff 96bd 6f34 013d
00000290: b9ef a43d 5737 8f3b a79e ee3b 0079 87bd
000002a0: 7a67 b7bd df30 94bb 1dd7 393c c15d 873d
000002b0: 000d ca3d 21e3 7f3b 0c86 67bd bb92 353d
000002c0: 58ff 0e3d 0bb8 86bd 097d a93c e5d3 eebc
000002d0: 1aaf 43bc bfd6 823d 7bb5 4cbd 5aec 81bd
000002e0: 4eda 193d 8bd3 0e3c ae81 8bbd 8a68 ac3d
000002f0: 3936 233b 1fa9 a23d 13a0 8d3d 8231 183c
00000300: 3998 fb3c 1516 4ebc cc0f b4bc 6537 cc3c
00000310: f49c 7c3d f031 b23d a32a 79bd d4df 56bd
00000320: 7e57 31bd 4c3c 5b3d 83fc 413d 65cd 08bd
00000330: 6ac4 74bd 80b4 b53d 9379 70bd 0e1d 45bd
00000340: 1ec0 47bd 093e c0bc ed02 b13d 5f35 25bd
00000350: b22b 073d ae2e 31bc 986d 89bd 21e4 ac3d
00000360: d7b5 433d 18d6 2dbd 3718 f9bc 6538 613c
00000370: 308b 4fbc f9bd c3bc 1ab9 eabc 7872 77bd
00000380: 6cd6 fb3d ce52 21bd 33a7 41bd 6302 87bd
00000390: 73ee e13a 38b5 f1bc 2d86 a83a 83fa 12bd
000003a0: 7094 3fbd 110b a73d f6d3 9a3d 51c5 4cbd
000003b0: 28c1 7ebd 6573 b4bd bf2b 693d 4321 56bd
000003c0: 7f67 8cbd fd6f b63c dd67 413d 1269 60bd
000003d0: 51fe 3f3d b9f2 543d d7a9 703d de8d 073d
000003e0: 0d7c a93c 91c8 a33d 627d 13bd ef77 c8bc
000003f0: b107 943d 11f2 f0bc 1f30 333d 31f8 f93c
-0.014072484 0.03234831 -0.06590879 0.06037949 0.013125327 -0.047567908 -0.030700384 -0.026441298
0.06113217 -0.015748385 0.062692925 -0.044078752 0.056741584 -0.09097144 0.01286393 -0.0025783312
-0.010877267 0.0665669 -0.031982467 0.023529531 0.07638478 -0.0057438524 -0.0016381099 0.05222191
0.0720447 0.008836202 0.026906516 -0.010787349 0.03262615 0.055542655 0.080600925 0.060819894
-0.027021 -0.032719944 -0.06199041 -0.056906108 -0.02983641 -0.057951245 -0.019771213 -0.029676761
0.054334156 0.0445334 -0.06589162 0.052060287 0.0054652733 0.0065211826 -0.07628402 0.07861154
-0.0027069396 -0.06324112 0.03340061 -0.0565024 0.013492123 0.023774697 0.05222518 0.019460108
0.005993431 0.04169228 -0.03989454 -0.0061116177 0.01686604 0.041530993 -0.05477304 -0.02952483
-0.067462176 -0.033325575 -0.0041511534 0.027488856 -0.051886078 0.07744663 -0.0001243985 0.042448662
-0.0712067 -0.00895969 0.013427583 0.040528372 0.017495602 0.047204584 -0.01724946 0.036971178
-0.06177654 -0.07974304 -0.046323977 -0.035149153 0.020069469 -0.058654387 0.015538134 0.04269236
-0.009836958 -0.002093228 -0.009456042 -0.053020127 -0.0009478397 0.098482415 0.031916384 -0.037470717
0.06993434 -0.067375496 0.02121644 0.016694471 -0.057781693 0.045580808 0.021808501 -0.0831107
0.032688238 0.043950282 0.04209138 -0.014849084 0.012629322 0.016077615 0.0068979 -0.011871116
-0.050271157 -0.086451635 0.035020772 -0.047058687 -0.04869263 -0.032617856 0.036752734 -0.04418549
-0.06707731 0.010270145 -0.004576614 0.014609433 -0.060053542 -0.008258903 -0.03231574 0.042121965
-0.007732925 -0.07591971 -0.006614473 -0.0140701365 0.053215396 -0.0027303412 0.012169689 0.06798655
0.019315597 -0.029025251 0.0742007 0.08984319 -0.014002268 -0.059010204 0.042088464 -0.03994103
0.055712216 -0.059262495 -0.0064220945 0.08907513 0.0782597 -0.04558435 -0.089031756 0.020312836
0.017825326 0.05107878 -0.011582926 -0.06346001 -0.03306933 0.05148393 -0.06776847 -0.032817524
0.004493672 0.0867177 -0.07372956 0.031544145 0.08053536 0.0043706107 0.0072820964 -0.06614876
-0.089552835 -0.0045224275 0.011342791 0.06609679 0.09865761 0.0039045291 -0.05652432 0.044329386
0.034911484 -0.06578072 0.020689504 -0.029153774 -0.011943603 0.06388616 -0.04997776 -0.063439086
0.037561707 0.008717428 -0.06811844 0.08418377 0.0024904145 0.079424135 0.06915297 0.009289147
0.030712234 -0.012578507 -0.021980189 0.024928758 0.06167312 0.08700931 -0.060831677 -0.052459553
-0.04329633 0.0535243 0.047359955 -0.033399004 -0.059757628 0.08872318 -0.058709692 -0.04812341
-0.0487672 -0.02346708 0.08643136 -0.0403341 0.033000655 -0.010814352 -0.067103565 0.0844195
0.047780838 -0.042440504 -0.030407054 0.013746356 -0.012667462 -0.023894297 -0.028652716 -0.0604119
0.12296757 -0.03938561 -0.047278594 -0.06592252 0.0017237201 -0.029505357 0.001285737 -0.035883438
-0.04677242 0.081564076 0.075599596 -0.049992863 -0.062195927 -0.08811072 0.056926485 -0.052277815
-0.06855678 0.022270197 0.047218192 -0.054787703 0.046873394 0.05198929 0.058755722 0.03309428
0.020689035 0.079972394 -0.036008246 -0.024471251 0.072280295 -0.029412301 0.043747064 0.030513855

bias f4 [9]
00000000: b214 e0bb f6a8 97bd 27e2 bebc b9ee dcbc
00000010: a4ad c63c 9148 b1bd 43cb ebbd b9ac bbbd
00000020: 4394 d4bd
-0.0068384046 -0.074052736 -0.023301197 -0.0269693 0.02425272 -0.08656419 -0.115133785 -0.091638036
-0.10379841
